saved_models/ddpg_model_after_10000_episodes.pth (torch_old, 572160 bytes, 30 tensors)

layers.0.weight f4 [48, 24]
000000 e2 60 47 bf de e3 f6 3e 33 6d 2d bd c9 49 5a 3d
       -0.77882206 0.48220724 -0.04234047 0.053293023
000010 a3 83 96 3f 97 49 98 40 6d a2 27 bd cb 66 f5 bc
       1.1758922 4.758983 -0.040926386 -0.029956242
000020 64 c4 6f bf 97 18 19 3f cd 35 2f bd ae 91 cb be
       -0.93659043 0.59803146 -0.042775918 -0.39759582
000030 d6 e8 0b 3f 8d ba 8a 3e ca 88 b5 ba 8c c8 14 be
       0.54652154 0.27095452 -0.001384997 -0.14529628
000040 c9 dc 7a bf 83 04 fc 3e 3f 7e 72 bd df 92 0e 3f
       -0.9799314 0.49222192 -0.05920243 0.5569286
000050 1e a9 b4 3e e0 17 f8 c0 e5 e2 49 bd f3 1b ba 3e
       0.35285276 -7.7529144 -0.04928865 0.3634945
000060 ec 1e be be 5c a5 fb be 51 ad fd bc 94 fc af 3e
       -0.37132967 -0.49149597 -0.030966433 0.3437239
000070 40 60 4f c0 b5 d9 7a c0 69 56 8b 3d 18 42 c4 3e
       -3.2402496 -3.9195378 0.06803591 0.38331676
000080 30 9e fc be 68 90 ea be af b6 84 bd bf fd c1 3d
       -0.49339437 -0.45813298 -0.06480157 0.09472226
000090 48 e1 a8 3e c8 59 8b bf 1d 6b c8 bd a6 42 32 3e
       0.32984376 -1.0886774 -0.09786055 0.17408237
0000a0 76 92 ac be d2 4c 79 be b2 6f 0c 3c ca 9f 68 3d
       -0.3370549 -0.24345711 0.008571552 0.05679301
0000b0 d7 b3 7b 40 42 0f ac 40 af 9b 8b bd b1 62 5a 3c
       3.9328516 5.3768625 -0.06816804 0.013329194
0000c0 0f 0e 01 40 eb 6a d9 3f f2 37 82 3d b9 e2 be 3f
       2.016483 1.6985754 0.06358327 1.491294
0000d0 6e 19 90 bf dc be 51 c0 49 31 eb 3c 1f b4 a5 3f
       -1.125776 -3.2772741 0.028710024 1.2945594
0000e0 37 9f 01 40 e3 ee be 3f a8 61 d0 3e 0c b4 3e 3f
       2.0253427 1.4916652 0.40699506 0.7449348
0000f0 31 16 c4 bf fc 90 6b c0 16 56 d3 3e a4 ae 3e 3f
       -1.5319272 -3.6807241 0.41276616 0.7448523
000100 9c 8b 06 40 d9 34 5a 3f e2 e5 db bd 4b 86 96 3d
       2.102271 0.8523689 -0.10737206 0.07349833
000110 0a c7 00 c0 2d 3f 1b c0 dd a2 ca 3d f0 34 46 3e
       -2.0121484 -2.425731 0.09894345 0.19356132
000120 91 74 01 bf 9f 1b 83 3d de 9c 13 3e 59 d9 4e 3f
       -0.5056849 0.06401753 0.14415309 0.80800396
000130 cb 01 0c 40 21 ca c3 be b5 0e b5 3d 23 15 3d 3f
       2.1876094 -0.3824015 0.08840696 0.7386038
000140 bb 2d 86 be 08 06 96 be b4 54 81 3e 0b 9a 8f be
       -0.26206765 -0.29301476 0.25259936 -0.28047213
000150 14 6c 7a 3e 91 c7 02 bf d7 ea 70 3e 58 bd 39 bd
       0.24455291 -0.51085764 0.23527084 -0.045346588
000160 33 80 01 bf 91 62 15 bc d0 90 3a 3e ce 33 17 3f
       -0.5058624 -0.009117738 0.18219304 0.5906342
000170 79 3b af 3e 37 ff 15 c1 75 9d 8d 3e 26 dc 1c 3f
       0.34225062 -9.374808 0.27659193 0.6127342
000180 2f 79 20 3f 61 c9 82 c0 13 57 1c 3e c0 22 4d be
       0.6268491 -4.0870824 0.15267591 -0.20032787
000190 5c 65 b0 3e 9e 9b 03 3f 28 8d a1 3d 25 55 c1 be
       0.3445233 0.5140933 0.078882515 -0.37760273
0001a0 87 12 25 3f e8 19 72 c0 89 c1 2f be 1e ce cc be
       0.64481395 -3.7828312 -0.17163672 -0.40001005
0001b0 84 bc ce bf 31 8c 7e 40 86 68 07 3d 41 55 ba be
       -1.615128 3.9773066 0.033058666 -0.3639317
0001c0 9b b9 8c 3f 2e b7 7b c0 3e 96 62 3e 83 90 51 be
       1.0994142 -3.9330554 0.22127625 -0.20465283
0001d0 f3 bb 6a c0 8d b3 75 40 cb fc 70 3e a5 9b 9e bd
       -3.6677215 3.839084 0.23533933 -0.077445306
0001e0 6c f9 6a 3f ce 00 c6 3f 40 9f 08 3e a4 7f 84 bc
       0.9178684 1.5468996 0.13341999 -0.016174145
0001f0 3a 8c fa bf f7 81 3d bf 22 36 94 3d c9 94 2d be
       -1.9574044 -0.74026436 0.072368875 -0.16951288
000200 e1 55 81 3f 73 7e d3 3f 70 65 f1 3d ec f6 3e 3e
       1.0104333 1.6522964 0.11786926 0.1864888
000210 11 a1 e6 bf ca 01 89 bf 22 59 d9 3d d0 a1 12 3e
       -1.8017904 -1.0703671 0.10612704 0.14319539
000220 2b de 82 3f 72 ad eb 3f 17 ff 91 3d 32 63 46 3f
       1.022405 1.8412306 0.07128733 0.7749511
000230 92 a2 07 c0 60 31 8f c0 71 c4 8d 3e 45 2d 82 3f
       -2.1192975 -4.474777 0.27688935 1.0170065
000240 0d 8d d3 3f 12 4a 50 bf 45 02 6f be e8 f3 cc be
       1.652742 -0.8136302 -0.2334071 -0.40029836
000250 3e 50 85 3d df c0 60 40 95 9f f1 bd b2 d6 a3 be
       0.065094456 3.511772 -0.11798016 -0.31999737
000260 8b b9 e8 3f 47 9f 27 bf 9a 68 93 be 27 ba c1 be
       1.8181623 -0.6547741 -0.28790742 -0.37837335
000270 e0 cf e2 3f 40 b7 c8 3f 3f d4 dd be c5 5f c1 be
       1.7719688 1.5680923 -0.43325993 -0.3776838
000280 9e 08 ff 3f 95 42 eb be fe 08 80 bd df 8d 82 be
       1.9924505 -0.45949236 -0.06251715 -0.25498864
000290 eb 10 48 40 d1 5c c8 3f b1 89 05 be 8e 1c 38 be
       3.1260326 1.5653325 -0.13040806 -0.17979643
0002a0 ee dd 56 3f b7 e0 95 3e 66 4d 5f bd 73 c2 87 bf
       0.8393239 0.29273006 -0.054517172 -1.0606216
0002b0 b1 9d 87 3f be 9d e8 bf e5 af 13 be bd 88 8e bf
       1.0594999 -1.8173139 -0.14422567 -1.1135479
0002c0 68 3c 79 3f 33 23 36 3f c6 84 2a bd 79 ab 70 be
       0.973578 0.7114746 -0.04163053 -0.23502912
0002d0 d0 32 7b bd b8 d0 e4 bf 42 ef a5 bd ff 14 3b be
       -0.061327755 -1.7876196 -0.081022754 -0.18269728
0002e0 02 85 96 3f 60 f2 37 3f 0e 33 23 bc 5c a7 ed be
       1.1759341 0.7185421 -0.009960903 -0.46416748
0002f0 18 a9 af bf b7 e9 40 bf 89 59 4d be f2 0c cf be
       -1.3723478 -0.7535662 -0.20053686 -0.40439564
000300 1e 3e 2c 3f 16 2d 03 40 04 53 fb 3d cb 8f 29 40
       0.67282283 2.0496268 0.12271693 2.6494014
000310 04 bb 0d bf 99 6d 3c c0 30 54 2a 3d d5 33 32 40
       -0.5536349 -2.9441893 0.041584194 2.7844136
000320 19 e3 11 3f 92 2d 54 40 94 ad 8d 3e 8c f7 02 3f
       0.5698715 3.3152814 0.27671492 0.51158977
000330 ba ef 71 bf 64 c1 77 c0 23 48 b9 3d db 26 01 3f
       -0.9450642 -3.8711786 0.09046962 0.50449914
000340 81 08 90 3e ed ef 09 40 f1 b1 85 3d b3 6e 51 c0
       0.28131488 2.155269 0.0652808 -3.2723815
000350 c1 a2 3b bf 01 4f 85 3e 9a 5c ff 3d 75 a8 5a c0
       -0.7329522 0.26036838 0.12468834 -3.4165318
000360 af df 43 3f 71 23 77 40 29 92 20 3e fe 7f 74 3f
       0.7651319 3.8615382 0.15680756 0.955078
000370 c5 0b f1 3d a5 98 a4 c0 35 49 b3 bd 28 52 88 3f
       0.11769823 -5.1436334 -0.087541975 1.0650072
000380 1b c4 5f 3f 6d 9e 73 40 f5 a3 eb 3c df 5a 03 3f
       0.8740861 3.8065445 0.028764704 0.51310533
000390 b1 cb b3 3f cd 86 d7 bf 28 bc 5e 3d dc c1 d4 3e
       1.4046537 -1.6838013 0.05437866 0.41554153
0003a0 b7 9a d5 3e 5f 41 52 40 c1 25 2c 3e 06 65 c5 be
       0.417196 3.28524 0.16811277 -0.38553637
0003b0 0d 2d 0e 40 68 ba 37 40 94 3a c0 3d 70 16 7b be
       2.2214997 2.8707523 0.09386173 -0.24520278
0003c0 77 59 65 bc e6 03 9f 3f b7 bc b9 3e 5f 5d 3f 3f
       -0.013998381 1.2423065 0.3627679 0.7475185
0003d0 71 d8 a8 bf 22 35 1a 3f 55 85 be 3e 29 51 3d 3f
       -1.3191053 0.60237324 0.372111 0.73951966
0003e0 db db d5 3e a1 86 1c 40 b5 31 71 bd cf 08 0a 3f
       0.417693 2.445717 -0.058885295 0.5391969
0003f0 81 12 85 be 10 91 02 40 14 76 06 be ec d8 09 3f
       -0.2599068 2.040104 -0.1313098 0.5384662

layers.0.bias f4 [48]
000000 68 a9 45 40 b8 9a 55 be 35 0a 96 bf de 86 06 3f
       3.0884647 -0.20859802 -1.1721865 0.5254954
000010 09 59 ed 3e c2 b3 dd bd 7f 13 fd bf 65 0c e6 bf
       0.4635699 -0.10825302 -1.9771575 -1.7972533
000020 3c ab 3a c0 30 28 ed be e3 12 b0 bf ff d3 91 bf
       -2.9167013 -0.46319723 -1.3755764 -1.1392821
000030 76 ee 95 bf 92 3b 83 be e0 3c 0c c0 3e f5 ba 3d
       -1.1713398 -0.25631386 -2.1912155 0.091288075
000040 90 29 24 bf 75 fa 09 40 82 a0 0c c0 45 0d df bf
       -0.6412592 2.1559117 -2.1972966 -1.7425925
000050 45 f0 08 40 ba 03 00 40 99 ea a0 bf 97 22 f5 bf
       2.139665 2.0002275 -1.2571594 -1.9151181
000060 31 5c ce be 8b 69 57 c0 51 65 1d bf 90 d7 92 bf
       -0.4030471 -3.3658168 -0.6148272 -1.1472034
000070 a1 1c 85 bf ce 38 fe be ba cb bc bf 49 f8 01 bf
       -1.0399362 -0.49652714 -1.4749672 -0.5076948
000080 60 b8 92 be 99 bb 15 bf a3 39 0a 40 d1 cd 2e c0
       -0.28656292 -0.58489376 2.1597679 -2.731312
000090 c5 89 6a 3f 61 15 a9 bf f0 ee b7 3f ea 80 5b 3f
       0.9161647 -1.3209649 1.4369793 0.8574358
0000a0 49 4b 8f bf 3a ce 76 bf 00 8a a5 3f ee ab d4 bf
       -1.119485 -0.96408427 1.2932739 -1.6614969
0000b0 62 79 ac bf 5a 10 c2 bf e9 6e d5 3e 2e a3 bb be
       -1.3474543 -1.516124 0.4168618 -0.36647934

layers.1.weight f4 [24, 48]
000000 86 cf 12 bf 2b 82 de bf a4 b6 00 3f bf 71 17 bf
       -0.57347906 -1.7383474 0.5027869 -0.5915794
000010 c8 fa 8e 3e a7 54 0b 3f d4 03 75 bf 3e 61 7d 3d
       0.27925706 0.54426044 -0.95708966 0.061860316
000020 d9 ce c3 be 1c 88 ca 3e 40 59 db 3f f0 a9 d6 3d
       -0.3824375 0.39556968 1.7136612 0.10481632
000030 88 14 35 c0 77 08 00 3f 90 b8 3b be f8 96 1d 3e
       -2.8293781 0.50012916 -0.18332124 0.15389621
000040 26 f8 92 bf df 6d bc 3e 49 96 f6 be 46 fa 02 3f
       -1.1481979 0.36802575 -0.48161533 0.51163137
000050 1c af 0b 3e d2 c9 47 bf 14 90 a6 c0 cd 3f 5d c0
       0.13641018 -0.7804233 -5.2050877 -3.457019
000060 39 97 04 c0 bb 8c 46 3f d5 0b 1b 40 a8 e9 04 40
       -2.07173 0.7755849 2.4225972 2.0767612
000070 c0 08 3b be 28 01 a2 3f a7 6b a3 3f 77 05 99 3e
       -0.18265057 1.2656603 1.2767228 0.29886982
000080 2a 3a 6d bf b2 0d ab bf 08 43 e3 3e 6b 23 2d 3f
       -0.92666876 -1.3363554 0.44387078 0.6763217
000090 e9 7f 50 bf 86 75 27 bb c2 1c de be 06 ff 46 c0
       -0.81445175 -0.0025552227 -0.43381315 -3.1093154
0000a0 75 43 d6 3f 89 2c 0f be fd 43 05 c0 45 f9 85 bf
       1.6739336 -0.13981833 -2.0822747 -1.0466696
0000b0 bd 59 67 be 7d 2c ac be e9 de b3 bf 30 dc b1 3f
       -0.22592826 -0.33627692 -1.4052402 1.3895321
0000c0 79 13 fa bf c3 cc 0a 3e ce 7f 38 bf da 6a 88 3c
       -1.9537193 0.13554673 -0.72070014 0.016652513
0000d0 04 ab 57 3f 1e 94 a3 3d 02 05 ed be 00 bb 66 bf
       0.84245324 0.079872355 -0.46292883 -0.9012909
0000e0 0c 08 19 c0 4c 1a ac 3f d0 33 f3 3d f9 96 d4 3f
       -2.3911161 1.3445525 0.11875117 1.6608573
0000f0 a2 bd 5a bf 7f d1 e6 3e 83 33 10 3f 3d 9b 3a bf
       -0.85445607 0.45081708 0.563286 -0.72893125
000100 d2 87 3f c0 42 5b a9 bf f6 c3 01 be 1d 1a c1 3f
       -2.9926648 -1.3230975 -0.1267241 1.5086094
000110 ad 66 34 c0 35 6f 6a c0 92 e0 b4 bf 08 a0 b9 3e
       -2.8187668 -3.6630375 -1.4131033 0.36254907
000120 d7 7e 2e bf dc 03 30 3e 7e 8e 59 3f de 6a 77 3f
       -0.6816229 0.17188972 0.8498305 0.9664744
000130 27 3e a6 bd 88 2b 53 3e 28 31 25 bf 19 07 09 40
       -0.08117323 0.20622075 -0.6452813 2.1410582
000140 73 ef 37 bf 41 c5 bc 3e f6 a8 e2 bb ec cf db 3b
       -0.71849746 0.36869243 -0.0069171144 0.006708136
000150 4f 90 84 c0 ba a8 10 bf f6 bb 5c 3f a2 ff 73 c0
       -4.142616 -0.56507456 0.86224306 -3.8124776
000160 75 05 ed be 08 c2 0f 3f 57 e0 0d c0 3d b7 2c bf
       -0.46293226 0.56155443 -2.2168176 -0.674671
000170 0a 4b 1b 3f 35 a7 06 3f 5d 37 96 3e c7 de 41 3f
       0.60661376 0.5259889 0.29339114 0.75730556
000180 fd e9 f8 bf 3b 69 a4 be aa 86 86 3f ce e8 bc bf
       -1.9446408 -0.32111534 1.0509846 -1.4758546
000190 ef ee db bf d5 19 7c bf d0 d2 fb 3f 32 ff 05 3e
       -1.7182292 -0.98476917 1.967371 0.1308563
0001a0 89 bd 8d bf a5 d7 08 40 f7 0d e6 3f 63 07 a5 3f
       -1.1073467 2.138162 1.7973012 1.2892879
0001b0 d1 0a a4 3f d0 2d 85 bf 9c f5 03 3f a7 4e 06 c0
       1.2815801 -1.0404606 0.51546645 -2.0985506
0001c0 29 10 df bf eb 30 de bf 4c e0 18 3e e8 7b 40 3f
       -1.7426807 -1.7358679 0.14929312 0.75189066
0001d0 5c 04 dd bf 34 05 cf bf a0 d6 d2 3f 6e e2 0e 3e
       -1.7266955 -1.6173463 1.6471748 0.13953564
0001e0 d0 2a 91 bf 05 6d 21 3f 55 d5 81 3f 30 8e 9a 3e
       -1.134119 0.63056976 1.0143229 0.30186605
0001f0 b2 0a 11 40 6e d9 3a 3f 98 b8 99 3e 07 b6 46 bf
       2.2662778 0.7298802 0.30023646 -0.776215
000200 5b 66 ed bf 78 bc 95 3e 92 0a c9 bf 1c ed d4 3f
       -1.8546861 0.29245353 -1.5706351 1.663486
000210 69 47 7f 3f 0c b3 6f bf fe 80 8a bf 07 b9 73 3f
       0.9971834 -0.9363258 -1.0820615 0.95204204
000220 de a9 80 3f 98 eb dd bf 1e cd 14 c0 e7 fa fb 3e
       1.0051839 -1.7337523 -2.3250194 0.4921486
000230 ec 4b 83 3f 61 1a f6 be 67 60 ea be ef 18 a4 3f
       1.0257545 -0.48067 -0.45776674 1.2820109
000240 91 65 0d be b9 92 24 c0 52 83 8f 3f c6 1e bd bf
       -0.13808276 -2.5714552 1.1211951 -1.4775016
000250 02 fe 3a c0 f5 8d 0e c0 14 2e cf 3e 57 8c ef bf
       -2.9217534 -2.2274144 0.40464842 -1.8714703
000260 c9 74 66 bf 56 b4 ba bf c6 92 2a 40 3c e0 74 bf
       -0.9002195 -1.4586284 2.6652083 -0.95654655
000270 0f c0 ee 3f f8 c1 de 3e f8 98 55 3f e1 46 52 bf
       1.8652362 0.4350736 0.83436537 -0.821394
000280 a2 96 47 bf f0 46 a0 be 14 ab 4d 3e 8b 34 68 3f
       -0.7796422 -0.3130412 0.20084792 0.90705174
000290 ca 85 44 3e 39 3a 10 bf b6 80 26 3f a3 10 5e 3f
       0.19191661 -0.5633884 0.6504015 0.86744136
0002a0 6b f1 97 3e 91 96 16 c0 3f 62 1b 3f 3c 6c 83 bf
       0.29676375 -2.3529398 0.60696787 -1.0267406
0002b0 e2 2d 0e bf 91 3d 33 bf 5a 6d db 3e bf 31 a0 3f
       -0.5553876 -0.7001582 0.42856866 1.2515181
0002c0 60 1a f7 bf d6 9e 29 bf ea bb bb bf f5 59 78 3f
       -1.9304924 -0.6625799 -1.4666722 0.97012264
0002d0 eb 6f d2 3e 87 ba 70 3b 02 5a f8 be 73 12 74 3f
       0.41101012 0.0036732273 -0.4850617 0.9534065
0002e0 c6 0f 9f be ac 59 d7 bf 2b 8d bd bf be d2 95 3e
       -0.31066722 -1.6824241 -1.4808706 0.29262346
0002f0 9f e9 ee 3d 4f 61 29 3f 0e b3 45 bf 8a 63 6c 3f
       0.116656534 0.66164106 -0.7722634 0.92339385
000300 0e 3f 1a 3f df c3 62 3d b3 bc 84 3c d2 63 07 3f
       0.60252464 0.05536258 0.01620326 0.5288669
000310 c9 16 66 bf b5 f7 93 bf f3 87 07 40 a4 3d 6b bf
       -0.8987852 -1.1559969 2.1176727 -0.9189093
000320 a2 dc 39 3e 27 10 09 40 9b 84 fc bc dd 95 c7 bf
       0.18150571 2.1416109 -0.03082495 -1.559261
000330 27 9b 9d 3f 50 da 81 3f 4a 19 8f 3f 5c 05 7b be
       1.2312974 1.0144749 1.1179593 -0.24513763
000340 ab a1 a8 be cd ea 5b 3e 2d df e5 3d b2 c9 23 bf
       -0.32935843 0.21476288 0.11224208 -0.6397964
000350 65 d7 35 3e 9e 33 8b 3f 36 2d f2 bf 1d c0 38 3f
       0.17757948 1.0875127 -1.8920047 0.7216814
000360 b5 b6 3d c0 6e c9 c2 3d 02 6e b6 3f e2 9d 8c c0
       -2.9642766 0.09511076 1.4252322 -4.394273
000370 de da 0a 40 3e 49 8a c0 6a d5 c8 3e e7 c0 94 3f
       2.1696086 -4.3214407 0.39225322 1.1621369
000380 e7 db ef bf 5f 86 1d 40 26 2b b9 bf be 95 a6 3e
       -1.8738984 2.4613264 -1.4466293 0.3253612
000390 fe 78 14 bf 8f ae 32 3f d2 52 cb ba 95 45 b1 bf
       -0.5799712 0.69797605 -0.0015512353 -1.384936
0003a0 b3 e6 93 3f 7b b4 a0 bf 6f b0 94 bd 59 5f bc bf
       1.1554779 -1.2555078 -0.072602145 -1.4716598
0003b0 c6 36 ab bf 2c 28 c4 3d fc 4d cc 3f 9b e9 bf bf
       -1.337609 0.09577975 1.5961299 -1.4993166
0003c0 7f cd a9 3f 76 74 b3 3f 49 91 dd be ca b7 6c 3f
       1.3265837 1.4019916 -0.43274906 0.9246794
0003d0 d9 e8 5e be dd 23 f5 be ed f0 9e bf 31 98 a0 be
       -0.21768512 -0.47878924 -1.2417275 -0.31366113
0003e0 cf a6 bf 3f 70 30 8a 3f a6 ef d2 3e b8 33 43 bf
       1.4972781 1.0796032 0.41198462 -0.7625079
0003f0 d4 bd 2a 40 cf 97 c5 be 02 c1 c1 bd 09 da fe 3f
       2.6678362 -0.38592383 -0.094606414 1.9910289

layers.1.bias f4 [24]
000000 ef 96 c2 bf 04 f4 ba bf 04 d2 1c c0 9d 28 95 bf
       -1.5202311 -1.4605718 -2.4503183 -1.1653019
000010 6c 4c 24 c0 ed 66 4c 40 1d 0a 13 c0 45 21 97 bf
       -2.5671644 3.193782 -2.2974923 -1.1807028
000020 b1 aa 31 bf 17 a8 de be 6e 39 c8 bf d5 ae 31 bf
       -0.6940108 -0.43487617 -1.5642526 -0.694074
000030 ae ea 08 c0 09 f6 9c bf c1 e4 fb bd 23 a0 5d bf
       -2.1393237 -1.2262584 -0.12299491 -0.86572474
000040 25 9f c8 bf d3 94 cf bf 2b 10 f1 be d8 12 e0 3d
       -1.5673567 -1.6217293 -0.47082648 0.10941094
000050 90 18 1c 3e 3e 62 52 bf 2c 17 04 40 56 ab cf 3d
       0.15243745 -0.82181156 2.0639143 0.101401016

layers.2.weight f4 [12, 24]
000000 ae d7 0b c0 a7 ee 96 bf 5a d7 99 3e ca 2b d3 be
       -2.185039 -1.1791581 0.30047113 -0.41244346
000010 d2 61 ab be b3 be 83 bf 0d 74 7f c0 7b 24 21 3f
       -0.33473068 -1.0292572 -3.9914582 0.6294629
000020 53 d5 8e 3f 04 af 92 bf 07 30 ed bf 1c b9 75 40
       1.1158851 -1.145966 -1.8530282 3.8394232
000030 ab 7e 26 c0 0a 45 8f be 73 75 35 3c 75 f3 3a bf
       -2.6014812 -0.2798236 0.011075365 -0.73027736
000040 1e 58 10 40 f3 bd cd 3e 87 43 15 3f 3f fb 6b 40
       2.2553782 0.40183982 0.58306164 3.6872098
000050 d9 96 92 bf e7 7c 3d be ee 09 98 bf 90 29 bd bf
       -1.1452285 -0.18504678 -1.187803 -1.4778309
000060 1b 42 e9 be ef 52 9e bf bd 9e f7 3e 4c 13 78 3f
       -0.45558247 -1.2369059 0.48363295 0.96904445
000070 3a 6d 26 3e 67 a0 c5 be 06 39 41 3f 2f a8 0e 3f
       0.16252604 -0.3859894 0.75477636 0.5572538
000080 12 f5 01 be 10 7c 9b 3f ee a9 43 3f d8 d1 bc 3f
       -0.12691143 1.2147236 0.7643117 1.4751539
000090 60 16 80 bd 8a 17 17 40 94 14 fc 3f 30 db ee bf
       -0.06254268 2.3608117 1.969378 -1.8660641
0000a0 6c 12 9d be cd e5 8d 3f ef a5 99 bf 8b be a1 bf
       -0.30678117 1.1085755 -1.2003764 -1.2636274
0000b0 66 68 bb bf 39 8c 6b 3f c6 5c d6 be c1 32 21 40
       -1.4641235 0.9201084 -0.41867656 2.5187228
0000c0 64 0e ad 3e ca 8a 18 bf d1 61 7d 3f 27 f9 0e bf
       0.33800042 -0.59586775 0.9897738 -0.55848926
0000d0 bf 55 85 c0 97 c5 15 c0 82 b5 42 c0 12 8a e8 3f
       -4.166717 -2.340185 -3.0423284 1.8167136
0000e0 7b 75 43 bf a2 ec 02 bd 94 82 cb bd 0e 62 38 40
       -0.76351136 -0.031963952 -0.09937015 2.8809848
0000f0 7d 89 2c 3f 6f 3d 0c 40 fb d2 4b 3f 40 26 1f 3f
       0.6739729 2.1912496 0.79618806 0.6216774
000100 ff cb 5f c0 72 88 01 40 56 85 98 be 75 db 64 3f
       -3.496826 2.023953 -0.29789227 0.89397365
000110 8a 25 6b bf 3f 5c 22 bf ca 02 98 bd c4 9a ea 3f
       -0.91854155 -0.63422006 -0.07422407 1.8328481
000120 fa a4 47 40 5d 87 d9 3f 75 7d 27 3f e2 31 37 3f
       3.1194444 1.6994435 0.6542581 0.7156049
000130 b0 20 a4 be 7e 91 34 be ab bb 2a bf 87 c4 91 c0
       -0.3205619 -0.17633626 -0.6669261 -4.55524
000140 d7 81 e3 bf 8e 7a 13 40 3b 3d 87 3f b2 f4 50 c0
       -1.7773999 2.3043551 1.0565561 -3.264935
000150 09 b2 98 bf da 7a f0 be f2 a6 00 c0 93 28 0d bf
       -1.1929332 -0.46968728 -2.0101895 -0.55140036
000160 f3 e0 85 bf 6c 3f 00 40 f1 56 ca be 4e 3b 19 c0
       -1.0459274 2.003871 -0.39519456 -2.3942447
000170 33 d8 2c bf a5 02 e8 3f ee bc c4 bc 66 f3 f1 bf
       -0.67517394 1.8125807 -0.02401587 -1.8902404
000180 66 ad 0e c0 74 12 07 c0 02 22 8c 3f 30 23 b3 3e
       -2.2293334 -2.1105013 1.0947878 0.34987783
000190 4a 7c 30 3e 1e 06 27 bf 0f 80 38 c0 92 14 bc 3e
       0.17234913 -0.6524371 -2.882816 0.36734444
0001a0 48 21 bc 3f 1a e0 8d bf 82 c6 3c bf c7 e0 54 3f
       1.4697657 -1.1084015 -0.737404 0.83155483
0001b0 4b 79 f6 bf 5e 37 15 bf e5 b0 01 3f bd d2 0d c0
       -1.9255766 -0.5828761 0.50660545 -2.2159874
0001c0 bc 6f 7e 40 01 ed d1 bf 7e 5f 9e 3d c4 d8 09 40
       3.9755697 -1.6400453 0.077330574 2.1538553
0001d0 32 bc d0 bf 67 70 ba bf dc ac 86 bf 8f 20 0a c0
       -1.6307433 -1.4565552 -1.0521502 -2.1582372
0001e0 3b c5 60 c0 bb 1b d8 3e e4 72 cd 3f 0f 49 09 40
       -3.512038 0.42208657 1.6050687 2.1450841
0001f0 f2 e4 bc 3f 21 33 1d bd 23 a3 9e bd d6 e7 b8 3e
       1.4757369 -0.03837884 -0.077459596 0.36114377
000200 6b 41 ac 3f eb ca 6f bf b8 c2 49 bc f3 2e 48 be
       1.3457464 -0.93669003 -0.012314491 -0.1954916
000210 05 2d 76 bf af 72 25 c0 59 c8 de 3f cb ec d7 3e
       -0.96162444 -2.5851247 1.7404891 0.42172846
000220 34 e3 60 40 ec 76 61 bf 75 44 1d c0 41 fd 97 bf
       3.5138674 -0.88072085 -2.4573033 -1.1874162
000230 d3 e2 0a 3e 90 ed 37 bf 6f ce 22 c0 12 a9 22 bf
       0.13563089 -0.71846867 -2.5438497 -0.6353923
000240 32 e9 fb 3f 86 a9 d4 3f 38 d4 c4 3f eb da 25 40
       1.968054 1.6614234 1.5377264 2.5914867
000250 9f bb 8d 3f 0f 7c de bf b6 ec f6 bf 12 ee df 3d
       1.1072882 -1.738161 -1.9290988 0.1093408
000260 9a ab 8f 3e 64 b5 00 3f d5 d0 c0 3f d9 e6 21 bf
       0.2806061 0.5027678 1.506373 -0.6324287
000270 d4 34 0a 40 19 e8 00 bf 39 98 1a 3f fa 97 1f 3f
       2.1594744 -0.5035415 0.60388523 0.6234127
000280 aa 4d 05 c0 be 79 95 3f 81 33 a5 3e 4e 08 53 c0
       -2.0828652 1.1677778 0.32265857 -3.2973819
000290 13 26 2a bf 77 b8 34 40 2b 44 cc bd b1 9b 58 c0
       -0.66464347 2.8237588 -0.099739395 -3.3845026
0002a0 b5 cd bf 3f b0 a9 e6 bf 13 b1 f3 3e 33 e2 fb bf
       1.4984652 -1.8020535 0.47596034 -1.9678406
0002b0 5c 6c 9f c0 ca 6e 98 bf bf 63 75 bf 5d b6 30 3f
       -4.9819775 -1.190881 -0.95855325 0.69028264
0002c0 bc fb 00 c0 dd cf 5f bf e8 b0 fb bd 04 7e 3b 40
       -2.0153646 -0.8742655 -0.122896016 2.9295664
0002d0 5f 85 40 bf 20 08 ae 3f 76 10 10 c0 fc 32 cc bb
       -0.7520351 1.359623 -2.2510047 -0.0062316637
0002e0 2b e8 54 c0 54 c4 fb bf 44 fd fc bf 55 43 9c 3f
       -3.3266704 -1.966929 -1.976479 1.2208048
0002f0 a8 2a 1a c0 1c e3 8c be e4 de f8 be 25 a1 19 bf
       -2.4088535 -0.2751702 -0.48607552 -0.6001151
000300 e7 98 d8 3f aa 11 00 3e 7f bd 1e c0 fe 7e 60 bf
       1.6921662 0.12506738 -2.480316 -0.87693775
000310 e0 26 02 bc fa 15 23 bd ea c9 2e bf 93 e2 59 3f
       -0.007943839 -0.03981588 -0.68276846 0.8511135
000320 31 71 02 3f 36 ce 16 3e 1e 24 39 bf 1d 74 aa 3f
       0.50953966 0.147271 -0.72320735 1.3316685
000330 7f 95 9b bf 05 14 58 be c1 da c2 3f 24 9d c4 bf
       -1.2154998 -0.21101387 1.5223008 -1.5360456
000340 23 e5 0b c0 3b 78 ca 3f 4b 9d 0f be 3f 4a a7 bf
       -2.1858604 1.5817941 -0.14024846 -1.3069533
000350 bc 9b b6 be c0 ec d9 3f 1a 9a 53 bf 0c 60 0a 3f
       -0.3566569 1.7025375 -0.82657015 0.54052806
000360 a9 c0 b8 bf db d9 47 bf b1 ab 5d 3f cd 2a f2 3e
       -1.4433795 -0.78066796 0.86590105 0.4729828
000370 04 c1 d8 3f de 7a 66 be 58 73 d1 3e cc 81 f3 bf
       1.6933904 -0.22507808 0.40908313 -1.9023986
000380 ea 1a 9e 3f 75 73 ec bf 4a 2d ad bf 5a 38 16 c0
       1.2351964 -1.8472735 -1.3529446 -2.3471894
000390 fe 1f b6 be 89 2a bc be 8b cf 8a bd ae 51 ea bf
       -0.35571283 -0.36751202 -0.06777867 -1.8306177
0003a0 90 fc 57 40 1c cb f0 3f 75 b1 53 bf 7d c5 1a c0
       3.3747902 1.8811984 -0.8269265 -2.4183037
0003b0 7b 2f cb 3e 97 78 28 c0 c7 3f 3a bf 0f dc bc c0
       0.39684662 -2.6323602 -0.72753567 -5.9018626
0003c0 79 83 29 3f 7d 1e 41 be 85 8c 04 3f a0 3b 36 bd
       0.66216236 -0.18859287 0.51776916 -0.044490457
0003d0 fd eb da 3f 2f 91 0a bf af 78 c0 3f bf ef d7 3e
       1.7103268 -0.5412778 1.503683 0.421751
0003e0 ab 28 0d c0 58 5f 16 3f 2a b6 1c 40 06 e0 0e 40
       -2.2056072 0.58739233 2.4486184 2.2324233
0003f0 c3 a4 77 bf fd 13 47 3f 5b 6a d2 bd ee 98 9b 3f
       -0.9673578 0.77764875 -0.10274192 1.2156045

layers.2.bias f4 [12]
000000 27 dc a0 be 2b 0d 85 bf 66 e9 da bf 99 a9 2e 3f
       -0.31417963 -1.0394644 -1.7102478 0.68227535
000010 34 f4 2b bf b5 8b 1c 3f 33 cb 32 c0 0e 59 95 bf
       -0.671695 0.61150676 -2.7936523 -1.1667802
000020 d9 99 4e bf 38 be f1 3e e1 6d f0 3d 66 0b f4 bf
       -0.807035 0.47215438 0.11739708 -1.9065979

layers.3.weight f4 [2, 12]
000000 4a 6f 1a 3e 3b fd 99 bc 46 16 8f be ea 4b a2 be
       0.15081516 -0.018797508 -0.2794668 -0.31698543
000010 25 b0 b8 3e b9 37 ca 3e 7b e2 a9 be ac e6 a6 be
       0.36071888 0.39495638 -0.33180603 -0.32597864
000020 32 8b e2 bd 5e bb ba 3e 85 32 ea be e6 08 19 be
       -0.11061706 0.36471075 -0.45741668 -0.149448
000030 b6 10 c2 3f aa 1a 36 3f 09 ab 3c 40 98 f1 96 c0
       1.516135 0.71134436 2.9479392 -4.7169914
000040 dc 2a c0 3e f5 59 5b bf 62 54 89 be ed 45 0d 40
       0.375327 -0.8568414 -0.2682219 2.207393
000050 55 6e 7c bf f3 33 5d c0 61 69 14 3e 11 2a 96 bf
       -0.98605853 -3.4562957 0.14493324 -1.1731588

layers.3.bias f4 [2]
000000 55 2c 2b bf 5d b2 ae bf
       -0.6686452 -1.3648182

layers.0.weight f4 [48, 24]
000000 1b fe 42 bf c2 d8 fc 3e d2 7a 4d bc a1 93 a2 3d
       -0.76168984 0.49384123 -0.01254149 0.07938314
000010 72 58 99 3f c1 6f 97 40 b2 4f 36 bc e9 6f 7d bb
       1.1980116 4.732392 -0.011127399 -0.003867144
000020 84 90 6a bf fd 19 1c 3f ae 20 34 bd 6b 8a cc be
       -0.91626763 0.60977155 -0.04397648 -0.39949355
000030 36 3f 11 3f 58 94 7e 3e 08 69 29 bb 25 b9 16 be
       0.5673708 0.24861276 -0.0025849957 -0.14719065
000040 e5 25 76 bf 03 b5 01 3f d6 46 61 bd cf df 0b 3f
       -0.9615157 0.50666827 -0.054999195 0.5463838
000050 e3 89 c0 3e 8f f7 f7 c0 63 ab 38 bd 72 b5 b4 3e
       0.376052 -7.7489696 -0.045085322 0.35294682
000060 89 a0 b7 be 15 9b eb be 2b c3 03 bd 79 77 aa 3e
       -0.35864666 -0.46016756 -0.03216855 0.33294275
000070 96 cd 4d c0 2c b1 78 c0 de e0 88 3d 12 bd be 3e
       -3.215673 -3.8858137 0.06683515 0.37253624
000080 ca b6 f6 be 81 3f db be 0c 84 9d bd cc 88 a8 3d
       -0.48186332 -0.42821887 -0.076912016 0.08229217
000090 41 0b b8 3e fa 01 87 bf b2 38 e1 bd 7d 88 25 3e
       0.35946086 -1.0547478 -0.10997142 0.16165347
0000a0 c1 35 a7 be f2 5a 62 be ee a5 69 bb a2 99 29 3d
       -0.32658198 -0.22105005 -0.003565188 0.04140628
0000b0 48 aa 7d 40 4b 63 ac 40 61 77 a4 bd 97 e1 06 bb
       3.9635181 5.3871207 -0.08030582 -0.002058124
0000c0 d1 5e 01 40 4f 5f da 3f 50 dd 77 3d 24 ab c1 3f
       2.0214121 1.7060336 0.060513794 1.5130353
0000d0 7f 65 8f bf e3 af 52 c0 49 0b d2 3c 81 7c a8 3f
       -1.1202849 -3.2919853 0.025640147 1.3162996
0000e0 49 b8 01 40 43 df bf 3f 20 9b cb 3e fa 62 3c 3f
       2.0268729 1.4990009 0.39766788 0.73588526
0000f0 d2 39 c3 bf b6 b0 6c c0 a0 8f ce 3e 79 5d 3c 3f
       -1.525202 -3.6982856 0.40343952 0.7358013
000100 b3 fc 06 40 9c 71 5b 3f 33 8a c4 bd ca c9 85 3d
       2.1091735 0.8572023 -0.09596672 0.06532629
000110 7f 27 00 c0 a1 f5 1a c0 e2 ff e1 3d 2d d7 3d 3e
       -2.0024107 -2.421242 0.11035134 0.18539114
000120 c3 ab fb be 11 52 9a 3d f5 32 1c 3e 38 be 55 3f
       -0.4915448 0.07535184 0.15253814 0.83493376
000130 e5 9a 0b 40 9e d6 cd be 55 3a c6 3d b0 f9 43 3f
       2.181329 -0.40202802 0.09679095 0.7655287
000140 7c e9 7c be c1 41 8e be 42 be 82 3e 44 81 83 be
       -0.24698442 -0.2778454 0.2553578 -0.2568456
000150 4d 9a 75 3e 2b 65 03 bf ce bd 73 3e 0a e8 b1 bc
       0.23984642 -0.51326245 0.23802873 -0.02171709
000160 1e 52 fc be 79 01 03 3c ab 07 2b 3e 9c 27 18 3f
       -0.492814 0.007995957 0.16702144 0.5943544
000170 08 cb ad 3e fe d6 15 c1 07 d9 85 3e fa cf 1d 3f
       0.33943963 -9.364988 0.2614214 0.6164547
000180 69 f6 15 3f 5c db 83 c0 28 12 11 3e 02 e1 52 be
       0.5857912 -4.1205273 0.14167082 -0.20593646
000190 a7 ba 98 3e 6a 6d 0a 3f c0 02 8b 3d 7d 34 c4 be
       0.29829904 0.540732 0.06787634 -0.38321295
0001a0 80 89 1a 3f 80 11 74 c0 87 8b 17 be cb 14 b4 be
       0.6036606 -3.813568 -0.14799319 -0.35172114
0001b0 ac 62 d4 bf 9d d4 7f 40 51 43 68 3d eb 9b a1 be
       -1.6592612 3.997352 0.056704823 -0.31564268
0001c0 a7 c3 87 3f 6d d6 7d c0 e4 87 67 3e 95 d6 41 be
       1.0606583 -3.9662125 0.22610432 -0.18929513
0001d0 a5 70 6d c0 18 9b 76 40 7f ee 75 3e 12 4e 7e bd
       -3.7100003 3.8532162 0.2401676 -0.062086172
0001e0 59 f3 71 3f d6 6e c9 3f dc 52 0f 3e 52 7d 2f 3b
       0.94511944 1.573695 0.13996452 0.0026777578
0001f0 fa 0e f7 bf a2 8d 45 bf f3 9c a1 3d 6b 47 1a be
       -1.9301445 -0.7716924 0.07891264 -0.15066306
000200 28 82 85 3f 4e ea d6 3f 16 9f d6 3d aa 0c 49 3e
       1.0430346 1.6790254 0.10479562 0.19633737
000210 11 0d e3 bf b2 79 8c bf b5 92 be 3d 6a b7 1c 3e
       -1.7738363 -1.0974638 0.09305326 0.15304342
000220 3c 83 86 3f 2c 2a ef 3f 68 e2 8f 3d 5d d5 3e 3f
       1.05088 1.8684745 0.070256054 0.74544317
000230 cb b8 05 c0 c3 b3 8f c0 9e 3d 8d 3e eb cc 7c 3f
       -2.0894039 -4.4906936 0.27586073 0.9875018
000240 09 a4 d2 3f 7f 81 51 bf 99 be 77 be 5a 1f e3 be
       1.645631 -0.8183822 -0.24193801 -0.44359857
000250 fb 49 8f 3d 39 11 61 40 be 8b 01 be 1c 02 ba be
       0.069965325 3.5166762 -0.12650964 -0.36329734
000260 2f b3 e7 3f 65 7e 29 bf ba e7 97 be 8b f7 d0 be
       1.8101557 -0.6620849 -0.2966898 -0.4081386
000270 6a 92 e3 3f 40 02 c9 3f b9 53 e2 be 28 9d d0 be
       1.7779057 1.5703812 -0.442045 -0.407449
000280 ab 9e fd 3f 35 53 ef be 47 e8 81 bd 84 99 89 be
       1.9814047 -0.4674317 -0.063431315 -0.26874936
000290 30 82 48 40 88 49 c8 3f 8e 79 06 be a9 33 46 be
       3.132946 1.564744 -0.13132307 -0.19355644
0002a0 06 9c 5d 3f ae 6a a7 3e ca ab 83 bd c1 77 85 bf
       0.865662 0.32698578 -0.064292505 -1.0427171
0002b0 6b dc 88 3f 21 d8 eb bf b1 b2 1d be 1b 3e 8c bf
       1.0692266 -1.8425332 -0.15400197 -1.0956453
0002c0 cc a7 80 3f 3e 66 3f 3f 38 c3 36 bd f8 42 6f be
       1.0051208 0.74765384 -0.04461977 -0.2336539
0002d0 aa 15 58 bd 8f ac e6 bf ad 0e ac bd 55 ac 39 be
       -0.052755035 -1.8021411 -0.08401237 -0.18132146
0002e0 88 f9 9a 3f 56 52 40 3f 0b f9 43 bb 36 e1 f5 be
       1.2107401 0.75125635 -0.002990308 -0.48023385
0002f0 2d 18 ae bf c4 0a 41 bf d8 36 46 be 8c 46 d7 be
       -1.3601128 -0.7540705 -0.19356859 -0.4204601
000300 af 8d 28 3f 80 17 01 40 ed f1 e7 3d 3f d9 29 40
       0.6584119 2.0170593 0.113254406 2.6538846
000310 43 c4 12 bf e4 74 3c c0 e5 90 03 3d 9d 7d 32 40
       -0.5733072 -2.9446344 0.032120604 2.7889168
000320 94 3e 0e 3f ad 8c 51 40 12 53 8e 3e d7 1f 04 3f
       0.55564237 3.2742112 0.27797753 0.51611084
000330 69 06 78 bf 7d a7 78 c0 ec dc bb 3d 21 4f 02 3f
       -0.9688478 -3.8852227 0.09172997 0.5090199
000340 34 7c 89 3e a9 93 07 40 26 a7 b3 3d 14 28 51 c0
       0.26852572 2.1183875 0.087721154 -3.2680712
000350 b3 71 42 bf 18 6a 82 3e 09 a9 16 3e af 61 5a c0
       -0.7595474 0.25471568 0.1471292 -3.4122121
000360 53 56 3f 3f ef 05 76 40 e8 1a 14 3e 5f 3d 75 3f
       0.74741095 3.8441122 0.14463389 0.9579677
000370 ff 4f 01 3e 03 68 a4 c0 65 39 cc bd ea b0 88 3f
       0.12628172 -5.1376967 -0.09971885 1.067899
000380 8c 3e 5b 3f b1 b6 72 40 d1 6f fd 3c 54 46 06 3f
       0.85642314 3.7924006 0.030937107 0.5245106
000390 07 00 b5 3f 10 d2 d6 bf 61 a2 67 3d 90 98 da 3e
       1.4140633 -1.6782856 0.05655134 0.4269452
0003a0 19 d0 d2 3e d2 4a 52 40 b3 15 35 3e ab ea ba be
       0.4117439 3.2858167 0.17684059 -0.36507162
0003b0 3c 6f 0e 40 05 bc 37 40 ce 19 d2 3d 37 21 66 be
       2.2255392 2.8708508 0.10258828 -0.22473608
0003c0 60 43 c1 3b b0 76 a1 3f db 85 b6 3e 3e 9e 3e 3f
       0.0058979243 1.2614346 0.35649 0.7446021
0003d0 b3 40 a8 bf 2d 3b 11 3f 70 4e bb 3e 0a 92 3c 3f
       -1.3144745 0.5673092 0.3658328 0.7366034
0003e0 1b 41 e2 3e 10 b7 1d 40 d6 f9 06 bd ac f0 07 3f
       0.44190297 2.4642982 -0.032953106 0.5310161
0003f0 ec 9c 82 be 9b d2 ff 3f b0 d0 d7 bd c0 c0 07 3f
       -0.25510347 1.9986147 -0.10537851 0.5302849

layers.0.bias f4 [48]
000000 1f b5 44 40 67 ae 5f be f2 f8 96 bf e9 ae 02 3f
       3.0735548 -0.21843873 -1.1794722 0.5104814
000010 00 fd fd 3e ab 38 0e be d8 6d fb bf 4b 8e e9 bf
       0.49607086 -0.13888805 -1.9642897 -1.8246549
000020 f6 d4 39 c0 6b 16 eb be d6 51 b2 bf bb c8 91 bf
       -2.903623 -0.4591554 -1.3931224 -1.1389383
000030 e9 38 95 bf a8 c5 88 be 8e d1 0d c0 b3 13 89 3d
       -1.1657993 -0.267133 -2.2159152 0.066932105
000040 f7 bb 29 bf 7b a8 0a 40 69 b4 0b c0 2e d1 de bf
       -0.66302437 2.1665332 -2.1828864 -1.7407587
000050 35 b5 07 40 3a f3 fd 3f e3 0c a1 bf e5 1a f7 bf
       2.120435 1.9839852 -1.2582058 -1.9305083
000060 a0 98 d5 be 86 02 57 c0 7d 2a 1f bf 17 9a 90 bf
       -0.41718006 -3.359529 -0.62174207 -1.1297024
000070 82 5c 85 bf 95 8a fd be f3 49 bf bf 87 ec fb be
       -1.0418856 -0.49519792 -1.4944443 -0.49203894
000080 44 50 a0 be 0f 1a 13 bf 17 5c 0c 40 a6 22 30 c0
       -0.31311238 -0.5746164 2.1931207 -2.7521148
000090 6e 0a 68 3f 03 03 a7 bf c9 e9 b5 3f 0d 75 57 3f
       0.90640914 -1.3047794 1.421197 0.8416298
0000a0 35 ed 8f bf a6 8e 6e bf 59 93 a7 3f db 15 d9 bf
       -1.1244265 -0.93186414 1.3091842 -1.6959795
0000b0 9d ff af bf b7 3e c3 bf 08 f6 da 3e ee 90 c5 be
       -1.3749882 -1.5253514 0.42765832 -0.38587135

layers.1.weight f4 [24, 48]
000000 70 48 16 bf be 30 df bf 63 03 07 3f 9b 31 13 bf
       -0.5870428 -1.743675 0.5273954 -0.57497567
000010 30 d1 82 3e 76 5c 17 3f a9 99 71 bf 9c 8c ab 3d
       0.25550222 0.5912546 -0.9437509 0.083764285
000020 25 f6 b4 be 0d 2f d5 3e c3 b0 da 3f 91 fa dd 3d
       -0.35344043 0.4163746 1.7085193 0.108388074
000030 e2 6e 33 c0 ce 12 01 3f 87 6c 2f be c7 15 12 3e
       -2.8036427 0.5041932 -0.17131244 0.1426612
000040 ae 23 90 bf be 97 b5 3e 44 e6 ec be 19 fc 07 3f
       -1.1260889 0.35467333 -0.4626943 0.53119045
000050 57 92 01 3e 28 c2 41 bf 5b 90 a7 c0 56 c7 5b c0
       0.1265348 -0.75686884 -5.2363715 -3.4340415
000060 fd 82 02 c0 72 69 4b 3f 53 99 1a 40 6b a8 03 40
       -2.039245 0.7945777 2.4156082 2.0571544
000070 47 ef 4e be 82 8a 9d 3f 7f 78 a6 3f 78 a9 8e 3e
       -0.20208465 1.2307894 1.3005522 0.2786367
000080 b3 dc 73 bf 23 95 b0 bf ed ce d8 3e ee 1a 32 3f
       -0.95258635 -1.3795513 0.42345372 0.6957234
000090 57 44 4c bf ed 1c 35 ba f4 27 e1 be 22 e8 43 c0
       -0.7979178 -0.00069089123 -0.43975794 -3.0610433
0000a0 b7 d3 d9 3f 52 1c 0e be 6c 2e 05 c0 a0 b3 86 bf
       1.7017735 -0.13877991 -2.0809584 -1.0523567
0000b0 ab 55 54 be 8d d6 a3 be a6 d1 b4 bf e0 fe b0 3f
       -0.20735805 -0.31999627 -1.412648 1.3827782
0000c0 bc a3 f9 bf 0a 30 fa 3d a9 a6 38 bf 5c 8e 7b bc
       -1.9503093 0.12216194 -0.72129303 -0.015353765
0000d0 96 d6 59 3f 73 7a cb 3d 90 af f4 be 4e c9 67 bf
       0.8509306 0.09935465 -0.47790194 -0.9054154
0000e0 87 92 19 c0 21 9c a9 3f 98 a7 ae 3d 49 79 d1 3f
       -2.3995683 1.3250772 0.0852806 1.6365138
0000f0 1d aa 61 bf 74 6d e1 3e 78 58 06 3f 98 19 3c bf
       -0.881502 0.4402882 0.5247874 -0.7347655
000100 43 5d 40 c0 23 3b ab bf 71 ba 07 be c7 bb be 3f
       -3.0056922 -1.3377422 -0.13254716 1.4901055
000110 89 62 34 c0 d5 b0 6a c0 bb 4d b3 bf c4 c3 aa 3e
       -2.818514 -3.667043 -1.4008096 0.33352482
000120 b8 35 30 bf 06 36 2b 3e 86 6b 55 3f ec 89 78 3f
       -0.6883197 0.16719827 0.8336719 0.9708545
000130 a2 40 c8 bd 81 3a 30 3e f0 20 2a bf 1c a2 07 40
       -0.09777953 0.17209817 -0.6645651 2.1192694
000140 2f dc 34 bf 76 18 be 3e 23 4c a6 ba 94 2e d2 bb
       -0.70648474 0.37128037 -0.0012687485 -0.006414244
000150 5c c8 84 c0 a3 90 19 bf d5 ec 55 3f 88 27 74 c0
       -4.149458 -0.59986323 0.835645 -3.8149128
000160 8a bb fb be 34 d6 12 3f 84 5c 0f c0 75 c4 30 bf
       -0.49166518 0.573581 -2.2400217 -0.6904977
000170 3a fa 0d 3f c2 da 03 3f db 86 8c 3e 0e e9 3c 3f
       0.5545994 0.5150567 0.27446637 0.73793113
000180 24 26 fb bf 76 af a4 be f3 32 88 3f 9f 18 bf bf
       -1.9621015 -0.32165116 1.0640548 -1.4929389
000190 15 3f df bf b7 46 81 bf ac 43 ff 3f e9 bb 21 3e
       -1.7441126 -1.0099705 1.9942527 0.15794338
0001a0 df 3a 8b bf 83 5e 09 40 a6 d0 e6 3f 5d 15 a5 3f
       -1.0877341 2.1463935 1.8032424 1.2897145
0001b0 8f a9 a3 3f e0 0e 82 bf 11 12 08 3f dc 26 06 c0
       1.278612 -1.016079 0.5315257 -2.0961218
0001c0 64 f6 da bf a2 32 df bf e3 e7 31 3e 59 f0 42 3f
       -1.7106442 -1.7437327 0.17373614 0.7614799
0001d0 2f 0a e0 bf 7b db cf bf a7 77 cf 3f 62 7b 0e 3e
       -1.7503108 -1.6238855 1.620839 0.13914254
0001e0 1b 3c 8f bf 05 52 27 3f d0 b1 81 3f 4f e6 94 3e
       -1.1190218 0.65359527 1.0132389 0.29081962
0001f0 d2 52 11 40 2d 8c 37 3f da 5e ae 3e 57 78 45 bf
       2.27068 0.71698266 0.3405674 -0.7713675
000200 be a0 f0 bf a3 89 96 3e ca 53 cc bf a7 16 d9 3f
       -1.8799055 0.29401883 -1.596307 1.6960038
000210 f7 cd 7e 3f 4b de 67 bf f4 25 8b bf f1 b3 72 3f
       0.9953303 -0.9057357 -1.0870957 0.9480582
000220 06 7e 84 3f 7a cb df bf 33 e1 15 c0 49 ee 03 3f
       1.0350959 -1.7483971 -2.34187 0.5153547
000230 6e 20 85 3f a0 74 e6 be e9 10 ea be d6 3c a4 3f
       1.0400522 -0.45010853 -0.45716026 1.2831066
000240 e4 80 18 be b4 d8 24 c0 0e 10 8f 3f e9 dd bf bf
       -0.14892918 -2.5757265 1.1176775 -1.4989597
000250 b5 72 3a c0 d0 bb 0e c0 ac ab c7 3e 1d 9d ef bf
       -2.9132512 -2.2302132 0.38998163 -1.8719822
000260 75 83 66 bf 16 f3 ba bf 29 96 2a 40 34 0c 7a bf
       -0.9004434 -1.4605434 2.665415 -0.9767487
000270 af 15 ed 3f cb 00 df 3e 18 ae 57 3f 5e 72 52 bf
       1.8522242 0.43555292 0.8425002 -0.8220576
000280 fd f0 4a bf dd ae a7 be f2 cf 4c 3e 8c af 64 3f
       -0.7927397 -0.32750598 0.200012 0.89330363
000290 2a 6a 3e 3e fe 06 14 bf 6d 0f 27 3f 6f 24 5c 3f
       0.18595186 -0.5782317 0.6525791 0.85993093
0002a0 ef c5 91 3e 37 69 17 c0 01 72 19 3f 6a 56 82 bf
       0.28471324 -2.3657968 0.5993958 -1.0182621
0002b0 11 87 0f bf cc d1 38 bf 40 7e d4 3e 2c 40 a0 3f
       -0.5606547 -0.72195125 0.4150257 1.2519584
0002c0 aa ac f6 bf 5b 0a 29 bf c7 b7 ba bf 92 00 78 3f
       -1.9271443 -0.66031426 -1.4587334 0.9687587
0002d0 6e 75 cb 3e 8c 3c be bc 12 5a ff be 13 99 70 3f
       0.3973803 -0.02322223 -0.49873406 0.9398357
0002e0 07 53 a1 be f9 51 d4 bf a2 c3 be bf b3 e0 94 3e
       -0.31508657 -1.6587516 -1.4903452 0.29077682
0002f0 74 85 02 3e 4f 87 28 3f 36 ea 47 bf 85 30 6d 3f
       0.12746221 0.65831465 -0.7809175 0.9265216
000300 a5 01 1c 3f 16 fa 87 3d 11 14 34 3c 44 ce 04 3f
       0.6094001 0.06639497 0.010991112 0.51877236
000310 de 9a 60 bf a5 2c 94 bf 44 58 07 40 ee fb 70 bf
       -0.8773631 -1.1576124 2.1147623 -0.94134414
000320 64 69 33 3e 80 f2 07 40 28 89 b9 bc 2e e2 c5 bf
       0.17520672 2.124176 -0.022648409 -1.545965
000330 28 bc 9a 3f 71 23 82 3f ff 50 8f 3f 03 7b 74 be
       1.2088671 1.0167066 1.1196593 -0.2387505
000340 38 b8 ad be 99 cc 63 3e 1a 5a ab 3d 47 ad 24 bf
       -0.3392961 0.22246017 0.08366795 -0.643269
000350 2b 38 35 3e e2 c6 88 3f 98 d1 f2 bf 62 bf 37 3f
       0.17697208 1.0685694 -1.8970213 0.717764
000360 98 6a 3d c0 ce c6 98 3d 80 6a b8 3f a4 31 8c c0
       -2.959631 0.07459794 1.4407501 -4.3810596
000370 d8 81 0b 40 53 33 89 c0 ad 25 c8 3e 42 5e 98 3f
       2.1798 -4.287515 0.39091244 1.1903765
000380 71 d2 ee bf 33 ba 1e 40 a6 85 b6 bf 10 58 9f 3e
       -1.8657972 2.4801147 -1.4259536 0.31121874
000390 3b 05 19 bf 5a df 34 3f f1 0f c5 3b 41 b4 b3 bf
       -0.59773606 0.7065331 0.0060138633 -1.4039384
0003a0 2b 4a 93 3f 04 9b 9d bf 8f ed 97 bd ad 21 b9 bf
       1.1507009 -1.2312932 -0.074183576 -1.4463402
0003b0 00 8b a9 bf 7c e6 cb 3d 4b bb cd 3f 81 5d bd bf
       -1.3245544 0.09956071 1.6072782 -1.479416
0003c0 4c e7 a9 3f c2 5e b5 3f c3 51 d8 be 33 cc 66 3f
       1.3273711 1.4169543 -0.4224988 0.90155333
0003d0 de ee 5c be ec 39 03 bf d9 c3 a0 bf b7 c4 a2 be
       -0.21575496 -0.51260257 -1.2559768 -0.31790707
0003e0 00 d8 be 3f b0 08 8a 3f 2c 9d d1 3e 41 bd 3e bf
       1.4909668 1.0783901 0.40940225 -0.7450753
0003f0 65 da 2a 40 d3 0a c1 be a7 e2 86 bd 88 38 fe 3f
       2.6695797 -0.3770357 -0.06586199 1.9861002

layers.1.bias f4 [24]
000000 01 05 c5 bf ee 10 ba bf 58 75 1e c0 d0 47 94 bf
       -1.5392152 -1.4536417 -2.475912 -1.1584415
000010 6b cc 22 c0 77 77 4c 40 09 19 11 c0 c5 81 97 bf
       -2.5437267 3.1947916 -2.267153 -1.1836478
000020 1d 6c 2a bf b0 ec e4 be ba a8 c9 bf 3e 3d 35 bf
       -0.6657122 -0.44711828 -1.5754616 -0.70796573
000030 cb d1 0a c0 c8 ed a0 bf 79 b9 ec bd 28 fb 60 bf
       -2.1690547 -1.2572565 -0.115588136 -0.87883234
000040 66 78 c8 bf 78 4a d0 bf bf d8 f4 be 70 13 f6 3d
       -1.5661743 -1.6272726 -0.47821614 0.12015426
000050 69 0b 15 3e bb e3 4b bf 83 e3 02 40 f6 be 9d 3d
       0.14555134 -0.79644364 2.0451362 0.077024385

layers.2.weight f4 [12, 24]
000000 d3 be 0a c0 da c4 97 bf b0 57 9a 3e 8a 77 d2 be
       -2.167897 -1.1856949 0.30145025 -0.41106826
000010 16 b1 ab be 68 ec 82 bf 2f 3f 80 c0 e5 f4 19 3f
       -0.33533543 -1.0228395 -4.007713 0.60139304
000020 54 f2 8c 3f 3a d4 93 bf 96 53 ed bf 14 d6 75 40
       1.1011453 -1.1549141 -1.8541133 3.8411913
000030 8e 9d 24 c0 ec 75 a0 be 7c 4b ad 3b 29 5c 37 bf
       -2.5721164 -0.31339967 0.0052885395 -0.71625
000040 a1 da 0f 40 1a 87 cc 3e 5e fb 12 3f c1 41 6c 40
       2.247719 0.39946824 0.57414806 3.6915133
000050 ae 3d 91 bf 50 87 59 be c8 a8 96 bf 44 1d bc bf
       -1.1346948 -0.21243024 -1.1770258 -1.4696431
000060 0c a1 d9 be ea a3 9b bf 66 26 02 3f 6b 1c 7d 3f
       -0.42505682 -1.2159398 0.5083984 0.9887149
000070 ba cc 2f 3e b6 c3 d4 be e7 49 3a 3f 52 9a 0a 3f
       0.1716794 -0.41555566 0.72769016 0.54141724
000080 e1 d4 23 be b6 22 98 3f 8e 02 4b 3f 9f 7b c0 3f
       -0.15999176 1.1885593 0.79300773 1.5037726
000090 fb dc bd bd fe 03 18 40 f6 57 fe 3f 62 36 ea bf
       -0.09270664 2.3752437 1.9870594 -1.8297846
0000a0 2d a4 90 be bf 55 8e 3f b6 82 9c bf 04 c9 a4 bf
       -0.28250256 1.1119918 -1.222739 -1.2873845
0000b0 d3 45 bd bf a1 8e 6c 3f 64 d6 d7 be 86 3b 1f 40
       -1.4786934 0.92405134 -0.42155755 2.488008
0000c0 ea cc b4 3e ad 02 1e bf 63 00 81 3f f4 d7 0a bf
       0.35312587 -0.6172283 1.0078243 -0.5423577
0000d0 6e f4 84 c0 01 1e 15 c0 9f ff 42 c0 17 d7 e6 3f
       -4.1548376 -2.3299563 -3.0468519 1.803439
0000e0 19 38 3e bf bb 2d 0a bd 97 d7 ab bd 93 74 39 40
       -0.7430435 -0.03373502 -0.0839073 2.8977401
0000f0 bf bf 36 3f 9b f4 0a 40 55 5b 4e 3f ab d7 20 3f
       0.7138633 2.1711795 0.8060811 0.62829083
000100 5c fb 5e c0 f6 70 02 40 8b f6 9c be aa 88 63 3f
       -3.4840918 2.0381446 -0.30656847 0.8888041
000110 2d 33 5e bf d9 02 29 bf b8 ba bc bd ce 9b ed 3f
       -0.8679684 -0.6601997 -0.09215301 1.8563173
000120 4e 5d 46 40 5d 37 da 3f f4 e3 2a 3f b9 c8 3c 3f
       3.0994449 1.7048146 0.6675408 0.7374378
000130 25 45 af be 98 d2 49 be da 3b 30 bf d5 0a 92 c0
       -0.3423244 -0.19709241 -0.68841326 -4.5638223
000140 6c 37 e0 bf 1a 0e 12 40 14 bc 88 3f a5 d8 50 c0
       -1.7516913 2.2821107 1.0682397 -3.263223
000150 a3 f9 99 bf 5a c0 e0 be 70 f5 fb bf 88 af 10 bf
       -1.2029308 -0.43896753 -1.9684277 -0.5651784
000160 53 bd 81 bf 39 68 00 40 59 f2 df be c4 73 1a c0
       -1.0135902 2.0063612 -0.43739584 -2.4133158
000170 1b cd 2c bf dd 41 eb 3f 40 d0 4c bd 48 c4 f1 bf
       -0.67500466 1.8379475 -0.05000329 -1.8888025
000180 7e d5 0c c0 1b 2e 06 c0 60 aa 8c 3f 07 1f b6 3e
       -2.2005305 -2.096564 1.0989494 0.35570547
000190 10 76 44 3e b5 c7 26 bf 96 d6 38 c0 a0 ec aa 3e
       0.19185662 -0.6514848 -2.8880973 0.33383656
0001a0 97 0f bc 3f fb c0 8a bf aa 3c 3c bf c4 88 56 3f
       1.4692258 -1.0840143 -0.73530066 0.8380244
0001b0 ea 5a f3 bf 21 bb 1b bf 6b 15 01 3f 6d da 0c c0
       -1.901212 -0.6083241 0.50423306 -2.2008317
0001c0 b3 c3 7e 40 4a a3 d1 bf 6b 82 69 3d 41 5d 0c 40
       3.9806945 -1.6377957 0.057009142 2.1931918
0001d0 6e 6b d1 bf c9 3c bb bf 6d b2 84 bf 9f aa 0a c0
       -1.636091 -1.4627925 -1.0366951 -2.166664
0001e0 f5 57 5f c0 3b d2 e9 3e d6 4d ce 3f 72 be 09 40
       -3.4897435 0.45668206 1.6117504 2.1522489
0001f0 20 ba bc 3f a2 8f 3c bd 8f 1e 7c bd 98 0c a8 3e
       1.4744301 -0.046035416 -0.06155258 0.32822108
000200 fe aa ab 3f 09 81 6f bf 70 75 cf bb 2d 9c 3c be
       1.3411558 -0.9355627 -0.0063311383 -0.18418951
000210 e9 3a 7b bf a7 f6 24 c0 8e f8 df 3f b7 2f e0 3e
       -0.98136765 -2.5775545 1.7497728 0.43786404
000220 e0 9d 61 40 e8 1f 60 bf c6 9f 1e c0 7d 65 94 bf
       3.525261 -0.87548685 -2.4785018 -1.1593472
000230 d8 06 d4 3d 2d 13 30 bf b0 d9 21 c0 8b e5 21 bf
       0.10352868 -0.6877926 -2.5289116 -0.6324088
000240 84 95 f6 3f 5d 0c d7 3f 4a 57 c2 3f c3 71 24 40
       1.9264379 1.6800648 1.5182889 2.5694435
000250 ed 22 89 3f c8 fa de bf b9 07 f7 bf 21 6f 18 3e
       1.0713784 -1.7420282 -1.9299232 0.14886142
000260 bd f9 88 3e a6 54 ee 3e aa 01 bf 3f b2 1a 27 bf
       0.26753035 0.46548957 1.4922383 -0.6527511
000270 2d aa 07 40 81 99 f1 be 40 53 15 3f d9 08 1b 3f
       2.1197617 -0.47187427 0.58330154 0.60560375
000280 87 b9 06 c0 36 f7 92 3f 1a 38 b5 3e 6a ea 55 c0
       -2.1050737 1.1481693 0.35394365 -3.3424325
000290 28 a6 2a bf 2a 88 36 40 37 d7 b5 bd 88 82 58 c0
       -0.66659784 2.8520608 -0.088789396 -3.382967
0002a0 ab 73 bf 3f 79 bd e9 bf 16 b7 f0 3e 30 df fc bf
       1.4957174 -1.8260947 0.47014683 -1.9755611
0002b0 82 a7 9f c0 be 8e 97 bf 0b 53 79 bf 49 8e 36 3f
       -4.9891977 -1.1840436 -0.9739234 0.7131086
0002c0 eb 55 00 c0 bd bf 63 bf f3 b5 03 be c9 d9 3a 40
       -2.005244 -0.88964444 -0.12862377 2.9195426
0002d0 b9 d4 39 bf 13 c6 ac 3f 4e 75 10 c0 63 07 b2 bc
       -0.72590214 1.3497947 -2.2571597 -0.021732038
0002e0 ba d9 55 c0 03 76 fc bf a0 12 fa bf e6 38 9a 3f
       -3.341414 -1.9723514 -1.9536934 1.2048614
0002f0 92 ab 17 c0 42 7c 9a be cb 2d 00 bf 0c 35 17 bf
       -2.3698468 -0.30172926 -0.50069875 -0.5906532
000300 92 e0 d7 3f a0 b5 12 3e 9b 5f 20 c0 35 37 67 bf
       1.6865408 0.14327097 -2.5058353 -0.90318614
000310 9b 4e 22 bd 67 c1 18 bd 0a 33 38 bf ce 80 62 3f
       -0.039625745 -0.037293818 -0.7195288 0.8847779
000320 65 6a 02 3f 9f 2d 0e 3e 9b be 3d bf 14 35 a8 3f
       0.50943595 0.1388459 -0.74118966 1.3141198
000330 17 b3 9c bf 85 78 37 be c8 a2 c1 3f c9 68 c7 bf
       -1.2242154 -0.17917068 1.5127802 -1.5578853
000340 74 0c 0d c0 ff ae c6 3f f4 eb fc bd c8 b0 ae bf
       -2.203885 1.5522155 -0.12349692 -1.3647699
000350 5e 8d ab be e5 05 dd 3f fa 21 51 bf 10 e7 03 3f
       -0.33506292 1.7267424 -0.8169247 0.5152445
000360 21 d7 b8 bf 32 08 42 bf 0d 3b 60 3f 86 1b f8 3e
       -1.4440652 -0.75793755 0.87590104 0.484585
000370 21 ba d9 3f fa fa 71 be 2d d8 d9 3e f1 62 f6 bf
       1.7009927 -0.23630896 0.42547742 -1.9248945
000380 a9 c3 9c 3f ef 7d ea bf bf 09 ac bf 44 48 15 c0
       1.2247211 -1.8319682 -1.3440474 -2.3325357
000390 d4 c8 c3 be 2c 27 b4 be a5 90 6b bd a5 5d e8 bf
       -0.38239157 -0.35186136 -0.05751099 -1.8153578
0003a0 55 40 59 40 49 0c f2 3f a7 f4 59 bf d5 eb 19 c0
       3.3945515 1.8909999 -0.85138935 -2.405019
0003b0 bd 96 b6 3e 59 95 26 c0 c5 a5 37 bf 93 25 bd c0
       0.3566188 -2.6028655 -0.7173732 -5.9108367
0003c0 f0 9b 28 3f 39 3c 53 be dd 81 03 3f 3c bc 2e bd
       0.6586294 -0.20628442 0.5137003 -0.042659983
0003d0 05 5c db 3f e1 86 0a bf f2 83 be 3f fa 9f e2 3e
       1.7137457 -0.5411206 1.4884017 0.44262677
0003e0 06 c0 0c c0 a5 3d 15 3f d8 ba 1c 40 eb 59 0e 40
       -2.1992202 0.5829719 2.448904 2.2242382
0003f0 3a fd 71 bf 9a b7 47 3f a3 1b cd bd 33 6c 9a 3f
       -0.9452702 0.7801453 -0.10015037 1.206427

layers.2.bias f4 [12]
000000 3e 49 a2 be d1 03 88 bf 73 91 dd bf b0 a6 2a 3f
       -0.31696504 -1.0626165 -1.7310013 0.66660595
000010 67 94 2c bf 9b c3 1b 3f 51 97 31 c0 f5 40 95 bf
       -0.67413944 0.60845345 -2.7748606 -1.1660448
000020 3d f2 48 bf 30 8f ef 3e f4 97 f3 3d 7d cf f1 bf
       -0.78494626 0.4678893 0.11894217 -1.8891445

layers.3.weight f4 [2, 12]
000000 e8 d3 14 3e 5f d7 a5 ba 32 ee 8f be a5 01 99 be
       0.14533961 -0.0012652687 -0.28111416 -0.29884067
000010 a8 aa b6 3e 22 df c4 3e f6 78 ab be 63 63 a4 be
       0.35677075 0.38451487 -0.33490723 -0.32107076
000020 10 fe f6 bd 41 55 b9 3e 41 79 e4 be 09 c9 1a be
       -0.12060177 0.36197856 -0.4462376 -0.15115751
000030 96 2d c1 3f 3c 5b 31 3f ef 45 3b 40 bf 96 97 c0
       1.5092037 0.6927984 2.9261434 -4.7371516
000040 32 ba bc 3e 44 2d 5d bf 37 b7 97 be d2 b9 0c 40
       0.36860806 -0.86397195 -0.2963197 2.1988416
000050 b9 e4 82 bf 51 6c 5d c0 ca 12 04 3e 26 d9 99 bf
       -1.0226051 -3.459736 0.12897792 -1.2019393

layers.3.bias f4 [2]
000000 a9 73 2b bf 03 d4 ad bf
       -0.6697336 -1.3580326
