saved_models/ddpg_model_best_weights.pth (torch_old, 217146 bytes, 30 tensors)

layers.0.weight f4 [48, 24]
0.058613166 -0.19177243 -0.27125722 0.8932096 0.23754144 -1.0182391 -0.26984352 0.8099686
-0.045004778 -0.18404132 0.12555833 0.4613144 -0.05658851 -0.7237 0.16695054 0.7135995
0.1100922 -0.009416563 0.004381887 0.9396545 -0.22756936 -0.37119508 0.014298754 0.746242
0.096386455 -0.38702708 -0.05388958 0.059784222 -0.10763518 -1.6846166 0.045115605 0.09937507
0.32617146 -0.07579647 0.042039193 0.1394107 0.09489434 -2.0424082 0.008976224 0.21877356
0.61069334 -0.14965795 -0.034546915 0.3668848 0.79188627 -4.255084 -0.11128683 0.32342902
0.35589585 -0.12511693 0.08264954 0.80064106 1.2090158 0.7388635 0.0477747 0.6038966
0.5662809 -0.3962903 -0.07958914 0.3450869 2.4024684 0.38141787 -0.07381603 0.3450043
0.67014927 -0.2733968 -0.035719186 1.1845164 3.2668195 -1.4345791 0.1705972 1.3045849
0.36747628 1.5332235 -0.014904552 0.27245614 -1.4734128 -0.8882304 -0.07065973 0.2030508
0.6312386 0.85807264 -0.30309466 -0.58267766 -0.41807428 0.8469989 -0.3204233 -0.34753126
0.3334826 0.6066795 -0.15746562 -0.41548267 0.7865892 1.9833882 -0.06307196 -0.39338616
0.057219118 0.35380426 -0.17125295 0.036915503 0.3877646 -1.3681972 -0.24504477 -0.14036012
-0.16623257 0.76150453 -0.08805027 0.02049608 0.07411622 -3.7485485 0.116635986 0.056573868
0.087310754 0.5886506 0.31802818 -0.15884851 -0.012033821 -5.187694 0.3320866 -0.031639125
0.4543207 0.32173088 0.1296946 0.08562765 -0.5725469 0.35310507 0.06863991 -0.0677012
0.75136125 0.1647581 -0.2017887 0.014216576 -1.2227454 0.8931658 -0.21352807 -0.029066399
0.76410407 0.07863513 -0.13244255 -0.32263523 -1.5866156 1.4383084 0.07316771 -0.080578275
0.089643784 -0.40990847 -0.012899996 -0.20778345 -2.2577152 -1.5418588 0.10251834 -0.127495
0.054990895 -0.53667486 0.11368792 -0.027483778 0.23954622 0.49549165 -0.031673115 -0.02679273
-0.14580074 -0.45354506 -0.009340898 -0.17775938 2.4589746 2.4212697 -0.07724371 -0.10256768
-0.123772934 -0.6962825 -0.006210619 0.048629127 1.8162649 1.7415825 -0.09591767 -0.0042994325
-0.2264026 -0.713047 -0.09634364 0.13217396 -0.16675362 0.9254074 -0.13573515 0.18451762
-0.008645874 -0.5667248 -0.121945955 -0.007933527 -1.8934283 -0.2607664 -0.31253147 0.051840864
0.39826807 -1.691199 -0.034678154 -0.10909618 0.49926203 -1.0517787 -0.11580827 0.025949098
0.40936655 -1.6977632 0.032348998 0.044086196 -0.39087406 0.9511912 -0.15390597 0.036998093
0.11402389 -2.01275 0.040897496 -0.22223845 -0.90492845 5.068519 0.100308366 -0.36635616
-0.09993035 -0.874623 0.14758226 0.074712075 -1.9975662 0.21787278 -0.09676297 0.18464431
0.21626587 -0.62042075 0.053626176 0.22046651 0.12066403 1.2154634 0.079225615 0.122901544
0.088574186 -0.52535707 0.05044908 0.55539405 2.400403 1.6996768 -0.023804525 0.6957165
0.11448881 -1.3683889 0.07879595 -0.01352382 2.0936754 2.0464945 0.08814098 -0.021517685
-0.2087134 -1.283128 0.18458186 -0.13510914 -0.1663281 0.91964924 0.11216787 -0.13583964
00000000: 5c14 703d fe5f 44be 3ae2 8abe 62a9 643f
00000010: 103e 733e a955 82bf ee28 8abe 1a5a 4f3f
00000020: ee56 38bd 5475 3cbe 5d92 003e 6731 ec3e
00000030: 5ac9 67bd 6744 39bf 15f5 2a3e 75ae 363f
00000040: 0578 e13d ee47 1abc ef95 8f3b 338d 703f
00000050: f107 69be 480d bebe 5245 6a3c b709 3f3f
00000060: 4366 c53d 6a28 c6be 52bb 5cbd 4de0 743d
00000070: d56f dcbd 84a1 d7bf 24cb 383d 2885 cb3d
00000080: f2ff a63e 2e3b 9bbd 4a31 2c3d aec1 0e3e
00000090: f757 c23d d1b6 02c0 0311 133c 2d06 603e
000000a0: 6656 1c3f ef3f 19be 1181 0dbd 53d8 bb3e
000000b0: 0fb9 4a3f a629 88c0 59ea e3bd 7d98 a53e
000000c0: fb37 b63e a71e 00be 2944 a93d d0f6 4c3f
000000d0: 08c1 9a3f 2926 3d3f 67af 433d f898 1a3f
000000e0: c9f7 103f 90e6 cabe a2ff a2bd 3baf b03e
000000f0: 0bc2 1940 3449 c33e dc2c 97bd 67a4 b03e
00000100: e78e 2b3f aafa 8bbe 484e 12bd 3c9e 973f
00000110: 9213 5140 4aa0 b7bf 08b1 2e3e a3fc a63f
00000120: da25 bc3e ab40 c43f 3932 74bc 5f7f 8b3e
00000130: ca98 bcbf 1163 63bf 0cb6 90bd 8dec 4f3e
00000140: da98 213f a6aa 5b3f 392f 9bbe 5d2a 15bf
00000150: d50d d6be ebd4 583f 860e a4be 9eef b1be
00000160: 3bbe aa3e 594f 1b3f ab3e 21be 25ba d4be
00000170: e95d 493f aadf fd3f df2b 81bd e969 c9be
00000180: 985e 6a3d d525 b53e ef5c 2fbe b634 173d
00000190: 1589 c63e 1621 afbf 04ed 7abe 90ba 0fbe
000001a0: df38 2abe f6f1 423f b353 b4bd 65e7 a73c
000001b0: 3fca 973d 38e8 6fc0 d9de ee3d 00ba 673d
000001c0: fbcf b23d ceb1 163f 97d4 a23e 2fa9 22be
000001d0: 8129 45bc 9701 a6c0 4107 aa3e 0798 01bd
000001e0: b99c e83e e9b9 a43e a9ce 043e 8d5d af3d
000001f0: 6f92 12bf 30ca b43e 1593 8c3d eda6 8abd
00000200: 3659 403f 59b6 283e b2a1 4ebe a4ec 683c
00000210: ec82 9cbf 84a6 643f 1aa7 5abe a81c eebc
00000220: 539c 433f 740b a13d 059f 07be 7230 a5be
00000230: 3816 cbbf 7d1a b83f f4d8 953d 3906 a5bd
00000240: 2997 b73d 86df d1be 815a 53bc 2fc5 54be
00000250: 687e 10c0 a15b c5bf 23f5 d13d 0d8e 02be
00000260: 223e 613d 8663 09bf 36d5 e83d a925 e1bc
00000270: 9b4b 753e 15b1 fd3e abbb 01bd 6d7c dbbc
00000280: ca4c 15be 0f37 e8be 910a 19bc 8e06 36be
00000290: d75f 1d40 15f6 1a40 f331 9ebd 010f d2bd
000002a0: aa7c fdbd 923f 32bf 7382 cbbb 562f 473d
000002b0: 5e7b e83f 2dec de3f 7c70 c4bd 41e2 8cbb
000002c0: 15d6 67be 408a 36bf d04f c5bd 9c58 073e
000002d0: 76c1 2abe 80e7 6c3f 28fe 0abe 30f2 3c3e
000002e0: 6da7 0dbc e014 11bf cdbe f9bd a0fb 01bc
000002f0: dc5b f2bf 2c83 85be 2004 a0be 1657 543d
00000300: cbe9 cb3e 3579 d8bf ae0a 0ebd d16d dfbd
00000310: 469f ff3e afa0 86bf e32c edbd 3493 d43c
00000320: 7e98 d13e 4e50 d9bf 6280 043d ba93 343d
00000330: a520 c8be 4481 733f 8799 1dbe 508b 173d
00000340: 5b85 e93d e5d0 00c0 2284 273d 7a92 63be
00000350: 64a9 67bf 4f31 a240 796e cd3d 0993 bbbe
00000360: 49a8 ccbd 4be7 5fbf ce1f 173e a502 993d
00000370: 40b0 ffbf 0b1a 5f3e aa2b c6bd 6613 3d3e
00000380: cd74 5d3e e5d3 1ebf 1fa7 5b3d f9c1 613e
00000390: b41e f73d 4e94 9b3f 0a41 a23d ceb3 fb3d
000003a0: 6266 b53d cd7d 06bf b2a3 4e3d 4e2e 0e3f
000003b0: 34a0 1940 028f d93f b501 c3bc 7a1a 323f
000003c0: 1c79 ea3d 5e27 afbf c55f a13d 0393 5dbc
000003d0: c7fe 0540 c4f9 0240 4283 b43d db45 b0bc
000003e0: f7b8 55be 8a3d a4bf 0703 3d3e 0d5a 0abe
000003f0: ea51 2abe 226e 6b3f 45b8 e53d 8c19 0bbe

layers.0.bias f4 [48]
0.17232823 -0.55576605 -0.11218206 -1.5431376 0.82627285 -0.37441748 -0.7002081 0.23670766
-0.5723283 -1.4104642 0.4459585 -0.3311959 -2.5924528 0.042133305 0.6443588 0.24858779
-1.1296785 1.161568 -0.7959684 -1.1502526 -0.056267947 -0.046331648 -0.5793636 -0.9235041
-0.7801035 0.50996727 1.3616 -1.7529045 -0.21218736 -1.5926306 -0.08122652 0.4336154
0.99884313 -0.56939614 -0.5134315 0.039298326 -0.0273039 -0.7582528 -0.088677764 -1.073727
1.0199183 0.018496301 0.5849331 -0.74675125 -0.9498001 -0.148823 0.3198163 0.56052566
00000000: d076 303e af46 0ebf b5bf e5bd 8885 c5bf
00000010: 9e86 533f a6b3 bfbe d740 33bf 7e63 723e
00000020: 1c84 12bf 178a b4bf ac54 e43e 8292 a9be
00000030: bfea 25c0 f993 2c3d b3f4 243f cc8d 7e3e
00000040: 4e99 90bf 43ae 943f 96c4 4bbf 7a3b 93bf
00000050: 3879 66bd 41c6 3dbd 2c51 14bf c46a 6cbf
00000060: ddb4 47bf 378d 023f e948 ae3f 2d5f e0bf
00000070: a547 59be 52db cbbf 175a a6bd d602 de3e
00000080: 2fb4 7f3f f2c3 11bf 3f70 03bf 48f7 203d
00000090: 6eac dfbc db1c 42bf b09c b5bd e36f 89bf
000000a0: af8c 823f 8e85 973c 2dbe 153f 172b 3fbf
000000b0: 1926 73bf 0e65 18be f6be a33e 9c7e 0f3f

layers.1.weight f4 [24, 48]
0.2584693 -0.36988243 -0.6285422 -0.1724037 0.48494616 -0.12077874 -1.9069371 0.25083163
-3.0928533 -1.3343213 -0.02605212 0.21895614 -1.0207632 -0.30221003 1.2379553 0.12387174
-0.97487557 0.4899563 -0.033277564 -0.33712366 0.008658015 0.36556983 -0.72183746 -1.0227954
-0.42571244 0.45310116 -0.13704649 -0.7846482 -0.3771557 -0.14741866 0.779096 -0.055806525
1.1556885 -0.38974446 0.43840522 -0.33065227 -1.4620271 -0.32392344 -0.6719758 -0.91144454
0.49965835 0.56112266 0.9249402 -0.04708115 -2.2122293 0.37877697 0.88573 0.355939
-0.19046421 -0.25270575 -1.0328827 0.121416606 0.087677084 1.3568093 -2.2752178 -0.076032646
0.7842288 -1.3052224 0.59869796 1.0568132 -0.08876439 -0.40078813 0.63797903 0.3219848
0.8920341 -0.8149745 0.75662684 0.26081333 -0.014640507 0.45578074 -2.3114536 1.1066351
-0.18341768 -0.4076838 0.043974 -0.91349536 0.52357966 -0.050348584 0.6801628 0.35857156
-0.12974456 0.43642047 0.088671945 0.97736526 -0.43209448 0.93433183 0.75129807 0.10893676
-0.38830405 -0.0208222 0.14426522 0.6389085 0.4883518 0.015391757 0.33799133 0.06567531
-0.59537894 0.64618367 0.6994363 0.07484482 -0.9739071 -1.6824921 1.8372481 -1.3138961
-0.15198873 0.632948 -1.6097188 0.67746365 0.85683644 0.4221982 -0.29907295 -0.2440146
-0.23578855 -0.85682774 -1.0472081 0.6986167 0.30123457 -0.71330243 0.65463054 -0.3515645
0.6911394 -0.9598407 -0.5846922 0.4749251 -0.118934594 0.361047 -0.39650628 0.7706935
-0.25949344 -0.7885459 -0.24679789 1.366751 1.6225171 0.118452065 -0.5078392 0.024930779
-0.5396541 0.39686888 -0.5885762 -1.3251413 0.71881753 -0.2684457 -0.5732725 0.23507574
-0.018125175 0.028514352 0.07514995 -0.036534797 0.22341754 0.47576034 -1.4817319 0.37393087
0.9452916 -0.4186801 0.31542003 0.8860294 0.59278494 0.41134956 0.523886 0.0007982994
-0.032977536 -0.6058078 0.61794335 -0.05873187 0.017722912 0.64941686 -1.4790009 0.5797912
0.25325513 -0.3072542 -0.8088089 -0.72892565 0.07247695 0.28539976 1.0539289 -0.4664739
-0.6178551 0.49330774 0.5684166 2.6401703 0.55915266 0.34060296 0.2910655 0.9399653
-0.16552222 -0.9637712 -0.34839374 0.93750906 1.3424534 0.62970096 -0.59648967 -0.5836523
-0.6932708 -0.20737472 -1.0132935 0.4342836 -0.8343143 0.41865548 0.7125754 -0.23609127
0.16713615 0.1094247 -0.6546582 0.33361605 -0.2796525 -5.032236 0.16413026 0.30615175
-0.46059853 -0.6081263 -0.28601518 0.9852346 -0.078399256 -0.016334852 0.75717026 0.69751
0.83941 0.22488908 -0.19115153 -0.5403511 -0.2655246 0.2072594 -0.36009797 -0.10894518
-0.0746686 0.39469552 -1.1363153 -0.80268526 0.5797735 0.17472404 0.409459 -0.8494241
0.20495363 -0.59946865 -0.5665935 -1.3288896 -0.3612239 0.06307892 -0.5428458 0.06723646
0.24632475 0.5374155 -0.14677945 -0.36381382 0.7035027 -0.3136688 -0.54993343 -0.5588802
-1.275426 -1.5405569 -0.5570818 -1.3297619 -0.37340772 -0.6541919 0.22765781 0.58839494
00000000: 1756 843e 3b61 bdbe 24e8 20bf 988a 30be
00000010: dd4a f83e d85a f7bd 8416 f4bf 016d 803e
00000020: 4ff1 45c0 0acb aabf 416b d5bc 0a36 603e
00000030: 5ea8 82bf 46bb 9abe 5275 9e3f 78b0 fd3d
00000040: 7291 79bf 8ddb fa3e 0e4e 08bd 799b acbe
00000050: 59da 0d3c f82b bb3e 57ca 38bf f6ea 82bf
00000060: fbf6 d9be e0fc e73e ea55 0cbe b4de 48bf
00000070: 8d1a c1be ebf4 16be d672 473f 6295 64bd
00000080: 9aed 933f 968c c7be a676 e03e 414b a9be
00000090: b423 bbbf 4bd9 a5be 9b06 2cbf 6e54 69bf
000000a0: 38d3 ff3e bca5 0f3f e2c8 6c3f 2ad8 40bd
000000b0: 2a95 0dc0 0eef c13e 34bf 623f a33d b63e
000000c0: 0d09 43be a662 81be 8035 84bf 45a9 f83d
000000d0: 0b90 b33d edab ad3f 2b9d 11c0 01b7 9bbd
000000e0: 38c3 483f 8711 a7bf 4544 193f a845 873f
000000f0: 1bca b5bd 1a34 cdbe 9852 233f 31db a43e
00000100: 595c 643f 2ba2 50bf 4cb2 413f 5389 853e
00000110: bdde 6fbc 185c e93e dbee 13c0 38a6 8d3f
00000120: d8d1 3bbe eebb d0be 151e 343d d5da 69bf
00000130: 5109 063f 513a 4ebd 261f 2e3f b196 b73e
00000140: c2db 04be 8172 df3e a399 b53d 9c34 7a3f
00000150: 7d3b ddbe 5f30 6f3f 1255 403f 3c1a df3d
00000160: cacf c6be 5293 aabc 43ba 133e 828f 233f
00000170: 3f09 fa3e b52d 7c3c 330d ad3e c780 863d
00000180: c16a 18bf 4b6c 253f 420e 333f 3e48 993d
00000190: fa51 79bf e75b d7bf f22a eb3f bf2d a8bf
000001a0: efa2 1bbe e108 223f 440b cebf 426e 2d3f
000001b0: a259 5b3f 5d2a d83e 1720 99be f7de 79be
000001c0: 8e72 71be 1059 5bbf ea0a 86bf 8bd8 323f
000001d0: 6b3b 9a3e fd9a 36bf de95 273f 4300 b4be
000001e0: 83ee 303f 1fb8 75bf 63ae 15bf 6229 f33e
000001f0: fb93 f3bd 27db b83e df02 cbbe 2b4c 453f
00000200: 53dc 84be 25de 49bf 96b8 7cbe b2f1 ae3f
00000210: a4ae cf3f ff96 f23d c001 02bf a23b cc3c
00000220: c526 0abf 6632 cb3e eeac 16bf 3b9e a9bf
00000230: 6d04 383f b771 89be fdc1 12bf b2b7 703e
00000240: 3f7b 94bc ee96 e93c 38e8 993d 83a5 15bd
00000250: 91c7 643e dc96 f33e 64a9 bdbf de73 bf3e
00000260: a1fe 713f 3d5d d6be bc7e a13e d3d2 623f
00000270: c1c0 173f 699c d23e 651d 063f f744 513a
00000280: 7413 07bd 3816 1bbf 8931 1e3f d490 70bd
00000290: a42f 913c 2f40 263f e74f bdbf 326d 143f
000002a0: a8aa 813e 6c50 9dbe 1a0e 4fbf df9a 3abf
000002b0: cc6e 943d eb1f 923e 24e7 863f abd5 eebe
000002c0: c02b 1ebf d592 fc3e c083 113f 8df8 2840
000002d0: a124 0f3f 8363 ae3e 8a06 953e 91a1 703f
000002e0: a87e 29be b6b9 76bf aa60 b2be 9800 703f
000002f0: 83d5 ab3f 1534 213f 8cb3 18bf 3d6a 15bf
00000300: 327a 31bf 0a5a 54be 9ab3 81bf 6c5a de3e
00000310: 9f95 55bf 035a d63e 576b 363f e9c1 71be
00000320: bd25 2b3e 0f1a e03d ae97 27bf b9cf aa3e
00000330: 9d2e 8fbe 1408 a1c0 c311 283e ecbf 9c3e
00000340: 92d3 ebbe 2aae 1bbf 9570 92be 5638 7c3f
00000350: ca8f a0bd abd0 85bc e9d5 413f 0490 323f
00000360: 93e3 563f 5349 663e 3abd 43be 7354 0abf
00000370: d7f2 87be cf3b 543e c35e b8be a71e dfbd
00000380: daeb 98bd 8815 ca3e c872 91bf c87c 4dbf
00000390: 096c 143f dcea 323e 9ca4 d13e dc73 59bf
000003a0: 5ddf 513e c776 19bf 460c 11bf 0e19 aabf
000003b0: 57f2 b8be 852f 813d f1f7 0abf 45b3 893d
000003c0: 8e3c 7c3e 1094 093f 5a4d 16be ce45 babe
000003d0: c118 343f 3299 a0be 70c8 0cbf c612 0fbf
000003e0: 2941 a3bf f830 c5bf ea9c 0ebf a335 aabf
000003f0: 4c2f bfbe 1f79 27bf 211f 693e 0da1 163f

layers.1.bias f4 [24]
0.68906015 -0.84046394 -2.0049858 -0.77972853 0.4581517 -0.09106289 -1.5436678 -0.3566468
0.24808885 -0.39608535 -0.31629467 -2.2769475 -0.2714361 -1.6052707 -0.27774006 1.0717456
-0.8413533 2.4263997 1.3988947 -0.32175264 -0.55596566 0.38951692 0.2640651 0.33727127
00000000: 3f66 303f a528 57bf b051 00c0 4a9c 47bf
00000010: dc92 ea3e 2e7f babd e896 c5bf 699a b6be
00000020: 010b 7e3e b3cb cabe 60f1 a1be 82b9 11c0
00000030: acf9 8abe 8379 cdbf f233 8ebe f62e 893f
00000040: ee62 57bf 224a 1b40 fb0e b33f c3bc a4be
00000050: c453 0ebf c36e c73e 8a33 873e d2ae ac3e

layers.2.weight f4 [12, 24]
-0.81888396 -0.60057986 0.50766 0.5431829 -0.27965653 -0.2131717 0.15717642 2.2216976
1.1535336 0.41013995 0.85788286 0.5762018 -0.15636194 0.08840234 0.042582314 -1.3224608
-0.19305426 0.0030394832 -0.866754 -0.07687877 1.0761213 0.620699 0.44010156 0.6533233
0.69572747 -0.7406118 -0.3035757 -0.5795768 0.6163415 -0.7128389 0.019972371 -0.9454133
0.35744983 0.2986939 1.2195013 0.5357204 1.3781973 -0.31689242 0.046499338 0.52221936
0.49366248 -0.038252026 -0.07950952 -1.3128991 0.9999656 0.55863905 0.49873665 -0.69478697
0.41041407 0.7243688 0.48787093 -2.848071 -1.0893108 0.1346676 0.31584248 -0.81220907
0.20288034 -1.3037152 -0.40539497 -0.011640685 1.1792243 -0.030259775 0.33752725 0.12716603
0.030072756 0.15654732 -0.7670381 -0.19171871 -1.0528567 -0.56180537 0.21858189 0.22729462
2.3931205 -0.824696 -0.6453504 -1.6953049 0.49769294 1.352089 -0.7000076 -0.5229974
0.002484116 -1.5239291 -0.053082496 -0.13901119 -0.4272062 0.41149348 -1.0725545 -0.49120128
0.030904278 0.07704958 0.68464786 0.21274933 -0.35442704 -0.24487363 -0.57464635 0.8917707
-0.95412356 0.6540995 0.2067027 0.40208662 -2.8527572 -0.45318785 0.42912844 1.0569526
0.0033667826 0.4042934 -0.32632056 -0.44805923 0.29499248 0.17763641 -0.42552966 0.45171145
0.8911148 0.12958269 -1.2653295 0.4341899 0.8029077 0.4933942 -1.5384574 -0.5697105
0.109168045 -0.8494279 -0.83188 0.03572334 0.62009215 -0.14243913 1.8981924 -2.0319948
0.8951779 -0.7437938 9.455942e-05 -0.7802811 0.4497559 -0.1295925 -0.44061536 0.32299468
0.28182065 -0.39829856 -0.7808346 1.9413233 -0.24363934 0.15048032 0.60275304 0.98614764
-0.3578137 1.2148969 -1.1314855 0.5778372 -0.21467325 0.43629405 -0.15631367 -0.91628283
0.51157445 0.80298364 -0.93086344 0.5426859 -2.313831 0.12706886 0.0738534 -1.066202
-1.7439888 -1.2049295 -0.9301628 -1.7265452 0.11244171 0.01777589 0.4178326 -0.5232262
-0.056306783 -0.77499837 1.6251881 -0.25289413 0.2543757 0.5727697 0.91231334 0.41032755
-0.3443566 0.91568774 1.0051712 0.57531285 0.53352773 0.6933004 -0.9435004 -0.30546302
0.3494718 -1.8642876 -0.10141267 1.2907901 0.99701035 0.2963794 1.3283507 1.0456712
1.3164321 -0.2797924 -0.25078598 -0.86077845 -0.54010403 0.5165394 0.3385908 -1.9415723
0.996732 -1.5809351 -1.8054469 -0.29660398 0.5368281 -1.1250315 0.038580142 -0.07232811
0.23995307 0.8612687 0.20580679 -1.2053388 -0.31848815 -1.308398 0.13895108 -0.2533181
0.5937391 -0.31937116 -0.89645946 -0.4821926 1.2109087 1.6786785 0.97071093 0.6159133
-0.28574547 -0.36270073 -0.4089236 -0.347276 0.087441586 0.45872504 -0.8790052 -0.14906332
-0.94191206 -0.06699504 -0.33493012 0.26104262 0.57909465 0.5381705 1.8190027 1.989189
-1.5079266 0.19953297 0.2224553 -0.09593194 -2.26985 -0.5025848 1.1567652 1.1558106
-1.2252513 1.0585864 -0.32562435 -1.7171881 0.5567948 0.71863246 -0.4852862 -1.6622487
00000000: 61a2 51bf 9abf 19bf 01f6 013f 090e 0b3f
00000010: 242f 8fbe af49 5abe dbf2 203e 4b30 0e40
00000020: fda6 933f ddfd d13e 369e 5b3f f681 133f
00000030: 581d 20be 490c b53d cb6a 2e3d 6546 a9bf
00000040: 04b0 45be 1132 473b 97e3 5dbf 9e72 9dbd
00000050: 58be 893f 21e6 1e3f fe54 e13e 3240 273f
00000060: 321b 323f bc98 3dbf 466e 9bbe 255f 14bf
00000070: 8ec8 1d3f 9c7c 36bf 199d a33c 9b06 72bf
00000080: aa03 b73e 68ee 983e 9e18 9c3f f924 093f
00000090: c568 b03f b93f a2be 1776 3e3d 2bb0 053f
000000a0: 54c1 fc3e 28ae 1cbd e3d5 a2bd 140d a8bf
000000b0: bffd 7f3f f802 0f3f 695a ff3e 8fdd 31bf
000000c0: cb21 d23e 3c70 393f 38ca f93e cc46 36c0
000000d0: 896e 8bbf 4ee6 093e 1bb6 a13e efec 4fbf
000000e0: ddbf 4f3e 24e0 a6bf ee8f cfbe 92b8 3ebc
000000f0: d2f0 963f 59e3 f7bc 5fd0 ac3e d037 023e
00000100: 245b f63c f14d 203e 9c5c 44bf e951 44be
00000110: 02c4 86bf 7ad2 0fbf eed3 5f3e ecbf 683e
00000120: e328 1940 471f 53bf af35 25bf c0ff d8bf
00000130: 9cd1 fe3e 4111 ad3f b333 33bf 28e3 05bf
00000140: 8dcc 223b 1c10 c3bf 086d 59bd f358 0ebe
00000150: c5ba dabe 46af d23e 7749 89bf bc7e fbbe
00000160: f82a fd3c 2ccc 9d3d 1545 2f3f f6da 593e
00000170: 7677 b5be 27c0 7abe 061c 13bf 164b 643f
00000180: 7141 74bf 1173 273f dfa9 533e 4cde cd3e
00000190: 9393 36c0 3d08 e8be b9b6 db3e 394a 873f
000001a0: 3da5 5c3b 8bff ce3e 7d13 a7be 0568 e5be
000001b0: 4109 973e 52e6 353e 06df d9be b946 e73e
000001c0: 1920 643f 53b1 043e 51f6 a1bf 234e de3e
000001d0: 5c8b 4d3f 2a9e fc3e 2cec c4bf 8cd8 11bf
000001e0: 7f93 df3d 1b74 59bf 16f6 54bf a352 123d
000001f0: 5cbe 1e3f 90db 11be f8f7 f23f 340c 02c0
00000200: 612a 653f 4569 3ebf 344e c638 81c0 47bf
00000210: 6846 e63e e5b3 04be 5698 e1be 8f5f a53e
00000220: cc4a 903e caed cbbe c7e4 47bf 487d f83f
00000230: 977c 79be 8317 1a3e 064e 1a3f 2c74 7c3f
00000240: 5b33 b7be be81 9b3f 84d4 90bf 24ed 133f
00000250: 4ed3 5bbe ef61 df3e b110 20be 8391 6abf
00000260: 8bf6 023f 5690 4d3f 114d 6ebf 77ed 0a3f
00000270: cf15 14c0 571e 023e 7440 973d 4f79 88bf
00000280: 063b dfbf 213b 9abf 261f 6ebf 6fff dcbf
00000290: d747 e63d be9e 913c 28ee d53e 27f2 05bf
000002a0: f1a1 66bd 4b66 46bf 2a06 d03f 577b 81be
000002b0: 883d 823e 09a1 123f 5e8d 693f 7416 d23e
000002c0: 824f b0be 836a 6a3f 73a9 803f b447 133f
000002d0: 4695 083f 237c 313f 3e89 71bf a665 9cbe
000002e0: f8ed b23e faa0 eebf 72b1 cfbd 9c38 a53f
000002f0: 123c 7f3f 0abf 973e 6507 aa3f 8ed8 853f
00000300: d980 a83f f340 8fbe 0567 80be fa5b 5cbf
00000310: 4244 0abf ed3b 043f c65b ad3e 7185 f8bf
00000320: d429 7f3f 155c cabf e218 e7bf 7adc 97be
00000330: 916d 093f 0801 90bf 3606 1e3d c320 94bd
00000340: 42b6 753e 1b7c 5c3f 04bf 523e 8b48 9abf
00000350: e110 a3be 9679 a7bf 3149 0e3e e9b2 81be
00000360: 49ff 173f 9e84 a3be 5e7e 65bf f3e1 f6be
00000370: 0eff 9a3f f0de d63f 8380 783f 7eac 1d3f
00000380: 3b4d 92be e9b3 b9be 6f5e d1be 29ce b1be
00000390: 9314 b33d 02de ea3e 7c06 61bf 0ea4 18be
000003a0: 2621 71bf b234 89bd f67b abbe 61a7 853e
000003b0: 8c3f 143f 8bc5 093f 15d5 e83f bf9d fe3f
000003c0: bd03 c1bf 5f52 4c3e 52cb 633e f777 c4bd
000003d0: 3945 11c0 66a9 00bf e210 943f 9af1 933f
000003e0: 09d5 9cbf c27f 873f 3cb8 a6be d2cc dbbf
000003f0: 1b8a 0e3f 4cf8 373f 6f77 f8be 91c4 d4bf

layers.2.bias f4 [12]
-0.82117146 0.019422084 -1.280798 0.37357768 -0.204832 -0.24000187 -0.31360927 -1.7882313
0.41786987 0.016205715 -1.6427598 -0.08128238
00000000: 4b38 52bf 101b 9f3c 30f1 a3bf 9345 bf3e
00000010: 7bbf 51be 0dc3 75be 6591 a0be c3e4 e4bf
00000020: 0af3 d53e d9c1 843c f445 d2bf 6077 a6bd

layers.3.weight f4 [2, 12]
0.11750073 0.12946765 0.39756498 1.4983575 -1.0433083 0.5877882 -1.0875455 -0.14574139
0.9334931 0.66764957 -1.4867537 -0.3258225 -0.8998178 -1.6590617 0.58503306 -0.6840806
0.25671217 -0.12037008 1.0957358 -1.8026826 0.53721595 0.2897182 0.8097944 0.25245523
00000000: 39a4 f03d 2b93 043e a38d cb3e 2eca bf3f
00000010: 208b 85bf 4a79 163f b134 8bbf 3b3d 15be
00000020: 67f9 6e3f 15eb 2a3f f24d bebf 35d2 a6be
00000030: 765a 66bf 225c d4bf bac4 153f e81f 2fbf
00000040: c76f 833e 9784 f6bd 1241 8c3f 4ebe e6bf
00000050: fc86 093f f255 943e b04e 4f3f d041 813e

layers.3.bias f4 [2]
1.1193918 -0.44208592
00000000: 3b48 8f3f 1659 e2be

layers.0.weight f4 [48, 24]
0.06371182 -0.19052598 -0.28345758 0.8870059 0.23990878 -1.0276767 -0.28204408 0.8037641
-0.040572375 -0.17936915 0.113862254 0.47314724 -0.054331154 -0.7327782 0.155255 0.7254364
0.11236308 -0.008079944 -0.02909068 0.92384857 -0.2262631 -0.3705347 -0.019173758 0.7304339
0.09564034 -0.39267036 -0.084829345 0.041727345 -0.10010884 -1.7095935 0.014177259 0.08131871
0.3261291 -0.081103176 0.052071746 0.1488921 0.102851786 -2.0545511 0.01900835 0.22825581
0.61080253 -0.1549844 -0.037392553 0.37089726 0.79489034 -4.2279754 -0.11413341 0.3274401
0.3547631 -0.120751515 0.06519543 0.77492285 1.2293178 0.72638047 0.030320141 0.57817626
0.5694985 -0.39794847 -0.08119782 0.33211997 2.4220304 0.36764422 -0.07542478 0.33203766
0.6756011 -0.27832195 -0.04710384 1.1701314 3.28181 -1.4463284 0.1592153 1.2902032
0.34784672 1.5313705 0.011823192 0.27436182 -1.4954078 -0.8696646 -0.04393268 0.20495547
0.61151075 0.85633636 -0.3038559 -0.5870551 -0.43805075 0.8659134 -0.3211856 -0.35190713
0.31755808 0.60225284 -0.13117248 -0.43414068 0.7690228 2.0021384 -0.03677781 -0.41204378
0.04922801 0.346374 -0.16258387 0.03290664 0.37784606 -1.3524468 -0.23637666 -0.14437123
-0.1742036 0.7540647 -0.09442896 0.020651681 0.063996196 -3.7502077 0.1102599 0.05672988
0.07875344 0.58083725 0.30016467 -0.1725201 -0.022096554 -5.19891 0.31422302 -0.045308974
0.45393154 0.32022858 0.12897134 0.09576616 -0.56978035 0.3513255 0.06791588 -0.05756474
0.75146776 0.16322201 -0.19678192 0.011107398 -1.2180519 0.8888451 -0.20852141 -0.03217613
0.76377785 0.08161945 -0.13645138 -0.30528027 -1.580518 1.4323131 0.06916157 -0.06322028
0.060130935 -0.42361188 -0.009391271 -0.19894166 -2.277676 -1.5111183 0.10602862 -0.1186522
0.022104053 -0.5519468 0.11984101 -0.033041157 0.21380967 0.52153355 -0.025521928 -0.03235008
-0.17759278 -0.47487834 0.0021589405 -0.1882853 2.4269397 2.4461565 -0.06574473 -0.11309244
-0.12841909 -0.6975318 -0.0037888363 0.057138283 1.8185376 1.7542142 -0.09349711 0.0042089927
-0.23116475 -0.7148118 -0.096241765 0.12901539 -0.16379395 0.9386052 -0.13563335 0.18135968
-0.012823891 -0.56443816 -0.113696925 0.00713387 -1.8891842 -0.25087562 -0.3042853 0.06690901
0.40618792 -1.6811339 0.010890148 -0.103148825 0.5111334 -1.0394845 -0.07024105 0.03189798
0.4172324 -1.6891387 0.049471404 0.028522016 -0.37821266 0.9733097 -0.1367861 0.021433843
0.12243512 -2.0031633 0.041212957 -0.21633969 -0.89178264 5.091204 0.100624725 -0.3604592
-0.07595368 -0.8619667 0.12144788 0.06841042 -1.9746505 0.19444665 -0.1229008 0.17834422
0.24057795 -0.6025202 0.037641313 0.24010178 0.14401798 1.190269 0.063241236 0.14253516
0.11354538 -0.50936955 0.04039197 0.5347454 2.4222586 1.6785377 -0.033862546 0.67506945
0.11958365 -1.3642358 0.07742718 -0.0023153333 2.1013675 2.0345476 0.08677214 -0.010309316
-0.20291023 -1.2773875 0.17700045 -0.1257017 -0.15630615 0.9084954 0.10458553 -0.12643218
00000000: 587b 823d 3e19 43be 5a21 91be d212 633f
00000010: a6aa 753e e98a 83bf 1568 90be 7cc3 4d3f
00000020: 382f 26bd 8cac 37be 9d30 e93d 5b40 f23e
00000030: 588a 5ebd 5a97 3bbf 2bfb 1e3e 33b6 393f
00000040: 9d1e e63d be61 04bc 944f eebc 5781 6c3f
00000050: 84b1 67be b9b6 bdbe 4912 9dbc b7fd 3a3f
00000060: 15df c33d 170c c9be 02bb adbd 4bea 2a3d
00000070: dd05 cdbd f6d3 dabf bc47 683c 6d8a a63d
00000080: 65fa a63e 6c19 a6bd 2f49 553d 2c77 183e
00000090: f5a3 d23d c47d 03c0 66b7 9b3c e4bb 693e
000000a0: 8e5d 1c3f 3bb4 1ebe ef28 19bd 3fe6 bd3e
000000b0: ef7d 4b3f 934b 87c0 c7be e9bd 3ba6 a73e
000000c0: 82a3 b53e 924c f7bd 2e85 853d 5861 463f
000000d0: 495a 9d3f 12f4 393f f261 f83c 5c03 143f
000000e0: a7ca 113f e7bf cbbe 0b4b a6bd a10b aa3e
000000f0: 8c02 1b40 dd3b bc3e 4f78 9abd d700 aa3e
00000100: 32f4 2c3f 3780 8ebe f5ef 40bd dec6 953f
00000110: 2d09 5240 4a21 b9bf 5609 233e 6125 a53f
00000120: f718 b23e f303 c43f 10b6 413c 2779 8c3e
00000130: 8669 bfbf 57a2 5ebf c1f2 33bd d9df 513e
00000140: f88b 1c3f dc38 5b3f 0093 9bbe 3e49 16bf
00000150: 3048 e0be 80ac 5d3f 7072 a4be 2c2d b4be
00000160: f996 a23e 3e2d 1a3f 1452 06be b047 debe
00000170: aede 443f 0923 0040 54a4 16bd 67f7 d2be
00000180: 4fa3 493d ef57 b13e 637c 26be 1dc9 063d
00000190: 0a75 c13e fa1c adbf b90c 72be 0dd6 13be
000001a0: 6e62 32be 620a 413f f863 c1bd b72d a93c
000001b0: 7010 833d 6703 70c0 f1cf e13d 975d 683d
000001c0: 7c49 a13d c0b1 143f 2faf 993e 1ca9 30be
000001d0: d503 b5bc 795d a6c0 d7e1 a03e e795 39bd
000001e0: b769 e83e 00f5 a33e 1011 043e 0c21 c43d
000001f0: 20dd 11bf f0e0 b33e 7b17 8b3d 01c9 6bbd
00000200: 3160 403f ac23 273e 3381 49be cefb 353c
00000210: 20e9 9bbf 5a8b 633f a386 55be 1ecb 03bd
00000220: f286 433f 1928 a73d e9b9 0bbe b24d 9cbe
00000230: 6a4e cabf 0956 b73f 95a4 8d3d a279 81bd
00000240: db4b 763d a8e3 d8be d8dd 19bc 5db7 4bbe
00000250: 72c5 11c0 536c c1bf 8825 d93d edff f2bd
00000260: 8f13 b53c 634c 0dbf 346f f53d 2a56 07bd
00000270: ecf0 5a3e 3983 053f 5d13 d1bc 8481 04bd
00000280: e2da 35be 4123 f3be 037d 0d3b ddcd 40be
00000290: fb52 1b40 d48d 1c40 2ca5 86bd 029d e7bd
000002a0: 4b80 03be 7291 32bf 204e 78bb d509 6a3d
000002b0: d7c5 e83f 178a e03f 6a7b bfbd 97eb 893b
000002c0: 74b6 6cbe e8fd 36bf 671a c5bd 9c1c 043e
000002d0: 9ab9 27be 6e48 703f 78e3 0abe 5ab6 393e
000002e0: 4c1b 52bc 057f 10bf efd9 e8bd 3dc3 e93b
000002f0: cad0 f1bf c572 80be 48cb 9bbe 9707 893d
00000300: ddf7 cf3e 652f d7bf 976c 323c b13f d3bd
00000310: a3d9 023f d40d 85bf 8ada 8fbd 75a7 023d
00000320: 7c9f d53e b235 d8bf 87a2 4a3d 01a7 e93c
00000330: 17a5 c1be d32a 793f a811 0cbe 0796 af3c
00000340: 44bf fa3d d433 00c0 ebce 283d 2788 5dbe
00000350: de4b 64bf 25eb a240 5614 ce3d 1c8e b8be
00000360: 9a8d 9bbd daa9 5cbf abb9 f83d c31a 8c3d
00000370: 59c1 fcbf 061d 473e 6ab3 fbbd de9f 363e
00000380: 115a 763e c43e 1abf c72d 1a3d 3edd 753e
00000390: 7379 133e bc5a 983f 9f84 813d bdf4 113e
000003a0: 7b8a e83d 0b66 02bf 0d72 253d 13e5 083f
000003b0: 4906 1b40 53da d63f 74b3 0abd 5ad1 2c3f
000003c0: 46e8 f43d 479f aebf 2492 9e3d d9bc 17bb
000003d0: ce7c 0640 0736 0240 97b5 b13d 68e8 28bc
000003e0: b3c7 4fbe 6f81 a3bf 9b3f 353e f2b7 00be
000003f0: b80e 20be 2893 683f f030 d63d 7077 01be

layers.0.bias f4 [48]
0.16644332 -0.55281126 -0.12388059 -1.5161653 0.8338488 -0.37580687 -0.67549 0.24247578
-0.578517 -1.4365102 0.4366811 -0.3280236 -2.602868 0.028358156 0.6756685 0.23407114
-1.1306872 1.1581126 -0.7868558 -1.1449703 -0.07159215 -0.03153412 -0.580637 -0.93432325
-0.76959276 0.52130675 1.361598 -1.7394612 -0.21434285 -1.5976796 -0.08080437 0.4678013
1.0051569 -0.5704837 -0.5286202 0.041171443 -0.0049749142 -0.7242126 -0.08415232 -1.0599351
1.0229889 -0.011616658 0.6029445 -0.74799174 -0.9491989 -0.15920945 0.3206944 0.545171
00000000: 1e70 2a3e 0a85 0dbf 1bb5 fdbd b411 c2bf
00000010: 1d77 553f c269 c0be eaec 2cbf 924b 783e
00000020: b119 14bf 91df b7bf aa94 df3e b6f2 a7be
00000030: 6495 26c0 5d4f e83c 9cf8 2c3f 58b0 6f3e
00000040: 5cba 90bf 093d 943f 626f 49bf 638e 92bf
00000050: e89e 92bd ec29 01bd a0a4 14bf cf2f 6fbf
00000060: 0804 45bf 5c74 053f d848 ae3f aaa6 debf
00000070: b17c 5bbe c480 ccbf c37c a5bd a783 ef3e
00000080: fba8 803f 380b 12bf a753 07bf 63a3 283d
00000090: 9b04 a3bb ff65 39bf 0d58 acbd f4ab 87bf
000000a0: 4df1 823f cc53 3ebc 925a 1a3f 637c 3fbf
000000b0: b3fe 72bf cd07 23be 0e32 a43e 5490 0b3f

layers.1.weight f4 [24, 48]
0.25602132 -0.38030478 -0.64249665 -0.17919667 0.4812072 -0.11482001 -1.9174273 0.26626146
-3.0870726 -1.3603394 -0.014712489 0.21645518 -1.0315017 -0.31266618 1.2401795 0.1173089
-0.9814001 0.49573502 -0.05379303 -0.35063556 -0.0043103904 0.36532915 -0.68713635 -1.0240332
-0.42448437 0.4583563 -0.12388969 -0.79784757 -0.38744095 -0.16093926 0.78377545 -0.067974515
1.1554152 -0.40077302 0.424734 -0.34054673 -1.4696604 -0.3418441 -0.6750506 -0.928992
0.5068381 0.5559711 0.9225353 -0.035503726 -2.2070322 0.3647402 0.8894609 0.34774557
-0.19129051 -0.22936963 -1.0244313 0.1238975 0.08599687 1.3338698 -2.2635639 -0.08895378
0.7571473 -1.2885091 0.57976294 1.048104 -0.07280395 -0.38405284 0.6435841 0.31776413
0.893574 -0.823832 0.7650241 0.24761687 0.005776165 0.46537152 -2.3146203 1.0993339
-0.17741515 -0.3917118 0.022092104 -0.89249146 0.5291745 -0.03845626 0.6758223 0.40412006
-0.13337603 0.46418798 0.10940483 0.9947625 -0.43357676 0.9353367 0.7464105 0.11242248
-0.39521772 -0.02960857 0.15068649 0.61350644 0.48613137 0.019368932 0.33335295 0.057365935
-0.5822647 0.6363372 0.70303124 0.08239557 -0.9764875 -1.681362 1.8470148 -1.3258967
-0.14677978 0.6426496 -1.5851394 0.68305224 0.8485478 0.42942914 -0.2942055 -0.22929256
-0.24071372 -0.8646563 -1.0585806 0.6532311 0.2844732 -0.7286835 0.66035044 -0.33884966
0.6672554 -0.9629691 -0.5909251 0.46542913 -0.09992574 0.35146695 -0.38719076 0.7717456
-0.25580874 -0.7767486 -0.25903773 1.38582 1.6310492 0.13417697 -0.4882024 0.037325386
-0.58089423 0.39271727 -0.58771163 -1.315964 0.71798193 -0.24618031 -0.5671929 0.23323691
-0.011491062 0.04667684 0.070680566 -0.032753408 0.21877344 0.46891707 -1.4646434 0.37006322
0.9391632 -0.40632993 0.3113101 0.8821815 0.60498637 0.40186048 0.52855766 0.0045481576
-0.04075536 -0.60842603 0.622341 -0.06854061 0.02900193 0.6479207 -1.4792504 0.58276486
0.25485048 -0.2951604 -0.81570965 -0.7338971 0.07128618 0.28875118 1.0513525 -0.43795517
-0.61842686 0.48588082 0.57438856 2.6401775 0.5690778 0.3530347 0.3005846 0.9425682
-0.16852924 -0.97994095 -0.3466235 0.9289903 1.3361307 0.65025544 -0.60630083 -0.58181864
-0.68548715 -0.21779034 -1.0154179 0.4328133 -0.8319772 0.4227275 0.71216124 -0.21999906
0.17808284 0.116716534 -0.65355986 0.30962875 -0.28821602 -5.025229 0.1509124 0.29026356
-0.46321714 -0.58224183 -0.29891303 1.0120978 -0.09157958 -0.025264628 0.7630088 0.6749809
0.8510706 0.21422337 -0.16743772 -0.5331704 -0.25843403 0.20414579 -0.3561013 -0.1448807
-0.065737665 0.38884643 -1.1551771 -0.8026092 0.5683854 0.1511713 0.3952256 -0.8592798
0.20939842 -0.5981124 -0.57745045 -1.3253702 -0.35057855 0.039764702 -0.5394732 0.07961665
0.24785995 0.5432147 -0.14493804 -0.36397192 0.729775 -0.29113176 -0.55486983 -0.53820425
-1.2631617 -1.5428054 -0.55714625 -1.3278776 -0.38003296 -0.65545005 0.22776501 0.58774585
00000000: 3a15 833e 4fb7 c2be a97a 24bf 557f 37be
00000010: ca60 f63e c126 ebbd 426e f5bf 6c53 883e
00000020: 9992 45c0 9a1f aebf a70c 71bc 6da6 5d3e
00000030: 3f08 84bf c815 a0be 34be 9e3f a63f f03d
00000040: 093d 7bbf fbd0 fd3e 1556 5cbd 8186 b3be
00000050: 2d3e 8dbb 6c0c bb3e 2be8 2fbf 8513 83bf
00000060: 0456 d9be adad ea3e e1b9 fdbd bd3f 4cbf
00000070: a95e c6be 43cd 24be 82a5 483f 3936 8bbd
00000080: a5e4 933f 1f32 cdbe bc76 d93e 245c aebe
00000090: d51d bcbf 3106 afbe 1ed0 2cbf 6bd2 6dbf
000000a0: 24c0 013f 1f54 0e3f 462b 6c3f 5b6c 11bd
000000b0: 0440 0dc0 3abf ba3e b6b3 633f b50b b23e
000000c0: a9e1 43be dfdf 6abe 9120 83bf f9bd fd3d
000000d0: 211f b03d 3fbc aa3f 3bde 10c0 662d b6bd
000000e0: 68d4 413f deed a4bf 586b 143f 4628 863f
000000f0: 3d1a 95bd 93a2 c4be edc1 243f fbb1 a23e
00000100: 44c1 643f a7e6 52bf 9fd8 433f 478f 7d3e
00000110: fc45 bd3b 2d45 ee3e bd22 14c0 f9b6 8c3f
00000120: 51ac 35be 738e c8be 80fa b43c 527a 64bf
00000130: fb77 073f 5084 1dbd b102 2d3f d3e8 ce3e
00000140: ba93 08be 0caa ed3e a40f e03d c1a8 7e3f
00000150: c6fd ddbe 3a72 6f3f c214 3f3f c23d e63d
00000160: fa59 cabe ac8d f2bc 8f4d 1a3e c20e 1d3f
00000170: 36e6 f83e 98ab 9e3c 3dad aa3e 8bf8 6a3d
00000180: 4d0f 15bf ffe6 223f dbf9 333f 02bf a83d
00000190: 16fb 79bf df36 d7bf fb6a ec3f fcb6 a9bf
000001a0: 704d 16be af84 243f d9e5 cabf 83dc 2e3f
000001b0: 6e3a 593f 23de db3e 1aa2 96be abcb 6abe
000001c0: a87d 76be 1e5a 5dbf 927f 87bf 273a 273f
000001d0: 79a6 913e 008b 3abf ba0c 293f b47d adbe
000001e0: 40d1 2a3f 2585 76bf de46 17bf ba4c ee3e
000001f0: dea5 ccbd 7af3 b33e de3d c6be 1f91 453f
00000200: 5df9 82be ffd8 46bf 98a0 84be 8d62 b13f
00000210: 38c6 d03f b065 093e aaf5 f9be 81e2 183d
00000220: 7cb5 14bf 3d12 c93e 4574 16bf 8271 a8bf
00000230: aacd 373f b116 7cbe 8e33 11bf a8d5 6e3e
00000240: 0245 3cbc 3730 3f3d f9c0 903d 7028 06bd
00000250: 2506 603e e615 f03e 6f79 bbbf ed78 bd3e
00000260: 006d 703f 7a0a d0be 0a64 9f3e a6d6 613f
00000270: 63e0 1a3f a8c0 cd3e 8e4f 073f b608 953b
00000280: 18ef 26bd cfc1 1bbf bd51 1f3f 055f 8cbd
00000290: 7595 ed3c 22de 253f 1458 bdbf 1430 153f
000002a0: c37b 823e 441f 97be 59d2 50bf aee0 3bbf
000002b0: 7dfe 913d 32d7 933e b892 863f a93b e0be
000002c0: 3951 1ebf 5fc5 f83e 210b 133f abf8 2840
000002d0: 15af 113f f7c0 b43e 3ae6 993e 264c 713f
000002e0: ee92 2cbe 69dd 7abf a378 b1be 4fd2 6d3f
000002f0: 5506 ab3f 2477 263f 8836 1bbf 11f2 14bf
00000300: 167c 2fbf 6e04 5fbe 37f9 81bf b499 dd3e
00000310: 75fc 54bf bd6f d83e 3350 363f 6f47 61be
00000320: 595b 363e 1409 ef3d b34f 27bf a987 9e3e
00000330: 0d91 93be adce a0c0 c888 1a3e 6d9d 943e
00000340: cc2a edbe cd0d 15bf 210b 99be 6c8c 813f
00000350: 138e bbbd c4f7 cebc 8b54 433f 8ccb 2c3f
00000360: c3df 593f 5f5d 5b3e cb74 2bbe db7d 08bf
00000370: 7751 84be 980b 513e e952 b6be 9b5b 14be
00000380: 78a1 86bd e116 c73e d8dc 93bf cc77 4dbf
00000390: b581 113f a6cc 1a3e 035b ca3e c3f9 5bbf
000003a0: 8a6c 563e e51d 19bf cbd3 13bf bba5 a9bf
000003b0: 087f b3be 50e0 223d ea1a 0abf 0e0e a33d
000003c0: 00cf 7d3e 1e10 0b3f a36a 14be 875a babe
000003d0: 89d2 3a3f 390f 95be f30b 0ebf c1c7 09bf
000003e0: 48af a1bf a67a c5bf 23a1 0ebf e5f7 a9bf
000003f0: ae93 c2be 93cb 27bf 3b3b 693e 8376 163f

layers.1.bias f4 [24]
0.6991179 -0.85498494 -1.9849874 -0.7832284 0.45989546 -0.08972258 -1.5712081 -0.32907835
0.2608845 -0.3854196 -0.28654158 -2.2490656 -0.27440053 -1.6060125 -0.25449017 1.0753974
-0.82759583 2.4279807 1.3893714 -0.3049104 -0.56297505 0.38916728 0.27123484 0.32051536
00000000: 64f9 323f 4be0 5abf 1114 febf a881 48bf
00000010: 6b77 eb3e 79c0 b7bd 591d c9bf f57c a8be
00000020: a792 853e b855 c5be 94b5 92be b1f0 0fc0
00000030: 3a7e 8cbe d191 cdbf 894c 82be 9fa6 893f
00000040: 52dd 53bf 0964 1b40 ecd6 b13f 371d 9cbe
00000050: 221f 10bf ef40 c73e 4bdf 8a3e 971a a43e

layers.2.weight f4 [12, 24]
-0.85481805 -0.59482986 0.5019659 0.55135375 -0.25592074 -0.21335019 0.12566623 2.2134552
1.1555912 0.44850576 0.8624175 0.5636014 -0.17302604 0.08210036 0.045238435 -1.3177203
-0.1876589 -0.0318566 -0.8733747 -0.067534834 1.051619 0.6489545 0.4503617 0.67421865
0.66346884 -0.75259864 -0.3146483 -0.5819357 0.62578017 -0.7199385 0.04660841 -0.9547232
0.33172935 0.27652392 1.2180555 0.5229924 1.3762774 -0.29385427 0.014010572 0.5083515
0.46903569 -0.048688427 -0.11297548 -1.298447 0.992824 0.5585595 0.5228124 -0.6547165
0.41586933 0.7287267 0.49545267 -2.8433824 -1.1189222 0.13400543 0.35726547 -0.79487896
0.23578121 -1.346528 -0.37140986 -0.022985965 1.2024307 0.0035262238 0.300437 0.085726045
0.029857066 0.13304074 -0.80923563 -0.22348043 -1.0340792 -0.5739829 0.25880972 0.21151313
2.3859563 -0.8208347 -0.6686752 -1.7105272 0.51652384 1.369485 -0.6837218 -0.54384196
-0.01662776 -1.5368197 -0.0434066 -0.15391819 -0.42538655 0.41996032 -1.1058347 -0.5034316
0.0034006597 0.07484499 0.6637207 0.2095335 -0.3679634 -0.26712862 -0.5526003 0.90041363
-0.9468325 0.65977436 0.20106928 0.4176712 -2.833789 -0.44755134 0.4502669 1.0754534
0.0016362043 0.38604984 -0.30157554 -0.44346756 0.31125906 0.183098 -0.43313697 0.43448684
0.90217316 0.13804905 -1.2671071 0.45805386 0.80664265 0.4878094 -1.5425215 -0.54972005
0.11854245 -0.88131875 -0.834535 -0.001600122 0.5886531 -0.13283782 1.8756441 -2.0701485
0.9007431 -0.7420609 -0.036634758 -0.80591553 0.4293702 -0.12687443 -0.45245957 0.3362585
0.24920985 -0.43551812 -0.81613547 1.9084381 -0.21647951 0.14234905 0.6047986 0.9503305
-0.35618916 1.1844777 -1.128909 0.5506114 -0.23240893 0.43133914 -0.15362608 -0.925834
0.51179093 0.7647875 -0.95444685 0.54881763 -2.308053 0.14487506 0.04624154 -1.0723454
-1.7685281 -1.194666 -0.9102728 -1.7442714 0.11429535 -0.009388282 0.4353634 -0.5523071
-0.09455128 -0.7290936 1.62399 -0.20786415 0.2900053 0.53940564 0.90911955 0.39498246
-0.3821747 0.95564955 1.0565873 0.58230764 0.5381998 0.67751545 -0.9107223 -0.2966809
0.36856726 -1.825536 -0.10671826 1.3363624 0.9687876 0.33266342 1.3194615 1.0898885
1.3309526 -0.27354103 -0.26693356 -0.859097 -0.554832 0.5037 0.32825413 -1.9505851
1.006245 -1.5572304 -1.8113068 -0.31173512 0.52098536 -1.1391021 0.051572222 -0.061331708
0.21799533 0.86836284 0.22078149 -1.2221303 -0.3223666 -1.3102427 0.13224107 -0.2661393
0.57819337 -0.3520808 -0.89649564 -0.5183797 1.1805223 1.6812599 0.9491409 0.5930667
-0.26241753 -0.36059377 -0.44186854 -0.3582609 0.07077908 0.46534842 -0.894205 -0.13653657
-0.9759246 -0.10421676 -0.37712595 0.2252976 0.5651919 0.5325326 1.8201265 1.9649817
-1.5211899 0.19097126 0.21471383 -0.086713694 -2.2639992 -0.5371075 1.1336597 1.1387781
-1.236997 1.0970021 -0.32073498 -1.7048477 0.5522411 0.6823108 -0.45042977 -1.6229744
00000000: 5bd5 5abf c546 18bf d680 003f 8525 0d3f
00000010: 0b08 83be 7978 5abe a6ae 003e 40a9 0d40
00000020: 6aea 933f 8ca2 e53e 65c7 5c3f 2e48 103f
00000030: bd2d 31be 3c24 a83d f04b 393d 0fab a8bf
00000040: a829 40be 117c 02bd 7c95 5fbf b44f 8abd
00000050: 749b 863f e221 263f cf95 e63e 9899 2c3f
00000060: 18d9 293f 4eaa 40bf 9519 a1be bdf9 14bf
00000070: 2133 203f e44d 38bf 76e8 3e3d bd68 74bf
00000080: 6ed8 a93e 8b94 8d3e 3ee9 9b3f d4e2 053f
00000090: dc29 b03f 1174 96be 998c 653c 5323 023f
000000a0: 7225 f03e 846d 47bd b05f e7bd 8333 a6bf
000000b0: b729 7e3f c1fd 0e3f 09d7 053f 809b 27bf
000000c0: d3ec d43e d58d 3a3f f9ab fd3e faf9 35c0
000000d0: d838 8fbf b838 093e 80eb b63e 307d 4bbf
000000e0: a170 713e 085b acbf 6f29 bebe 104d bcbc
000000f0: 40e9 993f 3818 673b e1d2 993e 2391 af3d
00000100: ce96 f43c d53b 083e 112a 4fbf 0ed8 64be
00000110: b55c 84bf 8bf0 12bf b582 843e e696 583e
00000120: 82b3 1840 3922 52bf 4c2e 2bbf 8ef2 dabf
00000130: e83a 043f 494b af3f 6408 2fbf 3a39 0bbf
00000140: f136 88bc 82b6 c4bf 1ecb 31bd bb9c 1dbe
00000150: 44cc d9be 0a05 d73e fe8b 8dbf e5e0 00bf
00000160: 9add 5e3b 5548 993d 9ae9 293f f38f 563e
00000170: b365 bcbe 15c5 88be 3777 0dbf 8281 663f
00000180: 9d63 72bf f9e6 283f 1be5 4d3e 00d9 d53e
00000190: cd5c 35c0 7325 e5be 6289 e63e 75a8 893f
000001a0: e875 d63a 53a8 c53e 1c68 9abe 2e0e e3be
000001b0: 595d 9f3e 0b7e 3b3e 21c4 ddbe 0f75 de3e
000001c0: d2f4 663f bb5c 0d3e 9130 a2bf 0986 ea3e
000001d0: 2280 4e3f 27c2 f93e 5871 c5bf 74ba 0cbf
000001e0: 62c6 f23d 1b9e 61bf 16a4 55bf 2fbb d1ba
000001f0: f8b1 163f a306 08be 1b15 f03f 507d 04c0
00000200: 1a97 663f b4f7 3dbf 540e 16bd 7b50 4ebf
00000210: 69d6 db3e 5feb 01be c8a8 e7be 132a ac3e
00000220: de30 7f3e 3bfc debe 41ee 50bf b347 f43f
00000230: ceac 5dbe f3c3 113e 15d4 1a3f dc48 733f
00000240: 6d5e b6be f79c 973f 1780 90bf def4 0c3f
00000250: 9bfc 6dbe 7cd8 dc3e 2850 1dbe 7503 6dbf
00000260: bb04 033f 1dc9 433f a156 74bf 507f 0c3f
00000270: 24b7 13c0 215a 143e c567 3d3d 9d42 89bf
00000280: 215f e2bf d1ea 98bf a307 69bf 4944 dfbf
00000290: ae13 ea3d 4fd1 19bc f4e7 de3e 0064 0dbf
000002a0: 1aa4 c1bd e1a5 3abf e8de cf3f 57da 54be
000002b0: 937b 943e 7d16 0a3f 0fbc 683f 243b ca3e
000002c0: 67ac c3be 73a5 743f 413e 873f 1d12 153f
000002d0: 76c7 093f a771 2d3f 1925 69bf 8fe6 97be
000002e0: d9b4 bc3e 2aab e9bf 1a8f dabd ec0d ab3f
000002f0: 7702 783f dc52 aa3e 1de4 a83f 7781 8b3f
00000300: a85c aa3f 920d 8cbe 84ab 88be c8ed 5bbf
00000310: 7809 0ebf 7cf2 003f ed10 a83e c6ac f9bf
00000320: a3cc 803f 5353 c7bf e7d8 e7bf bf9b 9fbe
00000330: 4c5f 053f 19ce 91bf 653d 533d f536 7bbd
00000340: 2b3a 5f3e 074d 5e3f 8b14 623e c46e 9cbf
00000350: 3c0d a5be 08b6 a7bf 346a 073e 6943 88be
00000360: 7b04 143f ef43 b4be bd80 65bf 88b4 04bf
00000370: 5b1b 973f 8633 d73f e6fa 723f 38d3 173f
00000380: 975b 86be bf9f b8be 983c e2be f96d b7be
00000390: 9ff4 903d 2642 ee3e 9eea 64bf 3ed0 0bbe
000003a0: 32d6 79bf 996f d5bd a716 c1be 6ab4 663e
000003b0: 6bb0 103f 0e54 083f e8f9 e83f 8584 fb3f
000003c0: 5ab6 c2bf f88d 433e f1dd 5b3e f396 b1bd
000003d0: 5de5 10c0 e17f 09bf c31b 913f 7bc3 913f
000003e0: eb55 9ebf 916a 8c3f 6037 a4be 7338 dabf
000003f0: ac5f 0d3f ecab 2e3f bb9e e6be a0bd cfbf

layers.2.bias f4 [12]
-0.8129128 -0.0026371528 -1.3133757 0.3733641 -0.2059078 -0.25249106 -0.33089066 -1.7525566
0.43002918 0.0043813125 -1.6041522 -0.046597525
00000000: 0e1b 50bf 15d4 2cbb b21c a8bf 9429 bf3e
00000010: 7fd9 52be 8246 81be 806a a9be c653 e0bf
00000020: c92c dc3e 1d91 8f3b dc54 cdbf 0cdd 3ebd

layers.3.weight f4 [2, 12]
0.09985856 0.08651871 0.43046573 1.5380738 -1.0490453 0.58527863 -1.0594923 -0.14452682
0.9419912 0.66938454 -1.4418359 -0.36164352 -0.92084 -1.6723943 0.62090445 -0.6802295
0.24420913 -0.10851731 1.0579258 -1.8279208 0.5361476 0.28482547 0.8277031 0.22247067
00000000: a582 cc3d b930 b13d 0166 dc3e 9adf c43f
00000010: 1e47 86bf d2d4 153f 729d 87bf d7fe 13be
00000020: 5626 713f c95c 2b3f 148e b8bf 5729 b9be
00000030: 2cbc 6bbf 0411 d6bf 98f3 1e3f 8523 2ebf
00000040: f511 7a3e 533e debd 1d6a 873f 4ff9 e9bf
00000050: f840 093f a5d4 913e 5ae4 533f 5acf 633e

layers.3.bias f4 [2]
1.0787548 -0.46959022
00000000: a314 8a3f 216e f0be

layers.0.weight f4 [48, 24]
-0.14155427 -0.48569223 -0.0054060994 -0.021654295 -0.3399103 1.8809539 0.01766235 -0.1533241
0.026189974 -0.091273315 -0.069396384 0.79325116 0.23799963 -5.118324 0.03309684 0.87056386
0.22368172 0.38080123 -0.05578189 -0.74560827 0.1931973 2.9096785 0.0059203478 -0.90988153
0.9199779 -0.06448127 -0.00044589554 -0.10107466 -0.74018556 -1.507796 0.06156262 -0.12824191
0.8482174 -0.115944356 -0.090080544 0.23289569 -0.7179771 -1.9466723 -0.17778614 -0.0026155915
0.94926995 -0.26951873 -0.21578276 0.46870634 -0.2742366 -0.7197876 0.06802232 0.4806072
-0.069979355 2.005388 0.24894007 0.018300796 0.14206424 -0.7753569 0.11286479 -0.023642989
-0.045179874 2.424317 -0.0028329778 0.31031144 0.29080722 -1.0978353 0.0023328466 0.31225592
-0.36080652 2.7713208 -0.13629098 0.4991313 0.022463819 -4.880771 -0.017406547 0.679329
0.5347744 0.123822115 -0.03425191 -0.1490074 -0.38766304 0.5088255 -0.036621016 -0.26517624
0.8506338 0.039752472 0.14602774 0.046677276 -0.6224425 0.99277836 -0.064623736 -0.04482353
0.9819101 -0.16138448 -0.014085357 0.30093747 -1.789936 -1.029703 0.027879363 0.37173277
0.03937791 1.9954123 0.119071394 -0.06893987 0.57605296 0.12174611 0.051155355 -0.25198337
0.20011283 1.9411823 -0.19014598 0.022315092 0.94545853 -0.37648627 -0.0060717613 0.053472992
0.5227834 2.0148585 0.105300695 0.19791089 0.39110395 0.62928355 0.30920336 0.19670881
0.14014807 0.35759097 0.049111724 0.0567752 1.0761647 2.143241 -0.031005211 -0.09257279
0.12104895 0.10732758 -0.08757737 -0.07922306 0.8655097 1.1890008 0.0027177804 0.025533613
0.18834724 -0.03407187 0.041379657 -0.28877258 -0.38209045 -2.3917692 -0.08904856 -0.13064879
0.29361928 0.9262556 -0.2811272 0.39503843 -1.229482 -1.0858587 -0.4299388 0.30571413
0.3266011 0.9780847 0.023814185 0.24640542 -0.64751947 -1.7601857 -0.103318505 0.2527255
0.40921363 0.5660011 0.058306273 -0.02367426 1.0165223 0.76442 -0.15596956 0.04436271
0.15071854 0.78020376 -0.13510495 -0.1402783 0.050212085 -0.6200925 0.11654324 0.07233761
0.36069068 0.69200605 -0.016084041 -0.0853591 -0.6868558 -0.22317828 0.01264286 -0.15673819
0.51669174 0.3916448 -0.033789154 -0.15065785 -1.4625113 1.6438597 -0.27620214 -0.31489506
0.03376719 -0.1718434 0.15640812 -0.13307036 1.3402841 -0.7325452 -0.09246942 -0.10984281
0.05692581 -0.26664877 -0.012758584 0.014855482 0.2713198 0.9623709 -0.008842238 -0.075951695
0.02585591 -0.4185878 0.05814439 -0.20509374 -1.8076946 2.3054113 -0.050029397 -0.20983934
-0.06918688 2.3088968 0.04295226 0.9632975 -0.12246916 -0.35538065 -0.009498336 1.0098848
0.111585625 2.8524876 -0.15273137 -0.20990318 -0.28169885 -1.2704462 -0.053748563 -0.1687187
0.25363174 2.5020688 -0.069116764 -0.8817781 -0.21985742 -3.3087728 -0.037975103 -0.62648904
0.50564426 0.45192108 -0.09245319 0.017165426 -0.61832404 -0.014869509 -0.062012445 -0.074500196
0.4966842 0.46301186 0.02389441 0.17664121 -0.75392354 0.30957565 0.06208705 0.15386163
00000000: 9af3 10be a7ac f8be a625 b1bb 5964 b1bc
00000010: b908 aebe 19c3 f03f a2b0 903c fe00 1dbe
00000020: 5b8c d63c 81ed babd b11f 8ebd 8212 4b3f
00000030: 2db6 733e 4fc9 a3c0 8d90 073d 46dd 5e3f
00000040: d20c 653e 61f8 c23e 8d7b 64bd 2fe0 3ebf
00000050: 83d5 453e 2c38 3a40 7aff c13b ffed 68bf
00000060: ac83 6b3f c20e 84bd 16c7 e9b9 3b00 cfbd
00000070: cd7c 3dbf 76ff c0bf 1629 7c3d d951 03be
00000080: c724 593f 3c74 edbd 267c b8bd 357c 6e3e
00000090: 59cd 37bf 8f2c f9bf 920d 36be 586a 2bbb
000000a0: 5b03 733f 5cfe 89be 28f6 5cbe 47fa ef3e
000000b0: bd68 8cbe 0044 38bf 494f 8b3d 2612 f63e
000000c0: 5651 8fbd 4758 0040 25ea 7e3e 8deb 953c
000000d0: 4a79 113e ca7d 46bf a825 e73d f1ae c1bc
000000e0: 880e 39bd 0228 1b40 7ba9 39bb 24e1 9e3e
000000f0: afe4 943e de85 8cbf ace2 183b 02e0 9f3e
00000100: a2bb b8be 525d 3140 dd8f 0bbe 238e ff3e
00000110: 0b06 b83c 472f 9cc0 2d98 8ebc 81e8 2d3f
00000120: fae6 083f 7396 fd3d bb4b 0cbd 6595 18be
00000130: c57b c6be 6342 023f ebff 15bd 2ec5 87be
00000140: 23c3 593f 7dd3 223d 4c88 153e ac30 3f3d
00000150: 6458 1fbf b926 7e3f 7359 84bd e198 37bd
00000160: 765e 7b3f f941 25be 45c6 66bc 7a14 9a3e
00000170: 9f1c e5bf 4fcd 83bf 4363 e43c c253 be3e
00000180: bb4a 213d ac69 ff3f b4db f33d 5930 8dbd
00000190: 3578 133f 0656 f93d 4788 513d f703 81be
000001a0: 61ea 4c3e a978 f83f a1b5 42be 24ce b63c
000001b0: 9209 723f cfc2 c0be a0f5 c6bb 7f06 5b3d
000001c0: 22d5 053f 71f3 0040 e4a7 d73d 27a9 4a3e
000001d0: c73e c83e ba18 213f e74f 9e3e 096e 493e
000001e0: fa82 0f3e 2a16 b73e 6029 493d 1d8d 683d
000001f0: c4bf 893f dc2a 0940 a4fe fdbc ce96 bdbd
00000200: 83e8 f73d 90ce db3d c45b b3bd b33f a2bd
00000210: 0b92 5d3f 2e31 983f ca1c 323b de2b d13c
00000220: 19de 403e f28e 0bbd b77d 293d 00da 93be
00000230: 5ca1 c3be bf12 19c0 175f b6bd ccc8 05be
00000240: 4455 963e 161f 6d3f e8ef 8fbe 7a42 ca3e
00000250: ab5f 9dbf 6bfd 8abf f020 dcbe 9086 9c3e
00000260: 4238 a73e c263 7a3f f715 c33c b451 7c3e
00000270: d6c3 25bf c44d e1bf a798 d3bd 3d65 813e
00000280: 7384 d13e 73e5 103f 8fd2 6e3d 86f0 c1bc
00000290: 671d 823f 07b1 433f 7cb6 1fbe acb5 353d
000002a0: f655 1a3e 6fbb 473f f458 0abe 1da5 0fbe
000002b0: 30ab 4d3d 62be 1ebf 39ae ee3d be25 943d
000002c0: 73ac b83e 4f27 313f aec2 83bc c0d0 aebd
000002d0: c8d5 2fbf d988 64be 0024 4f3c fa7f 20be
000002e0: e945 043f ab85 c83e 7f66 0abd 0d46 1abe
000002f0: 9233 bbbf ff69 d23f 5e6a 8dbe ed39 a1be
00000300: 774f 0a3d b7f7 2fbe 7329 203e 9943 08be
00000310: 6e8e ab3f 1588 3bbf 9b60 bdbd 44f5 e0bd
00000320: 0a2b 693d 3086 88be 6109 51bc 6864 733c
00000330: 6eea 8a3e f05d 763f 09df 10bc 908c 9bbd
00000340: c6cf d33c 2451 d6be d028 6e3d 1804 52be
00000350: 8962 e7bf dc8b 1340 a0eb 4cbd 20e0 56be
00000360: dab1 8dbd f7c4 1340 b5ee 2f3d aa9a 763f
00000370: 1cd1 fabd 74f4 b5be e99e 1bbc e843 813f
00000380: 0187 e43d 288f 3640 9d65 1cbe dcf0 56be
00000390: d53a 90be fb9d a2bf 7427 5cbd 98c4 2cbe
000003a0: 05dc 813e e521 2040 178d 8dbd 36bc 61bf
000003b0: 4e22 61be efc2 53c0 c88b 1bbd 9661 20bf
000003c0: e771 013f 3362 e73e 1958 bdbd 829e 8c3c
000003d0: 7c4a 1ebf 3e9f 73bc c300 7ebd 8f93 98bd
000003e0: 644d fe3e e40f ed3e 36be c33c 6fe1 343e
000003f0: 2201 41bf b380 9e3e fe4e 7e3d e78d 1d3e

layers.0.bias f4 [48]
0.13163951 -0.40639123 -0.046243303 -0.59614265 2.0096128 2.0900388 0.94509166 -2.3300595
-0.4582681 -0.2942012 -0.79862547 0.4991092 3.4577131 -1.244738 -1.1516244 0.41841194
0.22936998 0.8269197 0.2690661 -0.36503202 0.3028014 -1.9544413 -1.0073678 -1.4566945
-3.2946053 -1.0216776 -0.9153161 -1.0800459 -2.3584528 -1.2718751 -0.06759178 -1.6547581
-0.75896895 -0.9815107 -1.4708183 -0.40938607 -0.54487926 -1.4125896 -0.123348825 0.09413027
-0.3669555 -0.14715135 0.11807059 -0.012300168 -1.2072111 2.1473951 3.607099 0.74279445
00000000: 82cc 063e 8312 d0be 9e69 3dbd ce9c 18bf
00000010: 7f9d 0040 32c3 0540 87f1 713f b21f 15c0
00000020: 1ea2 eabe 8aa1 96be b872 4cbf 3e8b ff3e
00000030: 2c4b 5d40 9353 9fbf 6e68 93bf 173a d63e
00000040: f7df 6a3e 02b1 533f 08c3 893e 7ae5 babe
00000050: c908 9b3e 222b fabf 6ef1 80bf f774 babf
00000060: d0da 52c0 55c6 82bf 2852 6abf f23e 8abf
00000070: e4f0 16c0 cecc a2bf 8f6d 8abd 1dcf d3bf
00000080: ca4b 42bf 4944 7bbf c643 bcbf 0d9b d1be
00000090: 357d 0bbf bccf b4bf 4f9e fcbd 5fc7 c03d
000000a0: 97e1 bbbe d8ae 16be fece f13d a586 49bc
000000b0: e585 9abf ec6e 0940 b6da 6640 c727 3e3f
