saved_models/ddpg_model_first_succesful_weights.pth (torch_old, 159603 bytes, 30 tensors)

layers.0.weight f4 [48, 24]
0	0x3d064fec	0.032791063
1	0xbe266c80	-0.16252327
2	0x3c1b5664	0.009481046
3	0xbdc23752	-0.09483208
4	0xbe839f49	-0.25707462
5	0x400ae495	2.1702015
6	0x3c3281c9	0.010895201
7	0xbe36597e	-0.17807576
8	0xbd88aeb5	-0.06673948
9	0xbe09bdfb	-0.13451378
10	0xbc415b39	-0.011801534
11	0xbe9413df	-0.2892141
12	0xbe761ed0	-0.24035192
13	0x3df2d517	0.1185705
14	0x3cf264cc	0.02958908
15	0xbd17450b	-0.03693108
16	0xbdcf3625	-0.10117749
17	0xbe455460	-0.19270468
18	0xbc40a6de	-0.011758534
19	0xbe056f93	-0.13030843
20	0xbd8db47d	-0.06919191
21	0xc03c5c48	-2.9431324
22	0xbaf16a18	-0.0018418459
23	0xbea5c043	-0.32373247
24	0xbdb849d7	-0.08998459
25	0xbcddfe90	-0.027098924
26	0xbd38fd96	-0.045163713
27	0xbcf38c92	-0.029730115
28	0xbf7dadbc	-0.9909322
29	0xbfaad9bc	-1.3347697
30	0x3d5c86ec	0.05383961
31	0x3c218cc9	0.009860226
32	0xbdf10e78	-0.11770338
33	0xbc9d3adf	-0.019193111
34	0x3ce6c600	0.028170586
35	0x3da1ef3e	0.0790696
36	0xbe44bddc	-0.1921305
37	0x3d967be1	0.07347847
38	0xbba0312f	-0.0048886756
39	0x3e223cbe	0.15843484
40	0xbb8d11f3	-0.004305118
41	0xbe9e2951	-0.30890897
42	0x3d1638ca	0.036675252
43	0x3dd4b97e	0.10386942
44	0x3f92a7fa	1.1457512
45	0x400b5449	2.1770194
46	0xbd241c30	-0.040065944
47	0x3d77713c	0.060410723
48	0x3ef4c5f4	0.47807276
49	0xbea96939	-0.3308809
50	0xbd7a5f50	-0.061126053
51	0x3b9a133e	0.004702001
52	0xbe517503	-0.20454793
53	0xbf04dffc	-0.51904273
54	0xbdc49bd4	-0.09600034
55	0xbe44a307	-0.19202815
56	0x3edc882a	0.43072635
57	0xbf04a5aa	-0.51815283
58	0xbb631890	-0.0034652092
59	0xbd6148e7	-0.055001166
60	0xbe95ec44	-0.2928182
61	0xbf6738da	-0.90321124
62	0x3b1739ac	0.0023075147
63	0xbd619fab	-0.055083912
64	0x3f0a63a9	0.5405832
65	0xbf1d7c3f	-0.6151771
66	0x3d539606	0.051656745
67	0xbec8efae	-0.3924536
68	0xbecda6a9	-0.40166214
69	0xbfeb5848	-1.8386316
70	0x3e841532	0.2579742
71	0xbe8b769e	-0.27238935
72	0x3e270d1c	0.16313595
73	0x3f45515a	0.7707726
74	0x3cdf5b94	0.027265348
75	0xbe52b35e	-0.20576236
76	0x3f07168b	0.5276877
77	0xbe7443a6	-0.23853931
78	0xbce958a0	-0.028484643
79	0xbe8ce1dc	-0.27516067
80	0x3ecfac62	0.40561205
81	0x3f104d19	0.5636764
82	0x3d0841d6	0.03326591
83	0xbdc76f7e	-0.09738062
84	0x3e75ccfa	0.24003974
85	0xbf996506	-1.1983955
86	0x3c828f3a	0.015937436
87	0x3e0d1136	0.13776097
88	0x3eb2e448	0.3493979
89	0x3f37ecb2	0.71845543
90	0x3bf67198	0.0075208656
91	0xbd9625a2	-0.07331397
92	0x3efab85f	0.4896879
93	0xc044681c	-3.0688543
94	0x3dd0b783	0.10191252
95	0xbd51c6dd	-0.05121504
96	0x3e871cf4	0.26389277
97	0xbfb635ce	-1.423517
98	0x3cb28961	0.021794023
99	0xbe539c13	-0.20665006
100	0x3eb00ad8	0.34383273
101	0x3d8807a5	0.06642083
102	0xbd54fc26	-0.05199828
103	0xbec49134	-0.3839203
104	0x3df1b08c	0.11801252
105	0xbf912b7e	-1.1341398
106	0xbd92e646	-0.071728274
107	0xbe77685d	-0.24160905
108	0xbec333d6	-0.38125485
109	0x3fcab5c6	1.5836723
110	0x3e08254b	0.13295476
111	0xbe5277dc	-0.20553535
112	0x3f0d289d	0.55140096
113	0xbf83f9fc	-1.0310664
114	0x3d206ee6	0.03916826
115	0xbee49a2f	-0.44648883
116	0xbf603288	-0.87577105
117	0x3fd62d15	1.6732508
118	0x3d5a04b0	0.053227127
119	0xbea3788b	-0.31927904
120	0x3eb93717	0.36174843
121	0x3e9567c0	0.29180717
122	0x3c06e80e	0.008234037
123	0xbd582167	-0.05276623
124	0xbf01f1d6	-0.5075964
125	0xbef77cb8	-0.4833734
126	0xbd5858ac	-0.05281894
127	0xbe530c14	-0.20610076
128	0x3efb63ab	0.49099478
129	0x3e57689c	0.21035999
130	0x3c3fc788	0.011705287
131	0xbe6fbb27	-0.23411237
132	0xbf0c06d4	-0.5469792
133	0xbf5c57e4	-0.8607161
134	0xb8105dd2	-3.4419652e-05
135	0xbe8e0725	-0.27739826
136	0x3e7c83a3	0.2465959
137	0x3e63cbbe	0.2224569
138	0xbe03767a	-0.12838164
139	0xbf0381b6	-0.513698
140	0xbf2a7e91	-0.66599375
141	0xc017d4b0	-2.3723564
142	0x3d9e287d	0.07722566
143	0xbe8b1535	-0.27164617
144	0x3eb09b4a	0.34493476
145	0x3e6685c1	0.2251196
146	0xbd9099e0	-0.07060599
147	0x3e9224d0	0.2854371
148	0x3e692560	0.22768164
149	0x40090129	2.1406958
150	0x3d378ca5	0.044811863
151	0x3ebb404a	0.36572486
152	0x3e884122	0.26612192
153	0x3e9c7b04	0.30562603
154	0x3dbe39df	0.09288382
155	0x3e09a5ef	0.13442205
156	0x3f123afb	0.5712125
157	0x3fc6001d	1.5468785
158	0xbd56f82a	-0.05248276
159	0x3e0a5b0b	0.13511293
160	0x3eb67ca1	0.3564196
161	0x3f13724c	0.5759628
162	0x3d8c0c63	0.068383
163	0xbeb6125e	-0.35560888
164	0x3f9390e1	1.1528589
165	0x3f5a7611	0.85336405
166	0x39fb4b39	0.00047930496
167	0xbe8f92cc	-0.28041685
168	0x3d94a443	0.07257893
169	0x3fca3c73	1.5799698
170	0x3d3e3c2d	0.046444107
171	0xbe0fbc46	-0.14036664
172	0x3f1336cd	0.57505494
173	0x3defc998	0.11708373
174	0xbd313527	-0.04326358
175	0xbe45f062	-0.1932998
176	0x3ca22528	0.019793108
177	0x3fc7a8af	1.5598353
178	0x3d0912b6	0.03346511
179	0xbe91b8d0	-0.28461313
180	0xbebf2b65	-0.37337795
181	0x3f01c020	0.50683784
182	0xbbc22664	-0.0059249867
183	0xbe6dd791	-0.23226763
184	0x3eb0bcf0	0.34519148
185	0x3f963082	1.1733553
186	0x3d8640a7	0.065553
187	0xbf411865	-0.7542785
188	0xbf82e1ae	-1.0225122
189	0x3f97a6f7	1.1847829
190	0xbe00093e	-0.12503526
191	0xbf31cb67	-0.6945099
192	0x3ec2a726	0.3801815
193	0x3fa13c3c	1.2596507
194	0x3bd58b33	0.006516838
195	0xbe2dca8d	-0.16971798
196	0x3f082960	0.53188133
197	0xbf0ed432	-0.55792534
198	0xbd98cf3d	-0.074614026
199	0xbd0e07bf	-0.034675356
200	0x3e9fe3d5	0.3122851
201	0x3f9725f1	1.1808454
202	0x3dd47a6f	0.10374915
203	0xbeff5c5d	-0.49875155
204	0x3e9e3783	0.30901727
205	0xbe4c0607	-0.19924174
206	0xbda8f747	-0.082502894
207	0xbf017ec5	-0.5058406
208	0x3e567a86	0.20945176
209	0x3f86a735	1.0519778
210	0xbd6de045	-0.05807521
211	0xbf544c08	-0.82928514
212	0x3ce7186b	0.028209886
213	0xbd65c60c	-0.056097075
214	0x3aaf2868	0.0013363482
215	0xbf793084	-0.97339654
216	0xbcbb5ac9	-0.022870438
217	0xbf4597cd	-0.77184755
218	0x3e040a43	0.1289454
219	0x3e67ba34	0.22629625
220	0x3ecd9b93	0.40157756
221	0xbfb3c0f2	-1.4043257
222	0xbdec59ca	-0.115405634
223	0x3eac267c	0.3362311
224	0xbd201c88	-0.03908971
225	0xbf62c65d	-0.8858393
226	0xbcc7bdfa	-0.02438258
227	0xbd32638e	-0.043551974
228	0x3f89f51e	1.0777929
229	0xbee9df83	-0.45678338
230	0x3a9f79cb	0.0012167034
231	0xbe108118	-0.14111745
232	0xbde56b07	-0.112020545
233	0xbf2e6419	-0.68121487
234	0x3d155cf7	0.03646561
235	0xbef99fac	-0.48754632
236	0x3f9d7b47	1.2303246
237	0x3f14bcb8	0.5810046
238	0xbd1ac842	-0.037788637
239	0xbeb1c5e2	-0.34721285
240	0x3ec35537	0.3815095
241	0x3f995037	1.1977605
242	0xbccb6336	-0.02482758
243	0x3d9f7022	0.077850595
244	0x3dc9e87d	0.09858797
245	0x3d0ff030	0.03514117
246	0xbc7dab92	-0.0154828
247	0x3d8f104a	0.06985529
248	0x3e35dcdc	0.17760032
249	0x3fc26b62	1.5189021
250	0x3cf3b04b	0.029747149
251	0xbd1647da	-0.036689617
252	0x3e9a5494	0.30142653
253	0x3f2bcd76	0.67110384
254	0xbd2ec4f7	-0.04266831
255	0xbd1945d7	-0.03742012

layers.0.bias f4 [48]
0	0x3f7a704b	0.97827595
1	0xbd06e687	-0.03293469
2	0x3d83d491	0.06437028
3	0xbeddc400	-0.433136
4	0x3dfb251a	0.12262936
5	0x3e8425bd	0.25810042
6	0xbdfbca7a	-0.12294479
7	0xbece8a45	-0.40339866
8	0xbf1474e8	-0.57990885
9	0x3ea338b3	0.31879196
10	0xbf5de6c2	-0.86680233
11	0xbf41f7bf	-0.75768656
12	0xbeb8a272	-0.36061436
13	0xbde64f3a	-0.1124558
14	0xbe85564a	-0.26042396
15	0xbce90a21	-0.028447213
16	0xbf470450	-0.77740955
17	0x3f791e2f	0.9731168
18	0xbf57b72e	-0.84263885
19	0xbf07716d	-0.5290745
20	0x3f0bcdf7	0.5461115
21	0x3f81add3	1.0131172
22	0xbe927ce4	-0.2861091
23	0xbf44bb93	-0.76848716
24	0xbe975c38	-0.29562545
25	0xbf0df80b	-0.5545661
26	0xbea5a422	-0.32351786
27	0xbef2e7d1	-0.47442487
28	0xbd806188	-0.062686026
29	0xbd780ede	-0.060561053
30	0xbecf4bf1	-0.40487626
31	0x3c51a493	0.012795585
32	0xbf7f4515	-0.99714786
33	0x3cbefe1b	0.023314526
34	0x3ec2515e	0.37952703
35	0xbf0d68b3	-0.55237883
36	0x3e768566	0.24074325
37	0xbed27ccc	-0.41110837
38	0x3e51c4e8	0.2048527
39	0x3f09823b	0.5371434
40	0xbf02b2de	-0.5105418
41	0xbf2690ee	-0.65064895
42	0x3f01b7ba	0.5067097
43	0xbed81c24	-0.4220897
44	0xbe4fc559	-0.20290126
45	0xbef650b7	-0.48108456
46	0xbdd2d170	-0.10293853
47	0xbcbf7f38	-0.023376092

layers.1.weight f4 [24, 48]
0	0x3d917ac6	0.07103495
1	0xbf1c14da	-0.60969317
2	0xbede67d2	-0.43438584
3	0xbbaf8517	-0.0053564417
4	0x3e6a60f5	0.22888549
5	0xbed32bf0	-0.4124446
6	0xbf0f37dd	-0.55944616
7	0x3e9fc635	0.31205907
8	0x3e258185	0.16162689
9	0xbf263aed	-0.64933664
10	0x3dfa3d8e	0.12218772
11	0xbf6c2c7b	-0.9225537
12	0xbf5733d6	-0.8406347
13	0x3cde0dde	0.027106222
14	0x3eb3c01d	0.35107508
15	0xbee2ae1f	-0.4427347
16	0xbe8d5d0f	-0.2761006
17	0xbefff9d6	-0.49995297
18	0xbd84c660	-0.064831495
19	0xbeba68b2	-0.36408
20	0xbf23ec6e	-0.6403264
21	0xbe6e0c0b	-0.23246782
22	0xbe442b87	-0.1915723
23	0x3e019f03	0.12658314
24	0xbf52babf	-0.823162
25	0x3e662359	0.22474422
26	0x3ec00715	0.37505403
27	0x3ef9e50d	0.48807564
28	0x3eae7261	0.3407164
29	0x3ed0f907	0.40814993
30	0xbef69a55	-0.4816462
31	0x3d4a1365	0.049334902
32	0x3ef61c06	0.48068255
33	0xbebcf3bf	-0.36904714
34	0x3eda3e4d	0.42625657
35	0x3e6b2ad0	0.2296555
36	0x3c6c186f	0.014410122
37	0x3f0595fe	0.52181995
38	0xbeb8bff9	-0.36083964
39	0xbe9622c5	-0.29323402
40	0x3ed78f60	0.42101574
41	0x3dec4d5f	0.11538195
42	0xbe1261de	-0.14295146
43	0xbf3e1659	-0.7425285
44	0xbe1f7ce7	-0.1557499
45	0x3e86aaba	0.2630213
46	0xbec00e0d	-0.3751072
47	0xbc10af29	-0.008830824
48	0xbef41ddf	-0.4767904
49	0xbf400d71	-0.7502051
50	0xbde5ce35	-0.112209715
51	0xbe9b0624	-0.30278122
52	0xbefdcded	-0.4957117
53	0x3d5770b9	0.052597735
54	0x3e4a80e8	0.19775736
55	0x3ee9339d	0.4554719
56	0xbe5161bc	-0.20447439
57	0x3ea51abf	0.32246968
58	0x3f20b143	0.6277048
59	0x3f037746	0.5135387
60	0xbe679141	-0.22614004
61	0xbcee7016	-0.029106181
62	0x3f31a07b	0.693855
63	0xbebc2df1	-0.367538
64	0x3eaa0304	0.33205426
65	0xbe016ff0	-0.12640357
66	0x3e7ff8d9	0.24997272
67	0xbd79de39	-0.061002944
68	0xbf25b348	-0.64726686
69	0x3e95fa0f	0.29292342
70	0xbe14c512	-0.14528301
71	0xbdd2eb4e	-0.10298787
72	0x3e968c78	0.29404044
73	0x3ebd8de2	0.3702231
74	0x3f1d96a2	0.6155797
75	0x3d0b14b0	0.033955276
76	0xbe2d79e5	-0.1694103
77	0x3b70118a	0.0036631548
78	0x3eff4f5f	0.49865243
79	0xbdcbac52	-0.09944977
80	0xbee42664	-0.4456054
81	0xbeaeede4	-0.3416587
82	0xbe5ee8df	-0.21768521
83	0x3f1b5139	0.6067081
84	0xbe105ad2	-0.14097145
85	0x3d6c4815	0.05768593
86	0xbf0f0cc3	-0.5587885
87	0xbea6db5e	-0.3258924
88	0xbf24ca59	-0.6437126
89	0xbe320f78	-0.17388713
90	0xbe93c4e8	-0.28861165
91	0x3f0c2d38	0.547565
92	0xbed1d908	-0.40985894
93	0xbe397893	-0.18112402
94	0x3e85fcec	0.26169527
95	0x3e6f8d58	0.23393762
96	0xbf0c8c03	-0.5490114
97	0xbe0534ef	-0.13008474
98	0xbf1da5e2	-0.6158124
99	0x3e04ee8e	0.12981626
100	0xbe9d2061	-0.30688766
101	0xbe838d7b	-0.2569388
102	0xbf09dac1	-0.53849417
103	0x3f0d992c	0.55311847
104	0xbec19504	-0.37809002
105	0xbf5f3e6b	-0.8720462
106	0x3e8e5fff	0.27807614
107	0xbeb82ada	-0.35970193
108	0xbef87248	-0.4852469
109	0xbe3fecf5	-0.18742736
110	0x3eae7318	0.34072185
111	0xbef5691d	-0.47931758
112	0xbddcb9f9	-0.10777659
113	0xbf75df8f	-0.9604425
114	0xbe860162	-0.2617293
115	0x3ea05fc1	0.31323054
116	0xbf164c50	-0.58710194
117	0x3d3bf405	0.045887012
118	0x3c5377b4	0.012906957
119	0xbe53bbc9	-0.20677103
120	0xbd99a0d6	-0.0750138
121	0x3e392f53	0.18084459
122	0xbf03d7d0	-0.5150118
123	0x3ee59dea	0.4484704
124	0xbe6e9009	-0.23297133
125	0x3f39c04c	0.72559047
126	0x3e445878	0.19174373
127	0x3cf28333	0.029603576
128	0x3f442151	0.76613337
129	0xbf5cedb4	-0.86300206
130	0x3e666215	0.22498353
131	0x3ea1687f	0.31525037
132	0xbebcf353	-0.36904392
133	0xbf26d4e9	-0.65168625
134	0xbd5315a4	-0.05153431
135	0xbf3481b7	-0.7051043
136	0x3ec4d3c4	0.38442814
137	0x3e330db5	0.17485698
138	0xbeca05ef	-0.39457652
139	0x3f09fdf1	0.5390311
140	0xbdfdbae2	-0.12389161
141	0x3e967d41	0.29392436
142	0xbf7b0269	-0.9805055
143	0x3eb9775c	0.36223876
144	0xbde42269	-0.11139376
145	0x3ec3a985	0.3821527
146	0xbd27046d	-0.040775705
147	0xbd80c024	-0.06286648
148	0xbf120461	-0.5703793
149	0xbed79af2	-0.421104
150	0x3f1bafd1	0.6081515
151	0x3f295554	0.66145825
152	0xbe8b3bb2	-0.2719398
153	0xbf1d4b21	-0.6144276
154	0x3f35c782	0.7100755
155	0x3d99645a	0.07489844
156	0x3ddb465f	0.107067816
157	0x3d0a17f7	0.03371426
158	0x3e9726cd	0.2952179
159	0x3d8f8096	0.07006948
160	0xbebbff73	-0.3671833
161	0xbec033d6	-0.37539548
162	0x3ddba403	0.10724642
163	0x3d8ecfc1	0.0697322
164	0xbc3e8491	-0.011628286
165	0x3ef270f1	0.47351792
166	0x3dbadb1c	0.09123823
167	0xbe4d75a5	-0.20064409
168	0x3e61f402	0.22065738
169	0xbe473cdc	-0.1945681
170	0x3e9ecf1b	0.31017384
171	0xbeadb230	-0.3392501
172	0xbdad0837	-0.084488325
173	0x3e43347b	0.19062988
174	0xbe2b3302	-0.16718677
175	0xbe89fe0a	-0.2695163
176	0x3decd909	0.11564834
177	0x3ed4dc0c	0.41574132
178	0xbe3cae66	-0.18425903
179	0x3f1613e1	0.5862408
180	0x3e8f55e5	0.2799522
181	0xbf192fe5	-0.59838706
182	0xbcecdb94	-0.028913297
183	0x3eacc842	0.33746535
184	0xbe821cf7	-0.25412723
185	0x3efc75f2	0.49308735
186	0x3c7bde0a	0.015372762
187	0x3f1daad0	0.61588764
188	0x3ea55d3b	0.32297692
189	0x3f19da3a	0.6009861
190	0xbf139971	-0.5765601
191	0xbf0e7ba9	-0.5565744
192	0x3ef38a7c	0.47566593
193	0xbe9bb977	-0.30414936
194	0xbdaccb20	-0.084371805
195	0x3ec26188	0.37965035
196	0xbeccc000	-0.39990234
197	0xbe2e1c7c	-0.17003053
198	0x3f106adc	0.56413054
199	0xbe9cf6fb	-0.3065718
200	0x3e2922e0	0.1651721
201	0x3dd0033d	0.10156868
202	0x3d3bf435	0.04588719
203	0xbe7857c5	-0.24252231
204	0xbe8e2c21	-0.27768043
205	0xbf11bb01	-0.5692597
206	0x3e81fe6b	0.25389418
207	0x3e737f3b	0.23779003
208	0x3dbac946	0.09120421
209	0x3ec8d6c8	0.39226365
210	0x3e185980	0.14877892
211	0xbd6fb3ad	-0.05852096
212	0x3ecf280d	0.40460244
213	0x3e36d649	0.17855181
214	0x3e4aa82e	0.19790718
215	0xbe3a6a1d	-0.18204542
216	0x3dff9188	0.1247893
217	0x3eaf1a1a	0.341996
218	0x3ed616c8	0.41814256
219	0xbf0d8450	-0.5528002
220	0xbcbbf7ba	-0.022945274
221	0xbf5c69a2	-0.8609868
222	0xbe29f0ba	-0.16595736
223	0x3d50e956	0.051003776
224	0xbe29837b	-0.16554062
225	0xbd867a84	-0.06566337
226	0xbf92128e	-1.1411912
227	0xbdf821f9	-0.12115855
228	0xbe2db85f	-0.16964863
229	0x3ee5626f	0.4480166
230	0x3e263a53	0.16233186
231	0x3e3d05a0	0.18459177
232	0x3ea22461	0.3166838
233	0x3ea602a1	0.3242388
234	0xbcda0d2e	-0.026617613
235	0x3dc50954	0.0962092
236	0xbe91b096	-0.28455037
237	0x3d8445f6	0.064586565
238	0x3f016c5f	0.50555986
239	0xbed856ca	-0.42253715
240	0x3ea4dfe3	0.32202062
241	0x3de4ff77	0.111815386
242	0x3f1afd75	0.60542995
243	0x3f522acc	0.8209655
244	0xbce7e7e9	-0.028308826
245	0xbdc14e3b	-0.094387494
246	0x3f23e4f5	0.64021236
247	0xbf18154f	-0.59407514
248	0x3ee952bc	0.45570934
249	0xbdccc330	-0.099981666
250	0xbea57a23	-0.32319745
251	0xbddf95e5	-0.10917262
252	0xbe0a7ca1	-0.13524105
253	0x3ddfc95a	0.10927077
254	0xbed10291	-0.4082227
255	0x3d72d28e	0.05928283

layers.1.bias f4 [24]
0	0xbf1a225f	-0.60208696
1	0xbeb9ddd0	-0.36302042
2	0xbec751dc	-0.3892964
3	0x3e5f0254	0.21778232
4	0xbf858435	-1.0430971
5	0x3f07cfb5	0.5305131
6	0xbf026930	-0.50941753
7	0xbec06e7b	-0.3758429
8	0xbedf49f0	-0.43611097
9	0xbf248665	-0.6426757
10	0x3ee2c122	0.44287974
11	0xbdc0368e	-0.093854055
12	0xbf5a71f5	-0.85330135
13	0xbd858887	-0.06520181
14	0x3dc8517e	0.097811684
15	0xbe5afe25	-0.21386011
16	0xbf00e004	-0.5034182
17	0x3c8a5973	0.016888356
18	0xbe237c46	-0.15965375
19	0xbe111258	-0.14167154
20	0xbcb96e7c	-0.02263569
21	0x3e7ee925	0.24893625
22	0x3efcb1cc	0.49354398
23	0x3f50d801	0.81579596

layers.2.weight f4 [12, 24]
0	0x3ebc97d6	0.36834592
1	0x3db40d13	0.08791556
2	0x3f4fd6e9	0.811873
3	0x3dc6b542	0.09702541
4	0xbe994232	-0.29933316
5	0xbf2c653c	-0.6734197
6	0xbe03b825	-0.12863214
7	0xbee5fb68	-0.4491837
8	0xbf30f300	-0.6912079
9	0x3e216207	0.1576005
10	0x3e5b0848	0.21389878
11	0x3ed89f2e	0.42308944
12	0xbf88894d	-1.0666901
13	0x3deeb48f	0.116555326
14	0xbd8e34b5	-0.06943647
15	0x3bf5807f	0.0074921246
16	0xbf2745ac	-0.65340686
17	0xbf1f4fce	-0.6223115
18	0xbe33782a	-0.17526308
19	0x3f093501	0.535965
20	0xbd929473	-0.07157221
21	0x3cd7fa56	0.026364487
22	0xbf22650b	-0.6343543
23	0xbfa13004	-1.2592778
24	0xbf75abf0	-0.9596548
25	0x3ea35963	0.31904134
26	0x3ed355a1	0.41276267
27	0xbecdf1c0	-0.40223503
28	0xbe234e8a	-0.15947929
29	0x3ebbe92e	0.3670134
30	0x3d6f9566	0.058492087
31	0xbe9a52ee	-0.30141395
32	0x3e70709b	0.23480456
33	0x3d8cf154	0.06881967
34	0x3d6db283	0.05803157
35	0x3cec158b	0.028818866
36	0x3eddb185	0.432995
37	0x3f17f017	0.59350723
38	0xbe12e372	-0.14344576
39	0x3e3e6ac1	0.18595411
40	0x3f5c5453	0.8606617
41	0x3e0961ca	0.1341621
42	0xbeb1551b	-0.34635243
43	0xbf5bc186	-0.8584217
44	0xbdabec6c	-0.08394703
45	0xbe96838e	-0.29397243
46	0xbec34c07	-0.38143942
47	0x3e9085ac	0.28226984
48	0x3ed28322	0.4111567
49	0xbd90d722	-0.07072283
50	0xbe9b860b	-0.30375704
51	0xbe213dce	-0.15746233
52	0x3f02b015	0.5104993
53	0xbf912845	-1.1340414
54	0xbd451359	-0.048114154
55	0x3ddadc94	0.10686603
56	0xbdb12ef0	-0.08651531
57	0x3e850fce	0.2598862
58	0xbed3bb1d	-0.41353694
59	0xbd016282	-0.031588085
60	0x3ea79677	0.32731983
61	0xbdfe109a	-0.1240551
62	0xbeea8886	-0.45807284
63	0x3f0b6aa0	0.5445957
64	0xbeeef86e	-0.46673912
65	0x3fb60cde	1.4222677
66	0xbf713196	-0.9421629
67	0xbe9f4179	-0.3110464
68	0xbe0c1bf3	-0.13682537
69	0xbf71aa82	-0.944008
70	0x3d879fec	0.066222996
71	0x3e4f2491	0.20228793
72	0x3eab374b	0.33440623
73	0x3e918547	0.28421995
74	0x3e50229d	0.20325704
75	0x3db7c23c	0.08972594
76	0xbf3d212a	-0.7387873
77	0xbe3db2f9	-0.18525304
78	0x3dc983b1	0.09839571
79	0xbe9d292c	-0.30695474
80	0x3e76929b	0.24079363
81	0x3d731251	0.05934364
82	0x3f320622	0.6954061
83	0xbdf12587	-0.11774736
84	0x3c9b0951	0.01892534
85	0x38380fc3	4.3883698e-05
86	0xbf78beb0	-0.97165966
87	0x3f76ce88	0.9640889
88	0x3ec413c5	0.38296333
89	0x3ec0d5cd	0.37663117
90	0x3fb726ae	1.4308679
91	0xbf2f0119	-0.6836105
92	0x3e6cf9fa	0.23142233
93	0x3eb6f18f	0.3573117
94	0xbe21bc04	-0.15794379
95	0xbeb39677	-0.35075733
96	0x3ea2cd87	0.3179743
97	0xbe6153d7	-0.22004639
98	0xbc8aa7f6	-0.016925793
99	0xbef21c7f	-0.47287366
100	0xbf9d2b91	-1.227892
101	0xbe9750c1	-0.29553798
102	0x3e7d5940	0.24741077
103	0xbce59398	-0.02802448
104	0xbf7c4e10	-0.98556614
105	0x3f20fe48	0.62888
106	0xbf180516	-0.5938276
107	0x3ef15fc7	0.47143385
108	0xbe7cc6d2	-0.24685219
109	0x3ed11ee2	0.40843874
110	0xbf6be8cc	-0.92152095
111	0xbf5209e3	-0.82046336
112	0xbd23c56e	-0.039983205
113	0xbf572ac3	-0.84049624
114	0xbe2bc920	-0.16775942
115	0x3f134568	0.5752778
116	0x3c9c2a7a	0.019063223
117	0xbf89ff74	-1.0781083
118	0xbe8447bf	-0.25835988
119	0x3ecc9eeb	0.39964995
120	0xbf2bf3df	-0.6716899
121	0x3e95daa9	0.29268387
122	0x3dea3d18	0.11437434
123	0x3ea45299	0.32094267
124	0xbe507091	-0.2035544
125	0x3dcd7ead	0.10033927
126	0x3e9911db	0.29896435
127	0xbf435ef5	-0.7631677
128	0xbe981ee7	-0.29711077
129	0x3efbc669	0.49174812
130	0xbeed7d93	-0.46384868
131	0x3de22a6c	0.110432476
132	0xbe9584e5	-0.29202953
133	0x3f412cb2	0.75458825
134	0x3e58eca9	0.21184029
135	0xbe8de624	-0.27714646
136	0x3ec244f0	0.3794322
137	0xbe67c1dc	-0.22632545
138	0xbf02eeb5	-0.5114549
139	0x3eb19a79	0.34688166
140	0x3f507d3d	0.814411
141	0xbe43b7e8	-0.19113123
142	0xbd92b4e5	-0.07163409
143	0x3cea38e2	0.028591577
144	0x3f6bb93d	0.92079526
145	0xbf0335fc	-0.5125425
146	0xbedfd175	-0.4371449
147	0xbd73a872	-0.059486814
148	0x3eba5831	0.3639541
149	0xbf16b1da	-0.5886513
150	0x3f2c0e55	0.6720937
151	0x3f53cb66	0.82732236
152	0x3eca13b9	0.39468172
153	0xbe13416e	-0.14380428
154	0x3d9eb9d6	0.07750289
155	0x3eca570c	0.39519536
156	0xbd69aa3d	-0.057047118
157	0xbeff4582	-0.49857718
158	0xbe079142	-0.13239005
159	0x3e6e8b4b	0.23295324
160	0xbd08d837	-0.033409324
161	0x3f9e58bf	1.2370833
162	0x3d7dd52e	0.061970882
163	0x3f06baee	0.5262898
164	0xbee1d9fd	-0.44111624
165	0x3f7f195f	0.9964809
166	0x3ea1e2b2	0.31618267
167	0xbe201f80	-0.15637016
168	0x3f00d5d1	0.5032626
169	0x3eebdbbc	0.46066082
170	0x3f020f8e	0.50804985
171	0xbebdb78f	-0.37054107
172	0xbd827bd5	-0.06371275
173	0xbea60af7	-0.3243024
174	0x3eb5deb5	0.35521474
175	0x3e9bd67d	0.3043708
176	0x3d5946a4	0.053045884
177	0x3d2b519f	0.041825887
178	0x3ee7c443	0.45266923
179	0x3fa4d9c8	1.2878962
180	0x3e325ea0	0.17418909
181	0x3e00e400	0.12586975
182	0xbf447e12	-0.7675487
183	0xbeba3acd	-0.36372986
184	0x3e568ddf	0.20952557
185	0x3e2ea78b	0.170561
186	0x3e83c8a9	0.2573903
187	0xbf5e4c21	-0.86834913
188	0xbf04b52e	-0.5183896
189	0x3e9f42e1	0.31105712
190	0xbf0a72a7	-0.54081196
191	0xbf49f767	-0.7889313
192	0xbe4dfe52	-0.20116547
193	0x3dc579fe	0.09642409
194	0xbed051d3	-0.40687427
195	0x3d2e6fad	0.04258697
196	0xbef1b6ee	-0.47209877
197	0xbdcc0258	-0.099613845
198	0x3f1b0a94	0.60563016
199	0x3eaf2a51	0.34211972
200	0x3e0558e3	0.13022189
201	0xbd239a4d	-0.039942075
202	0x3ef3940a	0.47573882
203	0x3f5c765e	0.86118114
204	0xbf3bf874	-0.73425984
205	0x3e97fbb1	0.29684213
206	0x3c65a5b0	0.014016554
207	0xbeb2af63	-0.34899434
208	0xbe7884c5	-0.24269398
209	0xbd0c51ce	-0.034257703
210	0x3f2ce4d4	0.67536664
211	0xbf051dc3	-0.5199854
212	0x3ed2df77	0.41186115
213	0x3f9f89e2	1.2463953
214	0xbeb5d449	-0.35513523
215	0xbf019dba	-0.50631297
216	0x3f2c9462	0.67413914
217	0x3bc6fe67	0.0060728076
218	0x3f9ee8b4	1.2414765
219	0x3e6e0ed2	0.23247841
220	0xbeb58e9f	-0.35460374
221	0xbedd5fd5	-0.43237177
222	0x3e93e924	0.2888881
223	0x3d9e944a	0.07743128
224	0xbf08bf3a	-0.5341679
225	0x3f017b7e	0.5057906
226	0xbf0b1307	-0.5432591
227	0xbf0717ac	-0.52770495
228	0xbe7ab00a	-0.24481216
229	0x3e786b1d	0.2425961
230	0xbe50546d	-0.20344706
231	0xbf8c15ad	-1.0944115
232	0x3e8d85d5	0.27641168
233	0xbe0c5113	-0.13702802
234	0xbf7f0183	-0.9961168
235	0xbebee650	-0.3728509
236	0xbea87cac	-0.32907617
237	0xbf930400	-1.1485596
238	0x3dc5da76	0.09660809
239	0xbf37a6a2	-0.71738636
240	0x3e1310a5	0.14361818
241	0xbd9ee0c9	-0.07757718
242	0xbe782517	-0.24232899
243	0x3c8a60ff	0.016891954
244	0xbf2af854	-0.6678517
245	0xbe880850	-0.26568842
246	0xbf4b7409	-0.7947393
247	0x3e374332	0.17896727
248	0xbeb22b4b	-0.34798655
249	0xbb571041	-0.0032816085
250	0x3edf090b	0.43561587
251	0x3d66484e	0.0562213
252	0x3dde5b66	0.108572766
253	0x3edb0a90	0.42781496
254	0x3e8753df	0.26431176
255	0xbe294c27	-0.16532956

layers.2.bias f4 [12]
0	0x3e44babf	0.19211863
1	0xbe99207a	-0.2990759
2	0xbed46311	-0.41481832
3	0xbeb28916	-0.34870213
4	0x3d9508bd	0.07277057
5	0x3f2b956f	0.6702489
6	0xbec90ae1	-0.39266112
7	0xbf94a871	-1.1613904
8	0xbf9d085d	-1.2268177
9	0x3e715627	0.23568021
10	0xbde0d7c7	-0.10978656
11	0xbe244a0b	-0.1604387

layers.3.weight f4 [2, 12]
0	0x3f31a310	0.6938944
1	0xbd15773f	-0.036490675
2	0xbf117f4b	-0.5683486
3	0xbdea3761	-0.11436344
4	0x3fb54a45	1.416329
5	0x3e460bd6	0.19340453
6	0xbea22579	-0.31669214
7	0x3dc8cd86	0.098048255
8	0xbf49e8bb	-0.78870744
9	0x3f90f5f7	1.1325063
10	0x3e7f5157	0.24933372
11	0x3bae1be7	0.005313385
12	0x3c352eeb	0.011058549
13	0x3dfe5722	0.12418963
14	0x3edf72d1	0.43642285
15	0xbeeb45e4	-0.4595176
16	0x3e1d225b	0.15345137
17	0xbd1e87f8	-0.03870389
18	0xbf38b997	-0.7215819
19	0x3e96213f	0.2932224
20	0x3e563b75	0.20921119
21	0xbdeb67e1	-0.11494423
22	0xbe064bc7	-0.13114844
23	0x3f379dc8	0.7172513

layers.3.bias f4 [2]
0	0xbeba86ab	-0.36430869
1	0xbef70036	-0.48242348

layers.0.weight f4 [48, 24]
0	0x3d11e54d	0.03561907
1	0xbe2a0084	-0.16601759
2	0x3c0f2ce2	0.008738728
3	0xbdae385d	-0.08506844
4	0xbe87a48c	-0.26492727
5	0x4009b214	2.151494
6	0x3c26584d	0.0101528885
7	0xbe2c5a45	-0.1683131
8	0xbd839d1a	-0.06426449
9	0xbe0dc7fe	-0.13845822
10	0xbc6c3127	-0.014416016
11	0xbe99d8d9	-0.30048254
12	0xbe79f250	-0.24408841
13	0x3ded4191	0.115847714
14	0x3cdcfaeb	0.026975116
15	0xbd4569a4	-0.04819645
16	0xbdcc7644	-0.09983495
17	0xbe48e81e	-0.19619796
18	0xbc5258e9	-0.012838581
19	0xbe00d2b6	-0.1258038
20	0xbd87fca6	-0.06639986
21	0xc03b53ca	-2.926989
22	0xbb3f7b1f	-0.0029217673
23	0xbea3721e	-0.31923002
24	0xbdc40b00	-0.095724106
25	0xbcca1c6a	-0.024671752
26	0xbd3f679d	-0.046729673
27	0xbc1bce48	-0.0095096305
28	0xbf7a832c	-0.978564
29	0xbfaa5ed8	-1.3310194
30	0x3d561e3f	0.05227494
31	0x3cf66ccc	0.030081175
32	0xbdf92fea	-0.12167342
33	0xbc805d5f	-0.015669523
34	0x3cd2c167	0.025726987
35	0x3dbf459c	0.09339449
36	0xbe3d47ca	-0.18484417
37	0x3d8c4f8e	0.06851111
38	0xbbf04706	-0.0073326854
39	0x3e30e831	0.17276074
40	0xbbdcbe75	-0.0067365714
41	0xbe9cd361	-0.3063002
42	0x3d077e89	0.033079658
43	0x3dbb62d6	0.09149711
44	0x3f924fbd	1.1430584
45	0x40099d5d	2.1502297
46	0xbd32d786	-0.04366257
47	0x3d44c33b	0.04803775
48	0x3ef3ca8b	0.47615466
49	0xbeb105bf	-0.34574696
50	0xbd683cf1	-0.056698743
51	0x3bfa7a50	0.0076439753
52	0xbe503b7e	-0.20335194
53	0xbf00b89e	-0.50281703
54	0xbdbb8ad6	-0.0915734
55	0xbe41a079	-0.18908872
56	0x3edb495f	0.42829415
57	0xbf085863	-0.5325987
58	0xbba02f66	-0.004888463
59	0xbd3f8390	-0.046756327
60	0xbe961dae	-0.2931952
61	0xbf6144ec	-0.8799579
62	0x3a67d2b2	0.0008843347
63	0xbd3fda4b	-0.04683904
64	0x3f0997a5	0.53747016
65	0xbf20f945	-0.62880355
66	0x3d5d49ee	0.054025583
67	0xbec268bf	-0.3797054
68	0xbecd8f70	-0.40148497
69	0xbfe7edd1	-1.8119451
70	0x3e854c14	0.26034606
71	0xbe84ef7d	-0.25963965
72	0x3e1f7d77	0.15575205
73	0x3f436421	0.7632466
74	0x3bbbfffa	0.005737302
75	0xbe495796	-0.19662318
76	0x3f076480	0.52887726
77	0xbe744ed9	-0.23858203
78	0xbd4cdada	-0.0500134
79	0xbe88341f	-0.26602265
80	0x3ecd35c5	0.40080085
81	0x3f0ea996	0.5572752
82	0x3d1d22e0	0.038363338
83	0xbda8c8af	-0.08241402
84	0x3e772675	0.24135764
85	0xbf99f7bc	-1.2028728
86	0x3cac5100	0.021034718
87	0x3e1c6565	0.15273054
88	0x3eb1c86a	0.34723216
89	0x3f359d52	0.70943177
90	0x3c9ac778	0.018893942
91	0xbda4268c	-0.08015165
92	0x3efb00bd	0.49024
93	0xc043e988	-3.0611286
94	0x3de802f3	0.113286875
95	0xbd6dc86e	-0.058052473
96	0x3e88f787	0.26751348
97	0xbfb5b449	-1.4195644
98	0x3c4a86ab	0.012361209
99	0xbe543cef	-0.2072637
100	0x3eb1dc05	0.34738174
101	0x3d7d2594	0.061803415
102	0xbd7ba04a	-0.06143216
103	0xbec4e1e1	-0.38453582
104	0x3df83842	0.12120105
105	0xbf90bb49	-1.1307155
106	0xbd7a689c	-0.06113492
107	0xbe7d4ff7	-0.24737535
108	0xbec07ad6	-0.37593716
109	0x3fcaa245	1.5830771
110	0x3e12fefe	0.14355084
111	0xbe585f56	-0.21130118
112	0x3f0d95c9	0.5530668
113	0xbf833f56	-1.0253704
114	0x3d139785	0.036033172
115	0xbede4a03	-0.4341584
116	0xbf5dddac	-0.8666637
117	0x3fd7f935	1.6872927
118	0x3d4d2d88	0.05009225
119	0xbe9d282b	-0.30694708
120	0x3eb81dd2	0.3596025
121	0x3e9224f6	0.28543824
122	0x3c993440	0.018701673
123	0xbd2caac4	-0.042155042
124	0xbf025f6d	-0.5092686
125	0xbee749ab	-0.45173392
126	0xbd2d795b	-0.04235206
127	0xbe482eec	-0.1954915
128	0x3efd638a	0.49490005
129	0x3e51ad6b	0.2047631
130	0x3d06f9bb	0.032953005
131	0xbe62776f	-0.22115873
132	0xbf0c9eb5	-0.5492967
133	0xbf53996c	-0.8265598
134	0x3cadc746	0.021213185
135	0xbe876571	-0.2644458
136	0x3e7cb184	0.24677092
137	0x3e5dcf44	0.21661097
138	0xbe169f74	-0.14709264
139	0xbf03dcd2	-0.5150882
140	0xbf2a4375	-0.6650918
141	0xc015508e	-2.3330417
142	0x3d6fafc3	0.05851723
143	0xbe8bcb0e	-0.27303356
144	0x3eb637be	0.35589403
145	0x3e54485a	0.20730725
146	0xbd845807	-0.064621024
147	0x3e927f77	0.28612873
148	0x3e67b5dc	0.22627968
149	0x40093091	2.1435893
150	0x3d5011ed	0.050798345
151	0x3ebb9b16	0.3664176
152	0x3e8aa947	0.27082273
153	0x3e9164c0	0.2839718
154	0x3d91f483	0.07126715
155	0x3dd59ed5	0.104306854
156	0x3f0efcb7	0.5585436
157	0x3fc60d35	1.547278
158	0xbd97c274	-0.07410136
159	0x3dd708f4	0.104997545
160	0x3eb3bfe9	0.35107353
161	0x3f0cd317	0.550096
162	0x3d2347b2	0.039863296
163	0xbec79baa	-0.3898595
164	0x3f904143	1.1269916
165	0x3f5a7452	0.8533374
166	0xbce5b6df	-0.028041301
167	0xbea11bfd	-0.31466666
168	0x3d8a239d	0.06745074
169	0x3fce3f7a	1.6113122
170	0x3cf1a8d6	0.029499453
171	0xbd9bb315	-0.076025166
172	0x3f17392f	0.5907163
173	0x3dcc9616	0.09989564
174	0xbd769e0e	-0.060209326
175	0xbe040ddd	-0.12895913
176	0x3c1712dc	0.009220805
177	0x3fcf50e1	1.6196557
178	0x3c5d3847	0.013502187
179	0xbe6c9d7f	-0.23106955
180	0xbeb35331	-0.35024408
181	0x3efb3453	0.49063358
182	0xbcd413fd	-0.025888437
183	0xbe37034b	-0.1787235
184	0x3eac0ee4	0.3360511
185	0x3f9d625f	1.2295645
186	0x3d804ce5	0.062646665
187	0xbf366928	-0.71254206
188	0xbf7f2e2f	-0.99679846
189	0x3f967d72	1.1757033
190	0xbe0303bd	-0.12794395
191	0xbf271c20	-0.6527729
192	0x3ed379f0	0.41303968
193	0x3f9cc498	1.2247496
194	0xbc38a85f	-0.011270612
195	0xbe309e6b	-0.17247932
196	0x3f01999c	0.50625014
197	0xbf17e55b	-0.59334344
198	0xbdbd3d82	-0.09240247
199	0xbd19558d	-0.037435103
200	0x3eb039f8	0.34419227
201	0x3f942829	1.1574756
202	0x3da6ba0f	0.081409566
203	0xbefdc587	-0.49564764
204	0x3e91bedb	0.28465924
205	0xbe793d61	-0.2433982
206	0xbdd6b8cb	-0.10484465
207	0xbf00b366	-0.5027374
208	0x3e7c4002	0.24633792
209	0x3f850c28	1.0394335
210	0xbd3221a4	-0.043489113
211	0xbf4bd801	-0.7962647
212	0x3bc82133	0.0061074733
213	0xbdd1ef33	-0.10250702
214	0x3c827176	0.015923243
215	0xbf70bcad	-0.94037896
216	0xbc5db167	-0.013531066
217	0xbf3f8ced	-0.7482441
218	0x3e021444	0.12703043
219	0x3e7d5ac7	0.2474166
220	0x3ec24bdc	0.379485
221	0xbfb41a81	-1.4070588
222	0xbdf04799	-0.11732406
223	0x3eb6f6f9	0.357353
224	0xbcda184d	-0.026622916
225	0xbf5c4c77	-0.86054176
226	0xbc67c5b2	-0.014146255
227	0xbcd3ef6f	-0.025871007
228	0x3f87bb0d	1.0603958
229	0xbee59e34	-0.44847262
230	0x3c3ba6e1	0.011453361
231	0xbdfccce0	-0.12343764
232	0xbdca0168	-0.098635495
233	0xbf27bac2	-0.65519345
234	0x3d14da7d	0.03634118
235	0xbef7df5e	-0.48412603
236	0x3f9c1244	1.2193074
237	0x3f188956	0.5958456
238	0xbd1b4bc6	-0.03791406
239	0xbeb00549	-0.34379032
240	0x3ebfa7c2	0.37432677
241	0x3f9292a8	1.1451006
242	0xbcb92329	-0.022599773
243	0x3dc04fb9	0.09390206
244	0x3dee97b6	0.1165003
245	0x3d57d02a	0.052688755
246	0xbc592afa	-0.013254875
247	0x3dafefd8	0.085906684
248	0x3e2dab9e	0.16959998
249	0x3fbba728	1.4660387
250	0x3ce84189	0.028351562
251	0xbcb7cbae	-0.02243599
252	0x3ea10317	0.3144767
253	0x3f3452ff	0.7043914
254	0xbd347d68	-0.04406491
255	0xbcbdc7b0	-0.023166507

layers.0.bias f4 [48]
0	0x3f7b4df5	0.9816583
1	0xbd05954d	-0.032613087
2	0x3d9ee8d5	0.07759253
3	0xbedcad4f	-0.43100974
4	0x3df0e2d7	0.11762016
5	0x3e869c99	0.2629135
6	0xbddec25c	-0.10876915
7	0xbecd93cd	-0.40151826
8	0xbf1b0342	-0.60551846
9	0x3e992de2	0.29917818
10	0xbf58f070	-0.8474188
11	0xbf3ed51c	-0.7454393
12	0xbeb665ea	-0.3562463
13	0xbdfd50ef	-0.123689525
14	0xbe78123e	-0.24225709
15	0xbd109264	-0.03529586
16	0xbf47df30	-0.7807493
17	0x3f785f2f	0.9702024
18	0xbf55d385	-0.8352588
19	0xbf03df40	-0.5151253
20	0x3f0bd755	0.54625446
21	0x3f8266c7	1.0187615
22	0xbe8fe222	-0.28102213
23	0xbf4233e1	-0.7586041
24	0xbe9db2b4	-0.30800402
25	0xbf0d6c9d	-0.55243856
26	0xbe9f8502	-0.31156164
27	0xbef5dab2	-0.48018414
28	0xbd579ce8	-0.05263987
29	0xbd9c4061	-0.07629467
30	0xbecfebfa	-0.40609723
31	0x3cfbfe06	0.030760776
32	0xbf7d97a7	-0.9905953
33	0x3c92748f	0.017877845
34	0x3ebf975c	0.37420166
35	0xbf107f5c	-0.56444335
36	0x3e7f83f2	0.24952677
37	0xbed19d33	-0.40940246
38	0x3e4ec742	0.20193198
39	0x3f082b84	0.531914
40	0xbf067b82	-0.5253221
41	0xbf2f385c	-0.6844537
42	0x3efdb5c5	0.49552742
43	0xbed493f0	-0.41519117
44	0xbe4f8728	-0.20266402
45	0xbeef285c	-0.4671048
46	0xbdbd3c92	-0.092400685
47	0xbca01d63	-0.019545263

layers.1.weight f4 [24, 48]
0	0x3d8fc801	0.070205696
1	0xbf1cab1a	-0.6119858
2	0xbec81799	-0.39080504
3	0x3c47e90a	0.012201557
4	0x3e7e84a7	0.2485529
5	0xbecf1db0	-0.40452337
6	0xbefa9a9b	-0.4894608
7	0x3e9ac102	0.30225378
8	0x3e2c59c0	0.16831112
9	0xbf281f9c	-0.6567323
10	0x3df0a346	0.11749892
11	0xbf692715	-0.9107526
12	0xbf4b4361	-0.7939969
13	0x3cc52d9f	0.024069605
14	0x3eb85fd8	0.36010623
15	0xbedeb6a0	-0.43498707
16	0xbe885e05	-0.2663423
17	0xbf031956	-0.51210535
18	0xbd7994b8	-0.060932845
19	0xbeb69833	-0.35662994
20	0xbf258fa3	-0.646723
21	0xbe6122f0	-0.21985984
22	0xbe39e657	-0.18154274
23	0x3e19a35a	0.1500372
24	0xbf50372f	-0.81334203
25	0x3e9593d4	0.29214346
26	0x3eb0ebf3	0.34555015
27	0x3eec07e9	0.46099785
28	0x3eb0b8a4	0.3451587
29	0x3ecd6088	0.4011271
30	0xbef523ee	-0.47878975
31	0x3d1e21c5	0.038606424
32	0x3f08ed1f	0.5348682
33	0xbec886f7	-0.3916547
34	0x3ed4ec8d	0.41586724
35	0x3e662de0	0.22478437
36	0x3c63044d	0.013856006
37	0x3f083950	0.5321245
38	0xbeae561c	-0.3405007
39	0xbea2e66a	-0.31816417
40	0x3ed6136a	0.41811687
41	0x3e1a3905	0.15060814
42	0xbe0efefb	-0.13964455
43	0xbf3cbdb1	-0.73726946
44	0xbe11b2c9	-0.14228357
45	0x3e8ba8b0	0.27277136
46	0xbec93aa7	-0.3930256
47	0xbcf6c11d	-0.03012138
48	0xbeffa1e4	-0.499282
49	0xbf33a1ef	-0.70168966
50	0xbdf856ef	-0.12125956
51	0xbe9ca956	-0.30597943
52	0xbef138da	-0.47113687
53	0x3d32f886	0.04369404
54	0x3e5445b0	0.20729709
55	0x3eef66fa	0.46758252
56	0xbe5bfe56	-0.2148374
57	0x3ea54f19	0.3228691
58	0x3f232c94	0.63739896
59	0x3f05f91d	0.5233324
60	0xbe6fcada	-0.23417225
61	0xbc7dd789	-0.015493282
62	0x3f33a055	0.7016652
63	0xbeb978e4	-0.36225045
64	0x3ea9413c	0.33057582
65	0xbe03068a	-0.12795463
66	0x3e831b2f	0.25606677
67	0xbd56ad11	-0.052411143
68	0xbf294e8f	-0.66135496
69	0x3e8bc218	0.2729652
70	0xbe0872cd	-0.13325043
71	0xbdcd4101	-0.10022164
72	0x3e93de3c	0.2888049
73	0x3eca1863	0.3947173
74	0x3f1de6ce	0.61680305
75	0x3d454dd2	0.04816992
76	0xbe27b425	-0.16377313
77	0x3c82d761	0.015971841
78	0x3efb3ccf	0.4906983
79	0xbd9fe0c0	-0.078065395
80	0xbee3b8ac	-0.4447683
81	0xbea0b78e	-0.3139004
82	0xbe507ba4	-0.20359665
83	0x3f19100a	0.597901
84	0xbe2ab5f3	-0.1667097
85	0x3d88f246	0.06686835
86	0xbf123b7b	-0.5712201
87	0xbeac405b	-0.3364285
88	0xbf2e9ea6	-0.6821083
89	0xbe1c3cf5	-0.15257628
90	0xbe97c4e0	-0.2964239
91	0x3f0a166b	0.5394046
92	0xbed08c10	-0.4073186
93	0xbe2e677b	-0.17031662
94	0x3e8af261	0.27138045
95	0x3e759aa7	0.23984776
96	0xbf0b359b	-0.5437867
97	0xbe1ed08b	-0.1550924
98	0xbf1a0dee	-0.60177505
99	0x3e0c5230	0.13703227
100	0xbe9b18c6	-0.30292338
101	0xbe7df2d5	-0.24799664
102	0xbf0dae79	-0.5534435
103	0x3f102623	0.5630819
104	0xbec09c15	-0.3761908
105	0xbf608886	-0.8770832
106	0x3e8c1344	0.27358449
107	0xbeb6b2b6	-0.3568322
108	0xbef9e8a1	-0.48810294
109	0xbe3abbbc	-0.18235677
110	0x3eb31258	0.34974933
111	0xbf01a464	-0.50641465
112	0xbddcbd3c	-0.10778281
113	0xbf734b88	-0.95037127
114	0xbe871f62	-0.2639113
115	0x3e938aba	0.28816777
116	0xbf164d76	-0.58711946
117	0x3d2090ad	0.039200474
118	0xbba579c6	-0.005049917
119	0xbe45ae60	-0.193048
120	0xbd7d7312	-0.061877318
121	0x3e34fde4	0.17674977
122	0xbf04afbb	-0.51830643
123	0x3ee93a7a	0.45552427
124	0xbe68412d	-0.22681113
125	0x3f3a5e70	0.7280035
126	0x3e4528f6	0.19253907
127	0x3d18bb79	0.037288163
128	0x3f3d1273	0.73856276
129	0xbf5af8f2	-0.8553611
130	0x3e6ca16c	0.23108453
131	0x3e9637a1	0.29339316
132	0xbebc7a32	-0.36811978
133	0xbf27dc79	-0.6557079
134	0xbd74239f	-0.059604283
135	0xbf30c232	-0.6904632
136	0x3ec9ff37	0.39452526
137	0x3e2df6e8	0.16988719
138	0xbec55a34	-0.38545382
139	0x3f057d2f	0.5214414
140	0xbdfb62ce	-0.12274705
141	0x3e95e5f4	0.29277003
142	0xbf79edc0	-0.976284
143	0x3eb9fc77	0.36325428
144	0xbdbbc29e	-0.0916798
145	0x3ebecd02	0.37265784
146	0xbd00b332	-0.031420894
147	0xbd889cb7	-0.06670516
148	0xbf10d5a6	-0.56576
149	0xbee69347	-0.4503424
150	0x3f191a9c	0.5980623
151	0x3f2e585b	0.6810357
152	0xbe84a390	-0.25906038
153	0xbf1ee2bc	-0.6206472
154	0x3f399235	0.7248872
155	0x3d7ff527	0.062489655
156	0x3d9b7356	0.07590358
157	0x3d340870	0.04395336
158	0x3ea28447	0.31741545
159	0x3d9ebb9b	0.07750627
160	0xbebbd360	-0.36684704
161	0xbeb517e6	-0.35369796
162	0x3da28c3b	0.07936903
163	0x3d70a7d2	0.058753796
164	0xbc9dee6b	-0.019278726
165	0x3ef29271	0.4737735
166	0x3debf82f	0.11521947
167	0xbe3de591	-0.18544604
168	0x3e766dd2	0.2406533
169	0xbe2f0a12	-0.17093685
170	0x3ea2ba7e	0.31782907
171	0xbeac68e1	-0.33673766
172	0xbda3e8f2	-0.08003415
173	0x3e43dd45	0.19127376
174	0xbe0fa8e4	-0.1402927
175	0xbe86514e	-0.26233906
176	0x3dc14a32	0.0943798
177	0x3ed8635b	0.42263302
178	0xbe2f2b97	-0.17106472
179	0x3f1d8581	0.61531836
180	0x3e8dca01	0.2769318
181	0xbf14898d	-0.58022386
182	0xbd178e76	-0.037001096
183	0x3eb0ff46	0.34569758
184	0xbe49a3eb	-0.19691436
185	0x3eedcfda	0.4644764
186	0x3cabd3b0	0.020974964
187	0x3f213117	0.6296553
188	0x3ea10d36	0.31455392
189	0x3f18dd95	0.5971311
190	0xbf1280ff	-0.5722808
191	0xbf0dc282	-0.5537492
192	0x3f02e316	0.51127756
193	0xbe9e0f8d	-0.3087124
194	0xbd59cc3f	-0.0531733
195	0x3ec32b77	0.381191
196	0xbec4be36	-0.3842637
197	0xbe264e3c	-0.16240782
198	0x3f0dcbc5	0.5538905
199	0xbe906100	-0.28199005
200	0x3e332f33	0.17498474
201	0x3dc39281	0.09549428
202	0x3d0abeeb	0.03387348
203	0xbe83f4ab	-0.25772604
204	0xbe92333d	-0.28554717
205	0xbf0fedb3	-0.56222075
206	0x3e8cdc77	0.2751195
207	0x3e73c2e2	0.2380481
208	0x3dc68ab9	0.09694428
209	0x3ec4e1a4	0.384534
210	0x3e3500cc	0.17676085
211	0xbd905b56	-0.07048671
212	0x3ecb68ea	0.3972848
213	0x3e50d047	0.20391952
214	0x3e5866b2	0.21132925
215	0xbe2976c1	-0.16549207
216	0x3df9c77d	0.121962525
217	0x3eadc845	0.33941856
218	0x3eccd9ec	0.4001001
219	0xbf0ac97f	-0.5421371
220	0xbd0b001b	-0.033935647
221	0xbf5b78f1	-0.85731417
222	0xbe30e2cc	-0.17274016
223	0x3d46bd8d	0.048520613
224	0xbe165442	-0.1468058
225	0xbd762552	-0.060094185
226	0xbf91b90a	-1.1384594
227	0xbe0f66d8	-0.14004076
228	0xbe384e04	-0.1799851
229	0x3ee5c2dd	0.4487523
230	0x3e26fb2b	0.1630675
231	0x3e261952	0.16220596
232	0x3e96f982	0.29487234
233	0x3eb56ab8	0.35432982
234	0xbd0fd633	-0.035116386
235	0x3da70e3c	0.08157012
236	0xbe96c6d5	-0.29448572
237	0x3d8a551e	0.06754516
238	0x3eff04c1	0.49808314
239	0xbee1550a	-0.44010192
240	0x3ea8001b	0.3281258
241	0x3df8d5bc	0.121501416
242	0x3f14ec22	0.5817281
243	0x3f521c6f	0.82074636
244	0xbd029938	-0.031884402
245	0xbdc219e9	-0.09477598
246	0x3f1fa483	0.623604
247	0xbf163cf0	-0.58686733
248	0x3ee14410	0.4399724
249	0xbdc89150	-0.09793341
250	0xbeaccd9b	-0.33750615
251	0xbdd6b1c5	-0.104831256
252	0xbe02e3a2	-0.12782148
253	0x3e0813d4	0.13288814
254	0xbeca5348	-0.39516664
255	0x3d38c7c1	0.045112375

layers.1.bias f4 [24]
0	0xbf1890e4	-0.59596086
1	0xbeb6e6e6	-0.35723037
2	0xbec4d2d3	-0.38442096
3	0x3e69cf96	0.22833094
4	0xbf83e053	-1.0302833
5	0x3f08099b	0.53139657
6	0xbeff1868	-0.49823308
7	0xbec677ef	-0.38763377
8	0xbeec4d41	-0.4615269
9	0xbf221a5e	-0.63321483
10	0x3ee62314	0.44948637
11	0xbdb08168	-0.08618432
12	0xbf55e973	-0.8355934
13	0xbd8a7589	-0.06760699
14	0x3dcf3877	0.10118192
15	0xbe54399b	-0.207251
16	0xbefb1b97	-0.49044487
17	0x3c901f03	0.017592913
18	0xbe19561c	-0.14974254
19	0xbe0db084	-0.13836867
20	0xbca17e2c	-0.019713484
21	0x3e7bf3ad	0.24604674
22	0x3ef47d10	0.47751665
23	0x3f54586e	0.82947433

layers.2.weight f4 [12, 24]
0	0x3ec10df0	0.37705946
1	0x3dc2ea24	0.09517315
2	0x3f50dc5e	0.81586254
3	0x3db6444e	0.08899747
4	0xbe906b36	-0.28206795
5	0xbf2b0de2	-0.6681806
6	0xbdf6909c	-0.12039301
7	0xbee6ce96	-0.45079488
8	0xbf341426	-0.70343244
9	0x3e278f44	0.16363245
10	0x3e56d10c	0.20978183
11	0x3ede8e72	0.43468052
12	0xbf84864a	-1.0353482
13	0x3db15919	0.08659572
14	0xbd965645	-0.07340673
15	0x3c681112	0.014164226
16	0xbf2fbed3	-0.6865055
17	0xbf193b4f	-0.5985612
18	0xbe55e8a5	-0.20889528
19	0x3f075141	0.5285836
20	0xbd96d949	-0.073656626
21	0x3ce5e4c1	0.02806318
22	0xbf20fa09	-0.62881523
23	0xbfa036ac	-1.2516685
24	0xbf7f67c2	-0.99767697
25	0x3e8f3a37	0.27974102
26	0x3ec28208	0.3798983
27	0xbecf1610	-0.4044652
28	0xbe328e99	-0.17437209
29	0x3ec2ab1d	0.38021174
30	0xbca1d95e	-0.019756969
31	0xbe9fc33a	-0.31203634
32	0x3e8a7c8b	0.27048144
33	0x3da29067	0.07937699
34	0x3db85bd1	0.090018876
35	0x3cb7c8d2	0.022434626
36	0x3ed77143	0.420786
37	0x3f156593	0.58358115
38	0xbe069703	-0.13143544
39	0x3e1fdade	0.15610835
40	0x3f5a99b9	0.8539081
41	0x3df25937	0.11833423
42	0xbeaa58fa	-0.3327101
43	0xbf5866cd	-0.8453186
44	0xbd82883f	-0.06373643
45	0xbe9508c4	-0.2910825
46	0xbec89678	-0.391773
47	0x3e8962f1	0.268333
48	0x3ed9cdaa	0.42539722
49	0xbd6f1de2	-0.058378108
50	0xbea28a11	-0.3174596
51	0xbe388d2e	-0.18022606
52	0x3f00e480	0.50348663
53	0xbf951389	-1.1646587
54	0xbd5d5c94	-0.054043368
55	0x3dd4b2d4	0.10385671
56	0xbd9eb8ee	-0.07750116
57	0x3e8720f5	0.26392332
58	0xbed63eba	-0.41844732
59	0xb9e73249	-0.0004409722
60	0x3e9c374a	0.30510932
61	0xbdf8335a	-0.121191695
62	0xbf02c970	-0.5108862
63	0x3f0b9e9b	0.5453889
64	0xbef15095	-0.47131792
65	0x3fb62633	1.4230407
66	0xbf6cc193	-0.9248287
67	0xbe9e6b48	-0.30941224
68	0xbe36e861	-0.17862083
69	0xbf7413dd	-0.9534281
70	0x3d9db0ca	0.076997355
71	0x3e499cfe	0.19688794
72	0x3ea70d2b	0.32627234
73	0x3e9464ae	0.28983063
74	0x3e72d9a7	0.2371584
75	0x3e19f367	0.15034257
76	0xbf3f39a3	-0.7469732
77	0xbe2c7b54	-0.16843921
78	0x3de90890	0.11378586
79	0xbea2579c	-0.31707466
80	0x3e79735e	0.24360415
81	0x3d6948a8	0.056954056
82	0x3f3348f0	0.7003317
83	0xbde49a47	-0.111622386
84	0x3d0eb819	0.034843538
85	0x3be4a31b	0.0069774515
86	0xbf71213c	-0.94191337
87	0x3f79873c	0.97471976
88	0x3eca3b8d	0.3949856
89	0x3eb5d012	0.35510308
90	0x3fb68ef6	1.4262378
91	0xbf357e56	-0.708959
92	0x3e8326b5	0.2561547
93	0x3eb21ac1	0.34786037
94	0xbe0fe068	-0.14050448
95	0xbeb1c57f	-0.3472099
96	0x3e984693	0.29741344
97	0xbe86f4b6	-0.26358575
98	0xbcedac21	-0.029012742
99	0xbef21f50	-0.47289515
100	0xbf989639	-1.1920844
101	0xbe9713b4	-0.2950722
102	0x3e7ffe2c	0.24999303
103	0xbcc7ee3c	-0.024405591
104	0xbf7e687d	-0.99378186
105	0x3f1f9672	0.62338936
106	0xbf1177b5	-0.56823283
107	0x3ee5e875	0.44903913
108	0xbe5b3d2c	-0.21410054
109	0x3ec848d8	0.39118075
110	0xbf6bb7b4	-0.92077184
111	0xbf5ca9c1	-0.86196524
112	0xbd3aef1d	-0.045638192
113	0xbf5235a5	-0.82113105
114	0xbe357fa7	-0.17724477
115	0x3f0e2417	0.5552382
116	0x3d1ff7a8	0.039054543
117	0xbf8e44c7	-1.1114739
118	0xbe8054c0	-0.2506466
119	0x3eccbb06	0.39986438
120	0xbf2cb293	-0.6745998
121	0x3ea1fe3d	0.3163928
122	0x3dfee6f2	0.12446393
123	0x3ea5452f	0.32279345
124	0xbe4c2f44	-0.19939905
125	0x3dbdd688	0.09269434
126	0x3eacd6d7	0.3375766
127	0xbf445dfc	-0.7670591
128	0xbea0676b	-0.31328902
129	0x3f005d6a	0.5014254
130	0xbef5b014	-0.479859
131	0x3db50f58	0.08840817
132	0xbe87f92f	-0.265573
133	0x3f3d9d59	0.7406822
134	0x3e5110e4	0.204166
135	0xbe932b64	-0.28744042
136	0x3eb4d9b4	0.35322344
137	0xbe53a462	-0.20668176
138	0xbf086d91	-0.53292185
139	0x3eb20efd	0.3477706
140	0x3f505334	0.8137696
141	0xbe476be6	-0.19474754
142	0xbda15525	-0.07877568
143	0x3d0b2f48	0.033980638
144	0x3f6c948c	0.92414165
145	0xbf045bb6	-0.5170244
146	0xbedabe0d	-0.42723122
147	0xbd18182c	-0.037132427
148	0x3ebcca9c	0.3687333
149	0xbf15020f	-0.58206266
150	0x3f2b90fb	0.670181
151	0x3f544726	0.82921064
152	0x3ecfda1c	0.40596092
153	0xbe1237f0	-0.14279151
154	0x3d89a85c	0.06721565
155	0x3ed2ff68	0.41210485
156	0xbd4299c0	-0.04750991
157	0xbf00e9b0	-0.5035658
158	0xbdf75f3e	-0.12078713
159	0x3e5a2a33	0.2130516
160	0xbd0fb743	-0.03508688
161	0x3f9a7232	1.20661
162	0x3d94721f	0.07248329
163	0x3f0a8472	0.54108346
164	0xbee54aa8	-0.4478352
165	0x3f7e7f5b	0.9941308
166	0x3e9b89e4	0.3037864
167	0xbe18c61a	-0.1491932
168	0x3efecd94	0.4976622
169	0x3ef7fe71	0.4843631
170	0x3ef3b57b	0.47599396
171	0xbede52fc	-0.43422687
172	0xbd814964	-0.06312826
173	0xbe9fbeed	-0.31200352
174	0x3ebf6672	0.37382847
175	0x3e97e4b9	0.2966669
176	0x3d5584bd	0.052128542
177	0x3cf27f9d	0.029601866
178	0x3eea49e0	0.45759487
179	0x3fa3aea4	1.2787671
180	0x3e1f373c	0.15548414
181	0x3e1a255b	0.15053312
182	0xbf415d21	-0.7553273
183	0xbeb9a40f	-0.3625798
184	0x3e5d4ffb	0.21612541
185	0x3e44af9f	0.19207619
186	0x3e8901f6	0.2675931
187	0xbf5f1ddf	-0.87154955
188	0xbf01d7a2	-0.50719655
189	0x3ea6853f	0.32523534
190	0xbf038873	-0.5138008
191	0xbf432999	-0.7623535
192	0xbe4949aa	-0.19657007
193	0x3db88a5e	0.090107664
194	0xbed006c4	-0.40630162
195	0x3cd2629e	0.02568179
196	0xbef34ace	-0.4751801
197	0xbe04e65c	-0.129785
198	0x3f1bc345	0.6084483
199	0x3eaff318	0.34365153
200	0x3e0a9984	0.13535124
201	0xbd0498f9	-0.03237245
202	0x3eed4445	0.46341148
203	0x3f662434	0.8989899
204	0xbf3a4a26	-0.7276939
205	0x3e9b381f	0.30316254
206	0x3c9b5de2	0.018965665
207	0xbeabae13	-0.33531246
208	0xbe7bd1ba	-0.24591723
209	0xbcb85a8f	-0.02250412
210	0x3f2a9735	0.66636974
211	0xbf000e35	-0.5002168
212	0x3ec50276	0.3847844
213	0x3f9ef7a4	1.2419324
214	0xbebe8016	-0.37207097
215	0xbefa485f	-0.4888334
216	0x3f2b5a5e	0.66934764
217	0x3ccf886d	0.025333608
218	0x3f9fe89a	1.2492859
219	0x3e6c3c18	0.23069799
220	0xbeb63de2	-0.35594088
221	0xbedfefa5	-0.43737522
222	0x3e950837	0.2910783
223	0x3d98899c	0.07448122
224	0xbf0791a6	-0.52956617
225	0x3f0023b2	0.50054467
226	0xbf0425f3	-0.51620406
227	0xbf08a295	-0.5337308
228	0xbe81a0fe	-0.2531814
229	0x3e8338c7	0.25629255
230	0xbe393bab	-0.18089168
231	0xbf8aa14a	-1.0830472
232	0x3e95a5c1	0.29228023
233	0xbe12b12c	-0.14325398
234	0xbf802d50	-1.0013828
235	0xbec3bf67	-0.38231966
236	0xbea60aa5	-0.32429996
237	0xbf91838e	-1.1368272
238	0x3de142ed	0.10999093
239	0xbf3ed9f3	-0.74551314
240	0x3e202120	0.15637636
241	0xbd95c813	-0.07313552
242	0xbe6c60c8	-0.23083794
243	0x3cdb0515	0.026735822
244	0xbf2386f1	-0.6387778
245	0xbe8648cf	-0.26227424
246	0xbf435dcc	-0.76315
247	0x3e3b0370	0.1826303
248	0xbebe218e	-0.37134975
249	0xbb96d516	-0.0046030385
250	0x3edc3637	0.43010113
251	0x3d36418e	0.04449611
252	0x3debfb33	0.11522522
253	0x3ed4d814	0.41571105
254	0x3e83acf2	0.25717884
255	0xbe28a04e	-0.16467401

layers.2.bias f4 [12]
0	0x3e4d3115	0.20038255
1	0xbea083bf	-0.31350514
2	0xbed9a375	-0.4250752
3	0xbea332a5	-0.31874576
4	0x3db5d429	0.08878357
5	0x3f2bdfda	0.67138445
6	0xbecd2e38	-0.40074325
7	0xbf93b0b0	-1.1538296
8	0xbf9eb112	-1.2397788
9	0x3e7107d6	0.23538145
10	0xbdc7a3f2	-0.09748067
11	0xbe1ea672	-0.15493181

layers.3.weight f4 [2, 12]
0	0x3f31ce92	0.69455826
1	0xbd3dbddf	-0.046323653
2	0xbf0e328c	-0.5554588
3	0xbdf82483	-0.12116339
4	0x3fb568f6	1.4172657
5	0x3e477a9a	0.19480363
6	0xbe92a271	-0.28639558
7	0x3dd3d00b	0.103424154
8	0xbf49e4cc	-0.7886474
9	0x3f9133b6	1.1343906
10	0x3e71ccb5	0.23613246
11	0xbbf374aa	-0.007429679
12	0xbcb5b847	-0.022182597
13	0x3e016d10	0.1263926
14	0x3ef2ff34	0.4746033
15	0xbefac739	-0.4898012
16	0x3e11781f	0.14205979
17	0xbd24b063	-0.040207278
18	0xbf308440	-0.689518
19	0x3e8cc983	0.2749749
20	0x3e362117	0.1778606
21	0xbe1b7419	-0.15181006
22	0xbdef4a23	-0.11684062
23	0x3f34ca1e	0.70620906

layers.3.bias f4 [2]
0	0xbeb835ff	-0.35978696
1	0xbef1c18b	-0.47217974
