saved_models/ddpg_model_longer_run.pth (torch_old, 360262 bytes, 30 tensors)

layers.0.weight f4 [48, 24]
00000000: 49d6 9dbf ddb4 b33f 02e7 d33c 1885 cf3d
00000010: 1c10 db3d e835 1440 0c7d df3c cd1d 943c
00000020: 0266 c3bf e263 b73f 1f5a 263e 54fc 7dbd
00000030: 3108 de3e b815 d7bf 3dbc 503e add4 423e
00000040: 0c1b d4bf c4e8 fc3f 5ddd 243e afaa 593f
00000050: a9ea 5d3f e7d0 fbc0 2705 2f3e cb25 283f
00000060: 459e 963f 9017 d6be b46a c2be 1e44 9e3e
00000070: b062 2cbf ff09 45c0 e9b9 8fbe e888 b23e
00000080: c2c7 943f d751 f0be da7c 48be 56f9 4a3d
00000090: ccf3 6c3e 46a4 dabf 3657 6abe cc01 043e
000000a0: 4edb 953f 01bd 32bf cfb9 f8bd bd91 e63e
000000b0: 5e03 d03f 5963 82bd 4ef3 4abe df52 d03e
000000c0: f13d 423f 34c6 94bf 3929 043e ae6a 80bd
000000d0: 4b1a aebf 5886 b03c dde6 c03d fbd5 84be
000000e0: 2255 903f ca49 c4bf 4749 723d cb0a 9cbe
000000f0: 1566 cdbf 4ac4 c43f 55f7 843d 9b15 9cbe
00000100: b35d 893f 5c17 06c0 f6b2 d1bc d5c2 fb3e
00000110: feba 01c0 055e 3140 790b 393e 0c9e 1c3f
00000120: 6e83 853e 57b2 93bf 2375 99bd 648a 43bf
00000130: f1d8 353f 3772 c0bf 5ad1 05be 3c4e 55bf
00000140: 161e b13e 9e46 c9bf 220f 99bd a688 35bf
00000150: 9d2b 2c3f 9607 90c0 2b8b bcbd 2bab f2be
00000160: d88f 9abd 0f45 c5bf 2351 01bf 9eb2 53bd
00000170: 0096 8e3f 63c4 b2c0 924e d2be c472 f2bc
00000180: 14f9 523f 6ec6 823e e368 eebd bc8d 693e
00000190: 4287 d7be de3e 0b3f 6ac3 42be f225 503d
000001a0: 0eea f53e f8b6 8d3e 5f3e 1abe e34b b53e
000001b0: 1f69 4dbf 06dd e13f 505c 5d3d 83c4 c73e
000001c0: 79cc 473f 160b d03e 6f27 153e c7d0 573f
000001d0: 8c35 54bf 71e4 2c40 8b8d 233e 985d 783f
000001e0: 4c51 1ebf a3b8 4140 3a8f 963e bc7f dd3d
000001f0: 839d 7bbf a0f8 e03e dc99 6e3e e60a 39bd
00000200: c306 01bf 6303 5b40 99d9 e1bb 7279 023f
00000210: e40b 79be 24a6 4ec0 89a7 98bc e0c8 ee3e
00000220: 5517 65bf 027d 7340 3826 13be a042 473f
00000230: 4483 833f bd95 aac0 5e98 7d3d f09c 823f
00000240: ea8a 573c 1a32 a63d 5049 383d 9db2 0abf
00000250: 08bb 97bf b064 50c0 3c43 243e dc49 ecbe
00000260: 42c2 05be 30c6 3dbe b207 c63e fe26 d5be
00000270: 1adb 033f 3506 053e da33 773e 62cc d4be
00000280: 8908 38bd b3be 99be 1673 06be a7fa ecbe
00000290: 570e 1740 f946 8a40 96fb 4bbe 8f7b c6be
000002a0: 9558 893f 47c2 0b40 0600 3cbf a14a 853e
000002b0: 0998 593f b6d3 9dbf 80f7 52bf c065 543e
000002c0: c997 993f 7b41 1440 8bd7 19bf b91b 8ebe
000002d0: 5b4b 5f3f 7fe2 a4bf f7ec 23bf 3f9d 66be
000002e0: 78d1 c83f 0109 f23f ef1d 963e 6d79 02bf
000002f0: 40f2 843f 0e73 84be 1526 d23d da58 e6be
00000300: 3def 153f 2b74 58bf fd33 853e 886b e63d
00000310: b844 86bf 9f93 83be 8c54 373e a57e 7d3e
00000320: 34bb 6c3f 0a56 3dbf a9d6 3e3e de72 46bd
00000330: e6d0 f9bf b8df 3f3e cc57 eb38 b47d 63bd
00000340: a5ce 2e3f 7a6f 92bf 96e8 b23e 30c9 073f
00000350: aaea 2bc0 2edb b33e 4454 d13e a6c9 c53e
00000360: a160 063e e0f8 253e f29a 123e 02fb 23be
00000370: 3e0b 2940 fecf c13d 1134 cfbd 68ac 4dbd
00000380: f773 b83e ae39 ae3e e441 aabe 0fd5 b53d
00000390: d08c 5340 f69f 383f 7626 9dbe 48cf 0fbc
000003a0: 6f4f 3c3e a830 1c3e 54b3 05be 0629 19be
000003b0: 27d3 5440 b842 b23f 21bc 51be fb89 17bc
000003c0: 5c5a 73be fd0a 83bf 0bef 0a3c a430 bebe
000003d0: 8c93 e0bf ea40 4cc0 2204 923c e348 c2be
000003e0: 91e1 04bf eca8 48bf 5991 8f3e 02c7 88be
000003f0: 77db 213e eb94 01c0 cffa 543e d326 89be
-1.233102 1.403957 0.025866989 0.101328075 0.10696432 2.3157902 0.027281307 0.018080616
-1.5265505 1.4327357 0.16245316 -0.062008217 0.43365625 -1.6803503 0.20384307 0.19026442
-1.6570754 1.9758534 0.16100068 0.8502607 0.8668619 -7.869251 0.17091809 0.6568267
1.176705 -0.41814852 -0.37972033 0.30911344 -0.67338085 -3.078735 -0.28071526 0.34870076
1.1623461 -0.4693744 -0.19578877 0.04955419 0.23139876 -1.7081382 -0.22884831 0.1289131
1.1707551 -0.6981965 -0.12144815 0.45033064 1.6251028 -0.06366605 -0.19819376 0.40688226
0.75875765 -1.1622987 0.1290635 -0.062703475 -1.3601774 0.021548435 0.09419034 -0.25944504
1.127598 -1.5335019 0.059151914 -0.30476984 -1.6046778 1.5372403 0.06492487 -0.30485234
1.073172 -2.0951757 -0.02559803 0.49172083 -2.027038 2.7713635 0.18070783 0.6117866
0.26076835 -1.15388 -0.07493045 -0.7638304 0.7103415 -1.5034856 -0.13068143 -0.833225
0.34593266 -1.5724676 -0.074735895 -0.70911634 0.6725405 -4.500926 -0.09206232 -0.47396216
-0.07546967 -1.54117 -0.5051443 -0.051684014 1.1139526 -5.586473 -0.4107557 -0.02959574
0.82411313 0.25542015 -0.11641099 0.22807974 -0.4209538 0.543928 -0.19019857 0.050817437
0.48030132 0.27678657 -0.15062855 0.3540946 -0.8023853 1.7645576 0.054043114 0.39017114
0.78046376 0.40633458 0.14565824 0.84302944 -0.82894206 2.701443 0.15971963 0.9701781
-0.618428 3.0268943 0.29406148 0.10815379 -0.9828722 0.43939686 0.2330088 -0.04517641
-0.5040094 3.4220817 -0.0068923947 0.5096656 -0.24320942 -3.2288904 -0.018634574 0.4663763
-0.89488727 3.8045049 -0.14370048 0.77836037 1.0274434 -5.3307786 0.061912887 1.0204144
0.013155678 0.08115025 0.04499179 -0.5417879 -1.1853952 -3.2561455 0.16041273 -0.461501
-0.13062385 -0.18532634 0.38677746 -0.4163131 0.515062 0.12990649 0.24140874 -0.41562182
-0.044930015 -0.30028304 -0.1312984 -0.46284983 2.3602502 4.3211637 -0.19920191 -0.38766143
1.0730158 2.1837327 -0.73437536 0.260335 0.8499761 -1.2330234 -0.82408905 0.2074194
1.1999446 2.3164966 -0.6009452 -0.27755526 0.8722436 -1.2881621 -0.64033455 -0.22520922
1.5688925 1.8908998 0.29319713 -0.5096653 1.0386429 -0.2586903 0.1026117 -0.44989663
0.58568174 -0.8455226 0.26016226 0.11250979 -1.0489721 -0.25698563 0.17903346 0.24755342
0.9247315 -0.7395941 0.18636574 -0.04844939 -1.9516876 0.18737686 0.00011222027 -0.0555398
0.68284065 -1.144027 0.34943074 0.5304136 -2.6861978 0.35128158 0.40884602 0.38630408
0.13122799 0.1620822 0.1431692 -0.1601372 2.6413112 0.094634995 -0.10117353 -0.050213248
0.36025974 0.3402838 -0.33253396 0.08878528 3.3054695 0.7211908 -0.30693406 -0.008777447
0.18389677 0.15252936 -0.1305669 -0.14957055 3.3253877 1.3926611 -0.20481922 -0.009249206
-0.23764938 -1.0237728 0.008479844 -0.37146485 -1.7545028 -3.191462 0.017824236 -0.37946233
-0.5190669 -0.78382754 0.2804058 -0.2671433 0.15806375 -2.0247142 0.20798801 -0.26787433

layers.0.bias f4 [48]
00000000: 62fb 3f40 063e 1ec0 2132 a43d dc0d 2d3e
00000010: c898 56bf b201 be3f 489e c7bf 9ca7 b8bf
00000020: 12f0 16bf 98fe 28bf 0c7d 9bbf 36ea 573f
00000030: cf41 bbbf 8ffb 75bf 10e6 9dbf 4bf2 a1bf
00000040: 82c6 b3bf 2857 b93f 52ec 83bf 7458 62bf
00000050: 6cad 0e40 e906 85bf e81f eb3f 35ad 39bf
00000060: c658 d93e 4720 0fc0 ec10 233f a24a dbbf
00000070: d175 2dbf cbb5 a6bf 693b acbf 5be8 e1bd
00000080: 2bb4 c1bf 8411 73bf b60a 8dbe 5cd4 413f
00000090: 4664 b93f 0354 44bf 1a1a 9abf f0f5 b33e
000000a0: 12df 0ebf 8ae1 f23e 7d96 c4bf dbc9 f6bf
000000b0: 3bdc febf a39e 13bf f0f0 a2be 0e5b 7dbf
2.9997182 -2.4725356 0.08017374 0.16899818 -0.83826876 1.4844267 -1.5595179 -1.442615
-0.5896007 -0.6601348 -1.2147536 0.8434175 -1.4629458 -0.9608697 -1.2335835 -1.2652067
-1.4044955 1.4479723 -1.0306494 -0.8841622 2.2293348 -1.0392734 1.8369112 -0.7252992
0.4245054 -2.236345 0.63697696 -1.7132151 -0.677579 -1.3024229 -1.345563 -0.110306464
-1.5133108 -0.949486 -0.27547234 0.7571466 1.4483726 -0.7669069 -1.2039216 0.35148573
-0.5580913 0.47437698 -1.5358425 -1.9280351 -1.9910959 -0.57663935 -0.31824446 -0.98967063

layers.1.weight f4 [24, 48]
00000000: b45d 3cbf 2e26 bbbf cc14 da3f e9fe d6bf
00000010: a5e8 063f 340c 85bf 7584 a3bf 900e 503f
00000020: 8036 1f40 82b1 e03f c026 09c0 eaa5 863f
00000030: 8ff5 6fbe ec20 58bf 0a74 6ebe 676d 29bf
00000040: c34f 1d3e bf15 bc3e 21e2 1ebf e1bf 36c0
00000050: a96c 4ebd 8b2b 0d3f a038 973e eb86 b0bd
00000060: bf04 41bf 2aa4 463e 7dc0 823f fa34 aa3e
00000070: 8b44 5dbe 8c4b 353e 0710 e93e e324 a1bf
00000080: f942 3ebf 50b1 99c0 ee63 503f d4e5 123e
00000090: 326f 4b3f 3141 d13d a596 3f3e 842e 573f
000000a0: ccac c8be 196e 963f 9b93 9dbe 974a ae3e
000000b0: e463 d03d 92a6 233f 3375 90be b05d b3be
000000c0: 1dfb bcbf 6500 713e 8c51 b03e aab2 6abf
000000d0: f8b4 083f 69f4 dbbe 7fab b33f 3441 ae3f
000000e0: 56d3 833f 0ec6 a3bf ec0e b13f e3db 1ebf
000000f0: 64b8 623f 9ba2 5a40 b96b 823f e15b a03f
00000100: 3b4e 323f 09a7 6ebf 35b5 703f 0836 ae3f
00000110: ffc6 6dbf 431d 093f 5c7a 6ebf b99f fabd
00000120: e85b 81be 4d1b a0bd 95e8 993e bf51 a93f
00000130: af9f 5f3f d54d 473c ecf5 3c40 f9a0 1640
00000140: 34bf 333f 080a 4f3f 3bbf 8e3f ef25 ccbe
00000150: 214d 47bf 853d 4240 e0b6 933f 2203 2abf
00000160: 4eb5 d83c 79a8 c8bf e795 973f 64c9 983e
00000170: 45ed a23f 785b 0a40 438c ae3f 81c2 0f3f
00000180: 3b86 b73e db94 8abf efcb 1abd 1917 97bf
00000190: a112 dc3b 64a7 8abf cf1b bdbd 2694 733c
000001a0: 938d 993e c749 89be a2b0 b7bd 007d 3dbe
000001b0: 57c5 813e 7760 dcbf 67b1 dd3a 64ca 7abe
000001c0: 5998 0a3c 35ba 2b3f 3e79 cdbe e237 b1bf
000001d0: 7c4b 1b3f 34ff 563e ecdf fa3e 474d 213f
000001e0: 2046 b9be accc f73e d134 cf3e fb44 a73e
000001f0: 06f9 de3d d350 f4bf 520c 293f 9ecb 053f
00000200: 85d9 7abe 818f 08c0 6639 3e3f 522f 3dbe
00000210: 2190 c03e 2f2a 343f 0583 37be f912 c9be
00000220: ae0a 58be a05e 0a3f 9fcc 20bf 4471 0ec0
00000230: f73e 94bf d471 13bf d10e 0fbe 280d 0a3e
00000240: 4f93 e8bf 8025 d53d 6a99 bb3e 6515 163f
00000250: 3719 af3e ba57 e2bf 1c10 993e b08b 4cbe
00000260: 23cd 423e 70fe 19bf dfd5 9ebf e5a6 3abf
00000270: f8e6 b9bd e0d8 ecbe e1da d8be 02a9 a3be
00000280: 67f1 69bf c477 f3bd b370 bcbd 1a40 143f
00000290: d438 bbbf cadc bf3f ca87 c9be 36fb cf3e
000002a0: cac7 cdbe e8bc cabd eeb7 93bf ac80 1dbf
000002b0: dbf2 963f 2154 34bf c926 633f e704 353f
000002c0: 8cc8 973e db2f 2d3f b5a3 03bf a99b b13f
000002d0: bd71 dbbf 59e0 20c0 8137 f2be 6857 b53e
000002e0: 7f26 5a3f 5765 d6bf c097 d63e 1536 f4be
000002f0: da4b 6d3e 4a7c a73f 7b22 693e 5faf 183e
00000300: e89d f7bd 27a1 b1bf dbab 11bf ec74 2ebf
00000310: 5095 f33e 77a2 cebb 6246 8b3f c5b0 b93c
00000320: c1bf bebf 025e 653f 2951 333f 1891 12bf
00000330: e594 7c3f 9dde d5bf 710e c0be 7cf3 a23e
00000340: 5c75 383f 37c8 573f c087 a33e b48a 343f
00000350: e340 903c b6a8 e4ba 8e4b 3b3f 6918 88be
00000360: 6933 443f c8fc 263f 1f8b fbbe b790 9fbe
00000370: 57c5 293f 0ba4 7fbf d454 adbe 2dec 9d3e
00000380: ba65 89bf b22e 853f 0da5 55bd 1cd7 113e
00000390: cac3 9ebe 8bec 25c0 22aa 8bbe 5b89 a13e
000003a0: 2f0e 163f b85f c3bf 5b43 bfbf 801f 793f
000003b0: fede 6c3f 4644 40be d901 243f bf9e 8d3e
000003c0: 6687 85bf c7ea 4d3e 525d 9e3f ba69 183f
000003d0: d783 363d d3dc 953e ea92 5b3f 6787 113f
000003e0: fd7d 64be 3f43 dfbf 1955 b73f bdf3 33bf
000003f0: 95b7 483f dadf 2d40 53fd 85be 020c 8e3f
-0.7358048 -1.4621027 1.7037597 -1.6796542 0.5269874 -1.0394349 -1.2774798 0.8127222
2.4877014 1.7554171 -2.14299 1.0519383 -0.23433517 -0.84425235 -0.23286453 -0.6618256
0.15362458 0.3673534 -0.62063795 -2.8554614 -0.050396595 0.55144566 0.2953539 -0.086194836
-0.75397867 0.19398561 1.0214993 0.33243543 -0.21608178 0.177046 0.4552004 -1.2589382
-0.7432094 -4.8028946 0.8140248 0.14345485 0.79466546 0.102175124 0.1870981 0.8405535
-0.39194334 1.1752349 -0.30776677 0.34041283 0.101753026 0.6392604 -0.28214416 -0.35032415
-1.4764134 0.23535307 0.34437215 -0.9167887 0.53401136 -0.42959908 1.4036711 1.3613648
1.029887 -1.2794816 1.3832679 -0.6205427 0.8856261 3.4161747 1.0189124 1.2528039
0.6965062 -0.93223625 0.940265 1.3610239 -0.9288177 0.53560275 -0.93155456 -0.12237496
-0.2526543 -0.07817707 0.30060259 1.3228072 0.8735303 0.012164553 2.9525099 2.353575
0.7021363 0.8087468 1.1152109 -0.3987269 -0.77852064 3.0350049 1.1540184 -0.6641103
0.02645364 -1.5676414 1.1842622 0.2984115 1.2728659 2.1618328 1.3636554 0.56156164
0.35844597 -1.0826677 -0.037792142 -1.1803924 0.006716088 -1.0832334 -0.0923382 0.014866864
0.29990825 -0.268141 -0.08969237 -0.18504715 0.2534587 -1.7216939 0.0016913832 -0.24491268
0.008459174 0.67081004 -0.40131563 -1.3845179 0.60662055 0.2099579 0.48998964 0.6300854
-0.36186314 0.4839834 0.40469983 0.32669815 0.10887341 -1.9087166 0.66034424 0.5226382
-0.2449704 -2.1337588 0.74306333 -0.18475083 0.37609962 0.7037687 -0.17921074 -0.39272287
-0.21097824 0.54050636 -0.62812227 -2.2256632 -1.1581715 -0.5759556 -0.13970496 0.13481581
-1.8169955 0.10407543 0.36640483 0.58626395 0.34198925 -1.7683022 0.29895103 -0.19975162
0.19023566 -0.60153866 -1.2409018 -0.7291091 -0.09077257 -0.46259212 -0.4235449 -0.3196488
-0.91383976 -0.11888078 -0.09201183 0.5791031 -1.4626718 1.4989254 -0.3936141 0.40621346
-0.4019149 -0.09899312 -1.1540506 -0.6152446 1.1792864 -0.7044087 0.88731056 0.70710605
0.29645193 0.67651147 -0.5142167 1.3875629 -1.7144085 -2.513693 -0.4730797 0.35418248
0.8521499 -1.6749676 0.4191265 -0.4769751 0.23173466 1.3084805 0.2276706 0.14910649
-0.12090665 -1.3877305 -0.56902856 -0.6814716 0.47574854 -0.0063059884 1.0880854 0.022667298
-1.4902269 0.8959657 0.70045716 -0.57252645 0.98664695 -1.6708561 -0.37511018 0.3182639
0.72054076 0.8428988 0.31939507 0.70524144 0.017609065 -0.0017445299 0.7316216 -0.26581123
0.76640946 0.65229464 -0.49129578 -0.31165096 0.6631674 -0.99859685 -0.3385378 0.3084425
-1.073417 1.0404875 -0.052159358 0.14242214 -0.3100875 -2.5925624 -0.2727824 0.31550106
0.5861539 -1.5263586 -1.494243 0.9731369 0.9252776 -0.18776044 0.6406532 0.27660176
-1.0431945 0.20109092 1.2372229 0.59536326 0.044559326 0.29270038 0.8577105 0.5684723
-0.22313686 -1.7442397 1.4322845 -0.7029379 0.78405124 2.7167878 -0.26169834 1.1097414

layers.1.bias f4 [24]
00000000: f95c 743e 0aa7 f2bf b8e4 7e3f 4ede e3bf
00000010: ff3c 42be 1631 cabf 72e2 eabf f846 19be
00000020: bc46 2b40 eeed 59bf 08c6 103f 35b8 c4bf
00000030: 91ac 73be 13cd 99be 40e8 793f 1445 b2bf
00000040: f683 f0bf f8da 3ec0 aeab 2c3f ca0e 8e3e
00000050: 0a32 983e 87e0 30bf 7e00 05c0 88c0 82bf
0.23863591 -1.8957226 0.9956775 -1.7802217 -0.1896858 -1.579623 -1.8350356 -0.14968479
2.6761923 -0.85128677 0.5655217 -1.5368716 -0.23796298 -0.30039272 0.9762001 -1.3927331
-1.8790271 -2.9821148 0.6744946 0.27745658 0.29725677 -0.690926 -2.078155 -1.0215006

layers.2.weight f4 [12, 24]
00000000: 5a3e 96bf 97d5 7dbf f510 04bf 833e 55be
00000010: 6796 bcbe 215e abbf a335 29c0 9180 d8bd
00000020: f3ed 393f ba2d d93e 06c3 8a3f bee7 4dbf
00000030: eba9 80bf 1901 c2be 152e f1be ada5 d2be
00000040: 3fa4 b7bf b3f2 0bc0 c81a 63bf 8950 71bf
00000050: 08fc 5a3e fdb5 1ac0 4754 0dc0 fe0a 52bf
00000060: 41e2 79bc 4f40 94bf 795b 31bf d5b9 113f
00000070: 36ff 673f 8c7a d13e ed75 0bbf 75d1 f1bf
00000080: 0791 65bf b547 b23f 5a8c 453f f599 c0bf
00000090: a696 4e3f 3a77 dcbf 0fd8 61bd 7b4b cebf
000000a0: 4d7a 953d efb4 b93e 9c75 3c3f 616b 01c0
000000b0: 1c3f 54bf 4efa 473f 9d6d 88be f0af a2be
000000c0: c059 f7be 2504 98c0 3d71 42bf 6393 cb3e
000000d0: be1e b43f 8fb4 a63e dd6e 213f b203 fabf
000000e0: 29e1 49bf ebf0 033e 5afe bdbf 5663 b83d
000000f0: 51ee 33bf 40e0 5b40 d5fc e83d 8db0 29bf
00000100: 8b29 3bbf 5ce5 cf3e 583e a23e 942b f6be
00000110: 9dd3 7e3e 4a3f 613f 7008 003f 4c4c 013f
00000120: f2d9 dabf b346 f2bf 05eb 36bf db29 d0bf
00000130: 0696 57be a0b4 9cbd d11b 05be db1f e43e
00000140: 7433 8b3e 439e e0bf 9f28 39bf eeb0 7ebf
00000150: e733 c3bf 9a35 2040 8398 66be 647f 83bf
00000160: d904 22bf 0316 c1bf 59dc e63e 8e8a 49be
00000170: 9ead 70bf 00bf 763d a67b e8bf 52db 00c0
00000180: b1f7 873e 9129 023f 3e4b bfbe 9334 0cbf
00000190: 8eb3 c53f a1d9 873e cad0 953f 43cd fc3f
000001a0: b6b9 c4be 2909 7b3e 5521 f23f 800e 60bf
000001b0: 9fc2 47bf 9b2d 2fc0 83a3 f3bf 78df c4be
000001c0: 7c05 a63e 8bb4 a7bf b173 3dbf 044f 8abf
000001d0: c3b2 02c0 4f7d 9dbe fda2 21be 1a01 313c
000001e0: ca7e 7ebf 92fb 0cbe f0da 36bf 9843 6b3f
000001f0: 1efd 233f ceaa 18bf 526e 1440 abb0 b53e
00000200: d3ba a83c 652c 153f d155 a03e bf8f 2b3f
00000210: c564 b9bf 62c3 a93f b173 6c3f 74d5 86bf
00000220: f21a 9d3f fbfa 803f 92d0 c5bf bf6b acbe
00000230: deea 533f 7cf1 3a3f 4468 bbbe e37f 07c0
00000240: e513 b2bc 3386 c73f cd5e ae3e 4bcb bbbf
00000250: 027e 80bf aaa3 803f 26fd f93e 6313 823d
00000260: 2650 4b3c 116b 8f3e 32ae bcbe 6378 693f
00000270: 1320 8b3f 9bc3 f2bf f9d2 1bbf 1cf8 d53c
00000280: f8e3 953f 717a ac3f ee27 9ebf 2e35 d5bf
00000290: 23d4 a5be 040f 95be 4a61 a33f 5de2 b33f
000002a0: 4e83 ccbf 7efa 923f f4ba c73e e421 db3f
000002b0: 58c8 633f 3cc3 2040 2304 18be b1da 9d3e
000002c0: 8d14 84bf 6d7c 0a3f cdbc df3e 5b60 ec3e
000002d0: bf08 7d3f 4a13 b0bf 1fd3 c1be 890a 2d3d
000002e0: 12b7 ccbe a0cc a63f a1e5 283e 8787 42be
000002f0: 021f d5bf cca3 01c0 628f 643f d9d1 2d3f
00000300: c1fe e1bf 3845 363f 8536 e9be d735 c4bd
00000310: 20ea 15bf 2e8d 5c3f f65f 16bf 632a 77c0
00000320: d493 383e dbbd 343f f768 35bf 8a4f 7fbe
00000330: 7643 5ebf 7db8 e93e f905 323d 5939 6dbf
00000340: d061 09c0 e11b 24bf 3176 1a3f 48ba d2bf
00000350: 0f5e 8e3f bf1f 76c0 2c61 96bf be2f 2ec0
00000360: 4a79 0cbe 4401 af3f 3c7c 053f b736 2340
00000370: bce2 4f3f b42d f9bf c942 373f 6040 a83f
00000380: 39b3 24bf c88e cd3f 9a7a e4bd 731e 0140
00000390: f762 863f d1e6 a03e d994 203f 598c a03f
000003a0: 2702 0a3f 4364 2540 2343 a2bd eef9 203e
000003b0: c812 00be 337c 9b3e 554b e33f cfc1 8bbf
000003c0: 64fb b1bf 8557 9cbf 0a25 cd3e da7d 9e3f
000003d0: df27 fa3e 9b63 d7bf 0801 83be 9f71 b1c0
000003e0: a2cc 75bd 1918 e13f 108e 8bbf 5f2b 0a3f
000003f0: d80a 703f 984c d03f 24bf 7b3f c01b 4a3f
-1.1737778 -0.9915404 -0.51588374 -0.20824628 -0.36833498 -1.3388101 -2.6438987 -0.10571397
0.72628707 0.424177 1.0840766 -0.80431736 -1.0051855 -0.37891462 -0.4710547 -0.41142026
-1.4346999 -2.1866882 -0.8871274 -0.9426351 0.21385205 -2.4173577 -2.208269 -0.8204802
-0.015251697 -1.1582125 -0.692802 0.5692418 0.90623796 0.40913808 -0.54476815 -1.8892046
-0.8967442 1.3928133 0.77167284 -1.5046984 0.8069862 -1.7223885 -0.05513769 -1.6116785
0.07298718 0.36270854 0.7361696 -2.022179 -0.829088 0.7811631 -0.26646128 -0.31774855
-0.4831066 -4.750506 -0.7595404 0.39760885 1.4071882 0.3255963 0.6305979 -1.9532378
-0.7885919 0.12884872 -1.4843247 0.09003322 -0.70285517 3.4355621 0.11376349 -0.6628502
-0.73110265 0.40604675 0.3168819 -0.48080122 0.24885412 0.87987196 0.50012875 0.50507045
-1.7097762 -1.8927826 -0.7145236 -1.6262773 -0.21053323 -0.07651639 -0.12998892 0.44555554
0.27187693 -1.7548298 -0.7232761 -0.99488723 -1.5250214 2.5032716 -0.22519116 -1.0273252
-0.63288647 -1.5084842 0.45089987 -0.1968176 -0.9401492 0.060240746 -1.8162735 -2.0133862
0.2655616 0.50844675 -0.37362093 -0.5476772 1.5445421 0.26533225 1.1704342 1.9750141
-0.38422936 0.24515213 1.8916422 -0.87522125 -0.78031343 -2.7371585 -1.9034275 -0.38451743
0.3242606 -1.3101972 -0.74004656 -1.0805364 -2.0421607 -0.30759665 -0.15784831 0.010803485
-0.99412215 -0.13767841 -0.7142782 0.91900015 0.640581 -0.5963563 2.3192334 0.3548635
0.020596897 0.58270866 0.31315473 0.67016214 -1.4483877 1.3262751 0.9236403 -1.0533891
1.2273848 1.0076593 -1.5454276 -0.33675954 0.82780254 0.73024726 -0.36602986 -2.1171806
-0.021738002 1.5587829 0.34056702 -1.4671415 -1.0038455 1.0049946 0.4882595 0.06351354
0.012409246 0.28011373 -0.3685165 0.9119932 1.0869163 -1.8965944 -0.60868794 0.026119284
1.1710196 1.3474866 -1.2355936 -1.6656854 -0.3238841 -0.2911302 1.2764065 1.4053456
-1.5977571 1.1482694 0.3900982 1.7119718 0.88977575 2.5119162 -0.14845328 0.3083091
-1.0318772 0.5409611 0.4369873 0.46167263 0.9884147 -1.3755887 -0.37856385 0.042246375
-0.39983422 1.3031197 0.16493846 -0.18997012 -1.6650088 -2.0256224 0.89281285 0.6789833
-1.765587 0.7119937 -0.45549408 -0.09580582 -0.5856037 0.86152923 -0.58740175 -3.861962
0.18025142 0.70602196 -0.7086329 -0.24932685 -0.8682169 0.45648566 0.043462727 -0.9266563
-2.146595 -0.6410504 0.60336596 -1.6463099 1.1122454 -3.8456876 -1.1748405 -2.721664
-0.13718143 1.3672261 0.5214269 2.5502145 0.81205344 -1.9467072 0.7158628 1.3144646
-0.6433597 1.6059198 -0.11156197 2.0174835 1.0498952 0.314261 0.62727123 1.2542831
0.53909534 2.5842445 -0.079229616 0.1572034 -0.12507164 0.30368194 1.7757365 -1.0918521
-1.3904843 -1.2214209 0.4006732 1.2382157 0.48858544 -1.6827272 -0.25586724 -5.54512
-0.060009606 1.7585479 -1.0902729 0.5397243 0.93766546 1.6273375 0.9833853 0.78948593

layers.2.bias f4 [12]
00000000: 2f7f 953f cc50 163f 278c e5bf 2db9 a83e
00000010: e114 cf3e 65ee b9bf 1fa9 52bf 85a4 dbbf
00000020: cf10 79be c538 09c0 5f3f e33e 3dc6 dabe
1.1679438 0.58717036 -1.7933396 0.32953778 0.40445617 -1.4525877 -0.8228931 -1.7159582
-0.24322818 -2.14409 0.44384286 -0.4272937

layers.3.weight f4 [2, 12]
00000000: f033 493e 31d2 d5be 608a 2f3e 779d ad3e
00000010: a7f0 62bf 85db a93e 8914 6cbe bbb6 0cbf
00000020: 9ca3 e53e 5f52 39be bfc7 663f 0a16 353f
00000030: 971a d7be 78f4 0dbf c927 853f 703c 27bf
00000040: 0fbb 7e3e 620d 3940 90bd 86bf 9b17 b1bf
00000050: 7809 ddbf 234b cb3f dd2a 553b 3544 513e
0.19648719 -0.41761926 0.1714263 0.339092 -0.88648456 0.33175293 -0.23054709 -0.54966325
0.44851387 -0.18097828 0.9014854 0.70736754 -0.42012474 -0.55451155 1.0402766 -0.65326595
0.24876045 2.8914418 -1.05266 -1.3835329 -1.7268515 1.5882305 0.003252677 0.20436175

layers.3.bias f4 [2]
00000000: e94a dd3f 66d2 943e
1.7288486 0.2906677

layers.0.weight f4 [48, 24]
00000000: 9cec 9ebf bd05 b33f f7cc 4b3d cd86 b13d
00000010: 19ff c73d 1cb7 1440 ef97 513d c413 613b
00000020: d341 c4bf 7546 b53f 3991 3b3e bdf2 c6bd
00000030: 0c90 d83e 02c9 d5bf 96f3 653e 2bdb 1e3e
00000040: 22de d4bf f7ed f93f 5a2c 2a3e aa62 5c3f
00000050: 22cf 5a3f 8389 fbc0 2c54 343e 9edd 2a3f
00000060: 5723 993f 650d c7be 2dcc b5be f950 9a3e
00000070: 9a99 30bf c719 46c0 3a1b 83be f595 ae3e
00000080: 5862 973f 3c7f e1be a696 34be 6da8 d33c
00000090: d93f 5b3e 1e72 dcbf 1771 56be ad71 d73d
000000a0: b1ab 983f 31c6 2cbf 19c4 e3bd a514 dd3e
000000b0: 8df1 cc3f fda2 84bd af78 40be afd5 c63e
000000c0: fa44 473f 52d1 93bf f942 e93d bf95 65bd
000000d0: 6717 adbf 5d62 553b 24d7 a13d 5d6e 81be
000000e0: 31be 923f 7a73 c2bf efbb 503d 69df 8fbe
000000f0: 130b ccbf 4669 c23f 5a61 683d 31ea 8fbe
00000100: a6cd 8b3f c2e7 04c0 07f7 e1bc 4305 f53e
00000110: c1e6 00c0 c270 3040 ac03 373e 543f 193f
00000120: 0ab4 7a3e b215 91bf 7dc5 79bd 1a42 49bf
00000130: 36f7 303f 6365 bebf aa10 efbd 1106 5bbf
00000140: 2fdf a93e f381 c8bf e3d8 33bd 7666 40bf
00000150: b9fa 263f a6d9 8fc0 2ad1 7abd 0b33 04bf
00000160: 29de b4bd 1afd c5bf 8685 03bf 3871 5abd
00000170: 1dd4 8b3f 29d9 b2c0 36b7 d6be 70ef ffbc
00000180: 082d 533f b592 7f3e fd7a d3bd 6de8 7e3e
00000190: 5c35 d6be 3a1e 083f c34c 35be 20c7 923d
000001a0: 6bc4 f63e 128e 8e3e d7cf 19be 6317 bd3e
000001b0: dc7b 4dbf fbf9 de3f 7319 5f3d 0890 cf3e
000001c0: a6f7 473f 4094 d23e caa8 093e 0c81 573f
000001d0: 2ad5 54bf 7ecb 2a40 090f 183e 070e 783f
000001e0: 05da 22bf b5cb 4140 b3e1 9b3e 2f8f ba3d
000001f0: 1755 7ebf b782 e63e 823e 793e 1eee 7ebd
00000200: 11f6 04bf 0677 5a40 5bbb 9e3c 23a8 f33e
00000210: 4441 82be 980b 4ec0 c927 fa3b 297e dd3e
00000220: 2a54 69bf 297a 7240 b2d4 1dbe 49ce 493f
00000230: 31ff 813f 8573 aac0 40e1 523d dae2 833f
00000240: 7f00 ff3c d3a7 e73d 2622 2d3d 6e64 0abf
00000250: 00ad 94bf 4d69 50c0 d679 213e 5bad ebbe
00000260: a305 ecbd 1bd0 1abe e59f b53e 923d ccbe
00000270: 2a83 093f 7e13 063e b063 563e f7e2 cbbe
00000280: fb4f e8bc 9129 88be adf1 eabd 0c8d f6be
00000290: 875e 1840 e55c 8a40 8d01 3bbe dd0d d0be
000002a0: 7ecd 883f 6d35 0b40 9cc4 3bbf a31a 7b3e
000002b0: c5ed 573f b1c7 9ebf 13bc 52bf e4ea 443e
000002c0: 596e 993f 266f 1340 b2bb 16bf 8a4e 94be
000002d0: 4e5c 5d3f 4f5a a6bf 2ed1 20bf a102 73be
000002e0: ad2b c93f b531 f03f 7784 a23e 440b 03bf
000002f0: 6edb 833f 569f 8bbe 88df 013e 677c e7be
00000300: 66d0 183f 1cb4 58bf eb96 843e 06ea f53d
00000310: b729 86bf 1f99 88be 5a1a 363e 259f 823e
00000320: a140 6f3f 916c 3cbf 9a46 353e c4c7 20bd
00000330: b1e9 f8bf 21c2 393e b234 17bc 9cd2 3dbd
00000340: aeee 303f 9635 92bf a116 b63e 3820 033f
00000350: 8318 2bc0 2d79 b43e 6282 d43e 8b77 bc3e
00000360: 5f12 063e eea5 303e 70c6 ca3d a81b 2ebe
00000370: 2f74 2940 c42f bb3d 8fd2 14be 732d 76bd
00000380: 22fd b73e 176c b53e 19c4 aebe bc6f fb3d
00000390: 5501 5440 e0f9 363f 9da8 a1be bf80 ce3c
000003a0: d5bc 393e 4c9c 2f3e 8923 1abe 88c3 f4bd
000003b0: 3c57 5540 1323 b13f 962c 66be ca78 aa3c
000003c0: 5079 62be 0dde 80bf 06e7 f53b 663e b5be
000003d0: 09c2 dabf fad7 4bc0 a506 8a3c b656 b9be
000003e0: 139a 01bf 7a9f 42bf b9da 783e 7258 75be
000003f0: f189 4a3e 8c7e 01c0 8ab2 2e3e 1518 76be
-1.2415957 1.3986126 0.049756017 0.08668289 0.09765453 2.323676 0.051170286 0.0034344057
-1.5332588 1.4162127 0.18317117 -0.097142674 0.422974 -1.6701968 0.22456202 0.15513293
-1.663029 1.9525746 0.16618481 0.8608805 0.8547231 -7.860536 0.17610234 0.6674441
1.196391 -0.38877407 -0.35507336 0.30139902 -0.6898438 -3.0953233 -0.2560671 0.34098783
1.1826887 -0.44042385 -0.17635593 0.025837148 0.21411075 -1.7222326 -0.20941578 0.10519729
1.1927396 -0.67489916 -0.11121387 0.43179813 1.6011215 -0.064764 -0.18796037 0.38834903
0.77839625 -1.1548254 0.11389727 -0.056051012 -1.3522767 0.003255985 0.07902363 -0.25279513
1.1464292 -1.5191491 0.050960477 -0.28100136 -1.594088 1.5188377 0.056733467 -0.2810836
1.0922134 -2.0766454 -0.027583612 0.47855577 -2.014084 2.7568822 0.17872494 0.59862256
0.24482742 -1.1334746 -0.060979355 -0.7861649 0.69127214 -1.4874691 -0.116731 -0.8555613
0.33178088 -1.5664657 -0.04390801 -0.75156343 0.6522632 -4.4953184 -0.06123463 -0.51640385
-0.08831436 -1.5467865 -0.51375616 -0.05333063 1.0924107 -5.589009 -0.41936654 -0.031242102
0.8249059 0.24958308 -0.103261925 0.24893351 -0.41837585 0.5317112 -0.17705064 0.07166886
0.4819673 0.27842766 -0.15020691 0.36931905 -0.8026712 1.7420038 0.05446763 0.40539575
0.78112257 0.4112873 0.13443294 0.84181285 -0.8313776 2.6686702 0.14849485 0.96896404
-0.6361392 3.0280583 0.30445632 0.09109341 -0.99348587 0.45021603 0.24340251 -0.062238805
-0.5193797 3.4135146 0.019376447 0.47589216 -0.2544042 -3.2194576 0.0076341373 0.43260315
-0.9114405 3.788706 -0.15413168 0.7883039 1.0156003 -5.3266015 0.051484346 1.0303605
0.031128166 0.11311307 0.042268895 -0.54059494 -1.1615295 -3.256427 0.15769133 -0.46030697
-0.115245126 -0.15118448 0.35473552 -0.39890724 0.53715765 0.13093373 0.20936465 -0.39821598
-0.02835845 -0.26594213 -0.11471877 -0.48154485 2.3807695 4.3238397 -0.1826231 -0.40635577
1.0687711 2.1751359 -0.7334688 0.2452188 0.8434718 -1.2404691 -0.8231823 0.19230229
1.19868 2.303659 -0.5888015 -0.2896617 0.8646897 -1.299631 -0.6281918 -0.23731472
1.5716454 1.8765169 0.31741688 -0.51189065 1.030134 -0.2727 0.12682927 -0.452121
0.5969299 -0.84649825 0.2589639 0.12007527 -1.048148 -0.26679322 0.1778349 0.25512043
0.9345799 -0.7360316 0.17702714 -0.03925301 -1.9446317 0.1814046 -0.009228872 -0.04634343
0.69114196 -1.1422603 0.3556414 0.51221037 -2.673371 0.352487 0.41505724 0.36809954
0.13092946 0.17250797 0.0990113 -0.17002738 2.6477163 0.0913997 -0.14533447 -0.060101938
0.35935313 0.35434029 -0.34133986 0.12277171 3.3125813 0.7147503 -0.31573954 0.025207875
0.1813844 0.17149466 -0.15052618 -0.11951357 3.3334494 1.3838829 -0.22477946 0.02080955
-0.2211659 -1.0067765 0.007504347 -0.3539917 -1.7090465 -3.1850572 0.016848871 -0.36198968
-0.50625724 -0.7602459 0.24302186 -0.2395952 0.19779183 -2.0233488 0.17060295 -0.24032624

layers.0.bias f4 [48]
00000000: 376e 4040 a580 1fc0 bf10 793d d638 383e
00000010: 65fa 56bf 7026 c03f 6c80 c9bf 5511 b9bf
00000020: bd2a 19bf cf8f 27bf 210b 9dbf 7d15 553f
00000030: d4b8 b9bf 923c 70bf 6a56 a0bf 68af a2bf
00000040: c1ee b5bf e1a2 b83f 2181 83bf 0afd 63bf
00000050: 0167 0e40 236a 88bf ab11 ec3f 20fb 35bf
00000060: 0963 dc3e 9a48 0fc0 87ca 1f3f 683a d6bf
00000070: db4d 2dbf 9323 a5bf d254 adbf 25c3 f1bd
00000080: 96b6 c0bf adcc 73bf 2f22 8dbe d14d 403f
00000090: 3f23 b93f 65e1 42bf defd 9cbf 0480 ac3e
000000a0: 7bea 13bf 793f f33e e5f4 c8bf bac5 f9bf
000000b0: cc71 01c0 2647 17bf dd31 a7be 6056 7dbf
3.006727 -2.4922268 0.060806986 0.17990431 -0.8397582 1.501173 -1.5742316 -1.4458414
-0.5983084 -0.6545381 -1.2269021 0.83235914 -1.450953 -0.9384242 -1.2526371 -1.270978
-1.4213487 1.4424707 -1.0273782 -0.8905798 2.2250369 -1.065739 1.8442892 -0.7108631
0.43044308 -2.2388062 0.6241841 -1.6736574 -0.67696923 -1.2901481 -1.354151 -0.11804799
-1.5055721 -0.95234185 -0.27565143 0.7511874 1.4463881 -0.76125175 -1.2264974 0.33691418
-0.57779664 0.47509363 -1.5699736 -1.9513466 -2.0225706 -0.5909294 -0.3265523 -0.9895992

layers.1.weight f4 [24, 48]
00000000: 57ac 40bf 0ec7 b9bf ae95 da3f da43 d8bf
00000010: 3cca 083f 64a0 87bf f6c3 a2bf fb47 563f
00000020: 1202 1f40 053e e03f acc8 08c0 987f 863f
00000030: 7d67 65be 7236 53bf 75f1 6fbe 6423 2dbf
00000040: f571 e73d 3153 bc3e 20ff 1dbf 40c3 34c0
00000050: dd2f 64bd dfa0 0d3f dc84 8c3e 017f a9bd
00000060: 99ec 44bf 9ee3 4e3e d357 833f 1025 b63e
00000070: 091d 61be 5acf 343e f348 d63e 0fff a0bf
00000080: ddde 39bf 215a 98c0 1b2d 4d3f 1202 0b3e
00000090: 1789 4a3f 391e f43d b3fa 343e 7cc9 533f
000000a0: 4a15 babe 662a 953f dc7f 9bbe cc3f a43e
000000b0: e745 d03d 94d8 1d3f 995e 99be ec20 b0be
000000c0: 78cd babf a054 583e b0bb b93e 68c0 66bf
000000d0: 0fad 003f fae1 dabe 0dd3 b43f a9ba a93f
000000e0: d45c 863f 94d6 a4bf 2bbc b33f b56d 18bf
000000f0: c2d6 5d3f 27d0 5b40 36a3 803f e721 9f3f
00000100: d592 2e3f bdea 70bf 350f 6d3f e2bc b03f
00000110: 147b 68bf 5694 053f ce3f 71bf eb9e 14be
00000120: e1d3 88be fdc8 b0bd 8de0 a43e 5eda a63f
00000130: ad0c 5b3f 2932 b13a 13fd 3c40 392a 1740
00000140: 0838 2f3f 513b 523f 63f3 903f 9f3f d2be
00000150: 6e5d 41bf 0029 4340 8284 8f3f b2ea 2fbf
00000160: e776 ea3c 2a8c c6bf 425a 953f efb4 913e
00000170: 91f1 a03f d14c 0a40 3d57 af3f c93f 0b3f
00000180: 32c0 a53e 69fa 87bf 7872 7bbd d43f 9abf
00000190: 1833 8f3c 03ba 8fbf 3722 eabd cbef fb3c
000001a0: a4f6 923e 474c 9ebe adc1 ffbd 0fec 4bbe
000001b0: 3799 8b3e b5de dcbf 9bec aa3c dc48 9abe
000001c0: 8022 e1bc a76a 253f 8672 c5be 483d b4bf
000001d0: cbc5 123f eda9 613e 1032 e53e 3192 273f
000001e0: 27ee c3be 02cc 023f 2b37 ca3e 7111 b13e
000001f0: 922d 013e b463 f9bf 2d36 283f 77e5 043f
00000200: 279a 65be 685f 09c0 6d6f 423f a6f9 5bbe
00000210: 43ba b63e fc95 313f c39e 23be 6f89 c5be
00000220: c0c9 52be 9941 023f efb3 1bbf d0e8 0cc0
00000230: 247a 91bf 93be 12bf 4a2f 2fbe b37f 1f3e
00000240: a3d2 eabf 3da5 a83d 1f13 c53e 1387 153f
00000250: 0962 9c3e f93d e2bf df64 9a3e ba96 6bbe
00000260: 06fd 523e c2e5 20bf 29ea 9ebf 67a8 39bf
00000270: 8028 bbbd 7e1a ebbe f5af dabe 4507 aabe
00000280: 009b 67bf dfe7 0abe ec2a babd 113a 163f
00000290: 827e bbbf b5a2 bc3f 63d8 e4be a38a cf3e
000002a0: eb33 d1be 828c cebd 0e9a 93bf 4485 27bf
000002b0: 3dce 923f 3a5b 39bf ac41 553f 29cc 323f
000002c0: adbe 7c3e 6f95 2e3f e486 05bf bcf7 b03f
000002d0: 8e96 dabf 5ea8 20c0 d39d 01bf af49 a73e
000002e0: 09cd 5b3f 596d d3bf 6a3f cb3e b7c8 04bf
000002f0: 4b49 643e 3cb0 a43f 7ae2 703e d66c 0c3e
00000300: 52ad f0bd 85f5 b0bf 57f2 10bf c31d 31bf
00000310: e59a f03e 1de9 813b aec3 893f 576f 39b9
00000320: 6871 bebf 24d0 663f d3b2 313f f812 14bf
00000330: 81a5 7f3f 5ff2 d7bf ef48 b8be 3a9f 9c3e
00000340: e2da 373f 8ba0 583f dcad 9f3e 4c86 313f
00000350: e841 8c3c 8be6 e2bc 63ff 373f c6c1 87be
00000360: d79d 433f 5dc8 233f afd7 febe 324d a6be
00000370: dadc 233f 0674 7ebf 1850 bfbe 5670 913e
00000380: eb77 8abf b825 843f 6acd aabd 0646 193e
00000390: 2764 9fbe 4b7b 26c0 9a78 95be 3c67 903e
000003a0: 8f0d 133f b059 c2bf 3ee6 bcbf 51e2 703f
000003b0: eb4a 6b3f 20ef 5bbe 345e 1b3f c8a8 893e
000003c0: e636 86bf d383 513e 10c1 9d3f 2499 193f
000003d0: 6e5f 6e3d d580 993e c0f6 5a3f 5be8 123f
000003e0: 55df 76be 2811 dfbf eb42 b63f e845 36bf
000003f0: 563f 4a3f 00ac 2c40 98b9 83be e325 8e3f
-0.7526297 -1.4513872 1.7076929 -1.6895707 0.53433585 -1.0595822 -1.2716053 0.83703583
2.4845014 1.7518927 -2.137248 1.0507689 -0.22402759 -0.8250495 -0.23431952 -0.67632127
0.113010325 0.3678222 -0.61717415 -2.824417 -0.05570971 0.55323595 0.27445114 -0.08276177
-0.7692352 0.20204017 1.0261177 0.3557515 -0.21983732 0.17657223 0.4185253 -1.2577838
-0.7260569 -4.761002 0.8014695 0.13575009 0.7911543 0.11919827 0.17673759 0.82729316
-0.36344367 1.1653564 -0.30370986 0.32079923 0.10169583 0.61658597 -0.29954985 -0.34400117
-1.4593954 0.21126032 0.36276007 -0.9013734 0.50264066 -0.4275053 1.4126908 1.3260089
1.0497079 -1.2877984 1.4041799 -0.595424 0.8665582 3.4345796 1.0049808 1.2432221
0.681928 -0.9410818 0.9260133 1.3807642 -0.908128 0.5217947 -0.94237983 -0.14513747
-0.2672415 -0.086320855 0.3220257 1.303539 0.85566217 0.0013518977 2.9529464 2.361952
0.6844487 0.8212176 1.1324276 -0.41064164 -0.7553319 3.0493774 1.1212313 -0.6871749
0.02862115 -1.5511525 1.166817 0.28458354 1.257372 2.1609385 1.3698498 0.54394203
0.32373196 -1.0623294 -0.061388463 -1.2050729 0.017480418 -1.1228641 -0.11432307 0.03075399
0.28703797 -0.3091757 -0.124881126 -0.19914268 0.2726533 -1.7255465 0.020864775 -0.30133712
-0.027482271 0.64615864 -0.38563937 -1.4081202 0.5733306 0.22037478 0.44764757 0.65457445
-0.38267633 0.5109254 0.39495215 0.3458362 0.1261504 -1.9483552 0.65707666 0.51912636
-0.22422086 -2.1464481 0.7595127 -0.21481952 0.3568898 0.69369483 -0.15978532 -0.38581416
-0.20584774 0.50881344 -0.6082143 -2.2017097 -1.1365399 -0.57322043 -0.17107883 0.15576057
-1.8345531 0.08234642 0.3849115 0.5840923 0.30543545 -1.7675163 0.30155084 -0.23006716
0.20604333 -0.6285058 -1.241521 -0.72522587 -0.09138584 -0.4591865 -0.4271237 -0.3320867
-0.90470886 -0.13565014 -0.09090218 0.5868235 -1.4647982 1.4737154 -0.4469634 0.4053546
-0.40859923 -0.100853935 -1.1531389 -0.6543772 1.1469189 -0.72404826 0.8330333 0.69842774
0.24682112 0.6819677 -0.5215895 1.3825603 -1.7077196 -2.5102763 -0.50631446 0.32673404
0.85859734 -1.6517745 0.3969682 -0.51868767 0.22293584 1.2866282 0.23523894 0.13713393
-0.11751808 -1.3824927 -0.5661978 -0.6918604 0.46993175 0.003964557 1.0762842 -0.00017684452
-1.4878359 0.9016135 0.6941349 -0.57841444 0.99861914 -1.6870841 -0.35993144 0.3059023
0.71818364 0.8461997 0.31187332 0.69345546 0.01712127 -0.027697822 0.71874064 -0.26515025
0.7641272 0.63977605 -0.4977393 -0.3248077 0.6400887 -0.9939579 -0.37365794 0.28406018
-1.0817846 1.0324011 -0.08339961 0.14968118 -0.31131098 -2.6012752 -0.29193574 0.28203762
0.57442564 -1.518362 -1.4757764 0.9409533 0.9191119 -0.21477938 0.6069062 0.26886582
-1.0485504 0.20460443 1.2324543 0.599993 0.058196478 0.29981104 0.8553276 0.57385796
-0.24108632 -1.7427111 1.4239172 -0.7120042 0.7900289 2.697998 -0.25727534 1.1105312

layers.1.bias f4 [24]
00000000: 8b4c 713e 8e21 f1bf 99f8 773f 028b e4bf
00000010: 7487 42be 33ed cabf 6e5c ecbf 29fa 1fbe
00000020: 06e9 2a40 526e 59bf aed1 123f a54f c8bf
00000030: 21f2 78be 5962 9dbe bc2c 803f a4ed b1bf
00000040: 192d efbf 843a 3ec0 dac7 283f 7e77 8a3e
00000050: ae7a 923e b86b 34bf f4df 05c0 51cc 80bf
0.23564355 -1.8838365 0.96863705 -1.7854922 -0.18996984 -1.5853637 -1.8465707 -0.15622772
2.6704726 -0.8493396 0.57351196 -1.5649306 -0.24311115 -0.30739096 1.0013652 -1.3900647
-1.8685638 -2.9723215 0.6592995 0.2704429 0.28609222 -0.70476866 -2.091794 -1.0062352

layers.2.weight f4 [12, 24]
00000000: 5038 97bf c7c8 75bf c533 07bf f2bd 4bbe
00000010: 8e62 c5be 3d81 a7bf 2469 27c0 9f5b 88bd
00000020: cfd1 333f 52b3 da3e a8a2 8c3f afcd 4ebf
00000030: 47cc 80bf f02d d7be da2f f9be 7dad ccbe
00000040: 01f8 b7bf 6763 0bc0 00ad 61bf 37f7 6dbf
00000050: 822c 373e 1599 1ac0 7b4b 0dc0 2dc3 56bf
00000060: 119b 18bc 0977 92bf d20e 31bf a586 0f3f
00000070: b0dc 663f 6a30 d03e ad51 0bbf 0a9b f4bf
00000080: ae53 65bf 3e74 b13f a45d 483f c96f c1bf
00000090: 6a31 4c3f 97dc d8bf 14c3 a7bd 1da9 cdbf
000000a0: c4c9 893d 99de b53e bbb7 3b3f 66ff 00c0
000000b0: 4c8b 55bf 5ae7 443f ee35 8dbe 947b a5be
000000c0: d76d f6be 451b 98c0 6291 43bf 3241 ca3e
000000d0: 2244 b53f 0f8c a53e e454 213f c26b fabf
000000e0: 3674 4abf bab5 013e c720 bdbf 0fa7 b23d
000000f0: a09f 34bf 2bc1 5b40 ee47 e93d 4b46 29bf
00000100: dc24 3cbf ad6c ce3e f337 a13e 6a3c f8be
00000110: 9393 7a3e 79f8 613f 1513 003f 9926 013f
00000120: b27b d9bf d07d f4bf abe2 33bf 70ff cfbf
00000130: a70b 58be eb88 a6bd 6e17 10be e0a1 df3e
00000140: eb0d 8d3e a2ff e0bf 850d 38bf 0416 80bf
00000150: 697e c3bf 2af5 1f40 2a47 61be f2fd 84bf
00000160: 622e 24bf 8955 c1bf 80f9 ec3e ae42 41be
00000170: 8bde 74bf ed33 8e3d 51f5 e8bf bd8d 00c0
00000180: d969 893e 0fad 003f 6f9f bfbe 267e 0cbf
00000190: 2ceb c83f acc7 823e 5723 953f dffa f73f
000001a0: f3fa bdbe ac86 7e3e fe8e f13f ca39 5ebf
000001b0: fa6c 47bf 2e15 2dc0 e3b8 f6bf 97c9 c5be
000001c0: 6912 a73e 01e6 a7bf 4d3e 42bf db71 8bbf
000001d0: 1114 00c0 6f67 a0be 3561 1dbe 9c8e 173d
000001e0: 98b0 77bf 11c8 0abe b58f 31bf 2ba6 673f
000001f0: 1f60 243f 8d56 17bf 664b 1440 2685 af3e
00000200: 87a2 353d 275f 123f 15c5 9c3e 0771 2b3f
00000210: 4c0c babf 45c2 ab3f e294 713f fe84 88bf
00000220: 686d 9d3f d240 803f 438b c4bf 3dea a3be
00000230: 5a9b 553f 4b23 3a3f dab9 bebe df3c 07c0
00000240: 1128 74bc a0bf c63f 6e72 cb3e f505 bdbf
00000250: c5a8 7ebf 0e3e 7f3f 4ab1 f53e 88ff 183d
00000260: 592b 153d 366b 8a3e 29cf babe c9b6 693f
00000270: 98fe 8a3f df00 f1bf 403c 1ebf ee0b 2e3d
00000280: 62b6 953f 69bb aa3f e3ac 9bbf 0a16 d5bf
00000290: 5390 a2be acc8 98be 2c4a a23f 59ba b33f
000002a0: ebd9 ccbf 2a2c 923f d5d5 c73e 71c3 db3f
000002b0: 7e2e 613f 4e91 2040 6a1d 16be e0d4 943e
000002c0: 451b 85bf 6241 0c3f 7d32 e23e a2f2 f03e
000002d0: a109 7c3f 993a adbf 12cf cdbe 4860 5b3d
000002e0: 1740 c8be 846f a63f b4ab 0c3e 6385 46be
000002f0: 2f09 d4bf 76e2 00c0 9ff3 633f 45cb 2b3f
00000300: dcc3 e1bf 8b6a 373f 65a1 e5be 12f3 b8bd
00000310: 92c7 19bf 9de8 5b3f ba9d 14bf f960 75c0
00000320: 7cff 343e a316 363f 986d 37bf 8e8b 7fbe
00000330: 0a6c 5cbf 9488 d63e e510 5d3d aaff 6dbf
00000340: 3572 09c0 bf62 22bf 2b51 1b3f deaa d3bf
00000350: 5f61 8a3f e1d4 75c0 1cff 95bf e29f 2dc0
00000360: 2ef2 0abe af24 b03f ec82 053f cb8e 2240
00000370: 2134 3e3f 3e3b f9bf 1a01 353f f5fd aa3f
00000380: 57ce 25bf ce59 cc3f ebcb 21be 45fd ff3f
00000390: 756f 853f d012 b53e 3ec9 1f3f 7c3c 9d3f
000003a0: 7bed 063f 11e0 2540 e22b 38bd b5e4 363e
000003b0: 3955 14be 0a07 913e d11d e23f b4d3 8dbf
000003c0: e1e6 b1bf 6d03 9cbf c110 ce3e 71e2 9e3f
000003d0: 75ac fa3e 79a1 d6bf 6cee 81be c513 b0c0
000003e0: 8458 7fbd 5b49 e13f 98f8 88bf bf07 0b3f
000003f0: eaae 713f a01e cd3f 2326 813f 87aa 4a3f
-1.181406 -0.96009487 -0.5281337 -0.19896677 -0.38551754 -1.3086315 -2.6157923 -0.066581
0.7024202 0.42714936 1.0987139 -0.807826 -1.006234 -0.42027235 -0.4866932 -0.3997611
-1.437256 -2.177942 -0.881546 -0.92955345 0.17888072 -2.4155934 -2.207732 -0.83891565
-0.009314314 -1.1442577 -0.6916324 0.56064826 0.9018049 0.40661937 -0.544215 -1.9109814
-0.8958081 1.3863599 0.78267884 -1.5112239 0.797629 -1.6942319 -0.08191505 -1.6067234
0.06727937 0.3552139 0.73327225 -2.0155883 -0.83415675 0.76915514 -0.27580208 -0.32320845
-0.48130676 -4.753329 -0.7639371 0.39502865 1.4161417 0.3233342 0.6302016 -1.9564135
-0.79083574 0.1266698 -1.4775628 0.0872327 -0.7055607 3.433665 0.113906726 -0.66122884
-0.7349374 0.40317288 0.31487998 -0.48483592 0.24470358 0.88269764 0.50029117 0.5044952
-1.6990874 -1.9100895 -0.7026774 -1.6249828 -0.21098195 -0.08131584 -0.14071438 0.43678188
0.2754968 -1.7578013 -0.7189563 -1.0006719 -1.5272952 2.4993386 -0.21999803 -1.0389998
-0.64133275 -1.5104228 0.46284103 -0.18873093 -0.95652074 0.06943498 -1.8199865 -2.008651
0.26838568 0.50264066 -0.37426326 -0.5487999 1.5696769 0.25542963 1.165141 1.9373435
-0.37105522 0.2485606 1.8871763 -0.8680693 -0.7790066 -2.7044177 -1.9275173 -0.38630363
0.32631233 -1.3117067 -0.75876313 -1.0894121 -2.0012248 -0.31328914 -0.15369113 0.037001237
-0.96753836 -0.13552882 -0.69359905 0.9048793 0.6420917 -0.5911644 2.317102 0.34281272
0.04434445 0.5717644 0.30619112 0.6696934 -1.4535003 1.3418661 0.943678 -1.0665586
1.2299013 1.0019782 -1.5354999 -0.32014647 0.8344017 0.727101 -0.37251168 -2.1130903
-0.014902131 1.5527229 0.3973574 -1.4767443 -0.9947627 0.9970406 0.47986823 0.03735307
0.036418293 0.2703492 -0.36486176 0.91294533 1.0858946 -1.8828391 -0.61810684 0.042491846
1.1696284 1.3338443 -1.2162136 -1.6647351 -0.31750736 -0.298406 1.2678885 1.4041244
-1.6004003 1.1419728 0.39030328 1.7169019 0.87961566 2.5088687 -0.14659658 0.2906866
-1.0398947 0.54787266 0.44179145 0.47060114 0.9845219 -1.3533508 -0.40197045 0.053558618
-0.39111397 1.3002782 0.13737375 -0.1938682 -1.6565303 -2.013822 0.8904361 0.6710704
-1.7637897 0.71646947 -0.44849697 -0.09030737 -0.60070145 0.85901815 -0.5805317 -3.8340437
0.17675585 0.7112829 -0.716516 -0.2495558 -0.86102355 0.41901076 0.05397119 -0.9296824
-2.1475956 -0.63431925 0.6067073 -1.653652 1.0810965 -3.841118 -1.1718478 -2.7128835
-0.13568947 1.3761195 0.52152896 2.5399654 0.7429829 -1.9471204 0.70704806 1.3358752
-0.64767975 1.5964906 -0.15800445 1.9999167 1.0424639 0.35365915 0.62416446 1.2284083
0.52706116 2.591801 -0.044963725 0.17860682 -0.14485635 0.28325683 1.7665349 -1.1080232
-1.3898584 -1.2188545 0.40247157 1.2412854 0.489597 -1.6768028 -0.25377214 -5.5024133
-0.062340274 1.7600511 -1.0700865 0.54308695 0.9440752 1.6024971 1.0089763 0.79166454

layers.2.bias f4 [12]
00000000: 2cb3 943f 75fb 183f f863 e5bf b7a7 a93e
00000010: 4cca d03e 8136 b9bf e9ae 4fbf 2d2c dbbf
00000020: 7bdd 80be 1faf 09c0 be0c df3e 1637 dcbe
1.1617179 0.5975869 -1.7921133 0.3313577 0.4077934 -1.4469758 -0.81126267 -1.7122856
-0.25168976 -2.1513135 0.4356441 -0.43010777

layers.3.weight f4 [2, 12]
00000000: 6021 3c3e f9f9 d1be 4ad8 2d3e ee3f ac3e
00000010: 2a37 62bf bd70 a83e a356 6fbe 7531 0cbf
00000020: ddea e53e e84d 35be 3d0b 663f b865 343f
00000030: 5967 d2be 9516 10bf ddb7 863f 8d85 21bf
00000040: 7475 803e f087 3940 aeb2 86bf a136 b1bf
00000050: 7219 dcbf 61ff cb3f 2b76 bd3c c5a4 5d3e
0.18372107 -0.41011027 0.16977039 0.33642524 -0.88365424 0.32898512 -0.23372893 -0.54762965
0.4490575 -0.177055 0.898609 0.7046771 -0.41094473 -0.5628446 1.0524861 -0.6309441
0.2508961 2.898922 -1.0523279 -1.3844796 -1.7195265 1.593731 0.023127636 0.21644886

layers.3.bias f4 [2]
00000000: 1b1d dc3f 6c10 8e3e
1.7196382 0.27746904

layers.0.weight f4 [48, 24]
00000000: e34f 353d ce67 4c40 5e31 80bd 357c b33d
00000010: 285a 6cbe a2d3 a93f 2ae4 21bd af59 34bd
00000020: ac30 4a3e c560 6040 9f7f 34bd 6991 243f
00000030: 5cc1 d7be 83a7 62c0 e451 6f3d 735c 383f
00000040: bb81 86bd dfdd 7b40 8c2d 2ebd 74ae 19bf
00000050: b18f 58be 028c 6ec0 601e 9d3c ccbe 43bf
00000060: 9fe4 343e eeee e63f 1b76 a4bd c138 a4be
00000070: d91b 00bf 3f7a 2e3f 90dd 95bc 9d20 b2be
00000080: a6ed 063f 6f69 0440 cfc7 a23d 8699 d13d
00000090: f998 47bf 7582 a6bf d7bd 06bc 085b 08be
000000a0: ea83 483f c4b4 f43f cb34 31be db97 adbe
000000b0: 0f3e 9cbf 5ab8 bbc0 3bd2 e23d 9f80 a7be
000000c0: 2e48 b3bd f422 d33f dcd5 613d b738 133e
000000d0: f801 adbe 967c 2f3f 7ec3 a5bd 958a d03d
000000e0: a47c f43a be7a f53f 720f 843d f7c3 ff3d
000000f0: b4bb 013d 8a75 0cbf b1a3 8e3d a2df 013e
00000100: df6b f0be 57cd 1140 2975 47bc 842c 483e
00000110: ffed 16be 0c61 dbc0 0089 da3d 2859 c03e
00000120: 962b e23f a635 3440 9372 1dbd 3a15 df3c
00000130: 9102 353f 1a1e 58bf d526 27bd 8b2a b6bd
00000140: 188b 2340 90d2 6f40 6097 1d3d d62d 163f
00000150: ecc4 5f3e 45ea a63d 8450 30be c082 fd3e
00000160: 01bc 4640 9ff0 9140 1dfc 1e3d 187f ef3f
00000170: 233c 9c3e a252 ab3e 2b6f a53d 1a8f f83f
00000180: 4c2b 4ebe fab3 793f 8099 653d b9fd 1f3e
00000190: 84a4 b7bd 2054 e63f 3c5d 42bc 63a1 dbbc
000001a0: 7063 bcbe cf89 c93f 252d ebbd a39b 1c3e
000001b0: 8649 753e adb1 f4bf 63ce 8d3d 6b83 3c3e
000001c0: 0ee5 3dbf b600 2140 cf7b b8bd 9f9a 1a3f
000001d0: c5f1 833e 8b96 75c0 491d e93d a94b 1a3f
000001e0: 4380 ac3e 19de 1a3d 315e ac3e 3b4f ef3e
000001f0: d3dc 833f 29b1 553f 0d59 833e 77d7 a23e
00000200: f83b 193f 26c9 e7be 388e 95bc 0799 86be
00000210: 4e11 4a3f d9e9 d5bf 8287 933d fbeb 21be
00000220: a2fc bd3f 5766 81be 111f 873d 53e9 c4be
00000230: 2475 74be d1cc fcbf ce00 84bd 26e7 67be
00000240: 2fd6 e53e 4b3d 5a40 a535 9c3c ec25 2f3e
00000250: db15 e1be c3cc d43e 31db 04be 135a a73d
00000260: b23d 073f fd38 6f40 2ef1 d93d 6841 7d3d
00000270: c87d b0be 012d f0bf 5dab a9bc 7092 8b3d
00000280: 6b36 e53e 589d 6e40 614d 2f3e 949f 033f
00000290: ed26 09bf 4d26 e5c0 8e70 30bd 220a 153f
000002a0: 40d1 02be cf19 98bd 8c49 00be ca36 a5bd
000002b0: 8a9b 6ebd ecd9 6340 4a68 013e f91f 073e
000002c0: 4888 94bd 811a 9e3b 988f 63bc c32a ec3c
000002d0: ddb7 36be f4d5 04c1 3018 733c d946 2ebd
000002e0: f957 273e bb1b dc3e 7774 e03d c990 873d
000002f0: 70b0 813e 55e5 8840 7a00 08be 5cca c8bd
00000300: 92bd 9440 438b 9a40 271c 2ebc bd35 0cbe
00000310: c9e5 0d3f d65f 92c0 d3dd 84be a8d9 e8bd
00000320: f31a b33e d775 09c0 9c14 383d 734f 8e3d
00000330: 5708 49bb 1a6b 4dbf f81d 483d 5c9d aebc
00000340: 0e84 60bf bbe4 9ac0 9544 b63d b26f 313e
00000350: 8e2f 1dbe 8585 1740 3e15 9dbc b193 2c3e
00000360: fe44 d93e cc44 803f fda6 5d3a a01c e03d
00000370: 3e91 3f3f 8253 c4bf 0c62 53bd 2ec3 1f3e
00000380: 1c67 c63e c6ad 283f 4706 d0bd 9f15 0fbe
00000390: c6fa c83f e29f 01c0 98a7 29bb 5fd2 c9bd
000003a0: 59e2 003e 17d0 9dbe 52bd 5abc 4eb7 08be
000003b0: 1821 783e 3672 2ac0 4ebc 913c 6a5e f93d
000003c0: 7f46 1940 2cad ec3f 9d9f f03d 1010 a13d
000003d0: 0b70 81be cad5 9cbf c67a 173e 1059 55bc
000003e0: c2a2 0940 ad3e 3b40 3cfc a1be 3e06 093f
000003f0: 0625 b3be a092 d2bf 3e6e 8ebe 2d31 033f
0.04426564 3.1938357 -0.06259416 0.08763925 -0.23081267 1.326771 -0.039524235 -0.04403084
0.1974513 3.5059063 -0.04406702 0.6428438 -0.4213971 -3.541474 0.058427706 0.72016066
-0.06567713 3.935417 -0.042523906 -0.6003182 -0.21148564 -3.7272954 0.019179523 -0.7646301
0.17665337 1.8041666 -0.08030339 -0.3207455 -0.5004249 0.6815528 -0.018294126 -0.34790507
0.5270637 2.0689352 0.07948267 0.102343604 -0.7796779 -1.3008562 -0.008223972 -0.13315976
0.78326285 1.9117665 -0.17305295 -0.3390492 -1.2206439 -5.866254 0.110752545 -0.32715318
-0.087540016 1.6495042 0.055135593 0.14377104 -0.33790565 0.6854948 -0.08093928 0.101826824
0.0018652868 1.9178083 0.064482585 0.12488549 0.03167315 -0.5486685 0.069648154 0.12682965
-0.469573 2.278158 -0.012173929 0.19548231 -0.14739226 -6.8555965 0.10670662 0.3756802
1.7669551 2.8157744 -0.038439345 0.027231801 0.7070704 -0.8442093 -0.040808517 -0.08894833
2.5553646 3.7472267 0.03847444 0.5866369 0.21852463 0.08150152 -0.17218214 0.49513817
3.1052248 4.5606227 0.038814653 1.8710661 0.3051463 0.3346148 0.08077844 1.9418671
-0.20133704 0.9754025 0.056054592 0.15624131 -0.08966926 1.7994423 -0.011863049 -0.026810354
-0.36794615 1.5745181 -0.1148322 0.15293746 0.23953828 -1.9116722 0.06924131 0.18409507
-0.74177635 2.5156684 -0.090079896 0.60392183 0.25770393 -3.8373134 0.11382539 0.602717
0.33691606 0.037809465 0.33665612 0.46740136 1.0301765 0.8347345 0.25653878 0.31805012
0.5985713 -0.45270652 -0.018256292 -0.26288626 0.78932655 -1.671199 0.072035804 -0.15812676
1.4842722 -0.25273392 0.06597722 -0.38459262 -0.2387281 -1.9750005 -0.06445466 -0.2264677
0.44889972 3.409991 0.019068548 0.1710431 -0.43961987 0.4156247 -0.1297424 0.08171477
0.52828515 3.7378533 0.106417045 0.061829954 -0.34470963 -1.8763734 -0.020711595 0.0681504
0.4476808 3.7283535 0.17119361 0.5141537 -0.5357502 -7.1609254 -0.04307609 0.58218586
-0.12775135 -0.074267976 -0.12528056 -0.08067091 -0.058253802 3.560176 0.1263744 0.1319579
-0.07252556 0.004824937 -0.013889216 0.028828984 -0.17843576 -8.302235 0.01483731 -0.042548034
0.16342153 0.42989907 0.10959714 0.066194125 0.25329924 4.2779946 -0.13281432 -0.09804222
4.648141 4.8294997 -0.010626829 -0.13692375 0.5542875 -4.5741987 -0.25950488 -0.1136964
0.34981498 -2.1478174 0.04494153 0.069487475 -0.0030675137 -0.8024155 0.048856705 -0.02131527
-0.877015 -4.840421 0.088998 0.17327765 -0.15350172 2.3675244 -0.019175168 0.16853215
0.4243545 1.0020995 0.0008455364 0.1094296 0.74830997 -1.5337985 -0.051607177 0.15601799
0.3875054 0.6589016 -0.10157447 -0.13973092 1.570153 -2.0253835 -0.0025887247 -0.09854578
0.12586345 -0.30822822 -0.013350802 -0.13351175 0.24231374 -2.663221 0.017789986 0.12176211
2.3949277 1.8490348 0.11749194 0.07864392 -0.25280795 -1.2252743 0.14792928 -0.013021722
2.150559 2.9257004 -0.31637752 0.5352515 -0.34989184 -1.6450996 -0.27818483 0.5124691

layers.0.bias f4 [48]
00000000: 2707 09be 4ac9 31bf 0c04 a7be ccc8 e8c0
00000010: ce1f 013f 8f11 c33f bf30 cd3e 332a 973d
00000020: 3375 873f d852 d2bf ef96 89c0 5f33 eb3e
00000030: 99d0 3ec0 4212 0cc0 91fc 8e3f fa2a 10c0
00000040: fe90 ae3f 69dc e73f 4085 5fbf d1b2 bd3f
00000050: be40 27bf 70c3 e0be 1c14 ed3d 9dbf 5ec0
00000060: da49 ebbf 2fa8 e3bf 3294 83bf ecfb 37c0
00000070: 968a e9bf 6ac7 c6bf b77a 92c0 d353 05c0
00000080: 8b88 4dbf 711f 81bf d216 b5ba beaf 42c0
00000090: 260d 34c0 ac43 0cc0 8a56 21bc 2177 56bf
000000a0: ffea 39c0 88f9 a13f 0f86 d6bf 2601 18c0
000000b0: 487b 42c0 cd57 903e 07d8 5640 d39d a2c0
-0.13381635 -0.6944777 -0.32620275 -7.2745113 0.50439155 1.5239733 0.40076253 0.07381096
1.0582641 -1.6431532 -4.2996745 0.4593763 -2.9814818 -2.1886144 1.1170827 -2.252623
1.3637998 1.8114139 -0.873127 1.4820195 -0.65333164 -0.43899107 0.11576101 -3.4804451
-1.8381913 -1.77857 -1.0279601 -2.874751 -1.8245418 -1.5529606 -4.57748 -2.0832412
-0.80286473 -1.008772 -0.0013816005 -3.0419765 -2.8133025 -2.1916304 -0.009847293 -0.83775526
-2.904968 1.2654276 -1.6759661 -2.37507 -3.0387745 0.28191987 3.3569353 -5.0817657
