saved_models/ddpg_model_best_weights.pth (torch_old, 435885 bytes, 30 tensors)

layers.0.weight f4 [48, 24]
0	0xbf358976	-0.70912874
1	0x3dcd9270	0.10037696
2	0xbc8423e9	-0.016130405
3	0xbcc26c81	-0.02373338
4	0x3fc6d569	1.5533878
5	0x40a1341c	5.037611
6	0xbc711d2c	-0.014716428
7	0xbddb17ce	-0.106979
8	0xbf442a56	-0.766271
9	0x3e8ccdfb	0.275009
10	0x3e6f34c9	0.2335998
11	0x3d40a00e	0.04702764
12	0x3f72041d	0.94537526
13	0x3fa9f0a3	1.3276561
14	0x3e8ccb1a	0.27498704
15	0x3e994110	0.2993245
16	0xbf54b1c9	-0.8308378
17	0xbcbfff0a	-0.023437042
18	0xbe13ac32	-0.14421156
19	0x3efcdbec	0.49386537
20	0x3f06a09c	0.5258882
21	0xc0b13f43	-5.5389724
22	0xbe0984df	-0.13429593
23	0x3e99d484	0.3004495
24	0xbe94b7b8	-0.29046416
25	0xbe19e582	-0.15028957
26	0xbd0e7a9c	-0.0347849
27	0x3c6695f0	0.014073834
28	0xc02fbb88	-2.745821
29	0xc05d3728	-3.4564915
30	0x3d8384ce	0.06421815
31	0x3d5bd008	0.05366519
32	0xbeaea06d	-0.3410677
33	0xbe6001f3	-0.21875744
34	0xbc0b0016	-0.008483907
35	0xbe77eddf	-0.24211834
36	0x3e5cd0a0	0.21563959
37	0xbf4955be	-0.7864646
38	0xbd2a2955	-0.041543324
39	0xbe26a9b4	-0.16275674
40	0xbe60fea4	-0.21972138
41	0xbdc30504	-0.09522441
42	0x3db89d79	0.090144105
43	0x3e3afc8e	0.18260404
44	0x4056d649	3.356829
45	0x409502c9	4.65659
46	0x3c5b9dc6	0.013404315
47	0x3e0e7b24	0.13914162
48	0x3ff71a36	1.9304874
49	0x3fc856a9	1.5651447
50	0x3c381082	0.0112344045
51	0x3f4acb91	0.7921687
52	0xbe880b40	-0.26571083
53	0xc04d7c39	-3.210707
54	0xbcc19be8	-0.023633912
55	0x3f186db1	0.59542376
56	0x3fedd636	1.8580997
57	0x3fa5a7e1	1.2941858
58	0x3e099249	0.1343471
59	0x3ec48fcf	0.38390967
60	0xbf533982	-0.82509625
61	0xc07e9ba4	-3.9782495
62	0x3e0f7af3	0.14011745
63	0x3ec484f1	0.38382676
64	0x3fe8c1c3	1.8184131
65	0x3ed0509d	0.40686503
66	0xbdbf57a0	-0.09342885
67	0xbfdd2d98	-1.7279539
68	0xbfb5a1b9	-1.4189979
69	0xc013b7f1	-2.308102
70	0x3de72f1e	0.11288284
71	0xbfcdcf6a	-1.6078923
72	0xbf498800	-0.78723145
73	0xbeef2710	-0.4670949
74	0x3d9e01a8	0.0771516
75	0x3e94bb03	0.2904893
76	0x400e451e	2.2229686
77	0xbebe3ebd	-0.3715724
78	0x3caf58eb	0.021404704
79	0x3e626575	0.22109015
80	0xbf183181	-0.59450537
81	0xbf54b18a	-0.83083403
82	0x3e2938b0	0.16525531
83	0xbd3240b6	-0.043518744
84	0x3ef29da9	0.4738591
85	0xbedf1a16	-0.4357459
86	0x3e1779d4	0.14792567
87	0x3e443742	0.19161704
88	0xbf63d2bc	-0.8899343
89	0xbf2551b6	-0.64577806
90	0x3ca5d0c5	0.02024115
91	0x3ea7788d	0.3270916
92	0x3f11ff36	0.57030046
93	0xc0f7704c	-7.732458
94	0x3deac318	0.114629924
95	0x3eb2c98f	0.34919402
96	0x3ec82ed8	0.3909824
97	0xc0702217	-3.7520807
98	0x3ddd8fff	0.10818481
99	0xbdca0dc0	-0.09865904
100	0xbec35f76	-0.38158768
101	0xbe2ac8ee	-0.16678211
102	0x3d0cdde3	0.034391295
103	0xbe8d4788	-0.27593637
104	0x3ee99c32	0.4562698
105	0xc05a05c2	-3.4066014
106	0xbdc3cbf9	-0.09560389
107	0xbf36f16f	-0.7146215
108	0xbfeb399d	-1.8376957
109	0x4014ccfe	2.3250117
110	0x3ddf67d9	0.10908479
111	0xbf2db53d	-0.6785467
112	0x3f6cbed0	0.92478657
113	0xc05c4737	-3.4418466
114	0xbd023d09	-0.03179649
115	0xbee9b340	-0.4564457
116	0xc051a28e	-3.2755466
117	0x4035c1ef	2.8399618
118	0xbc914c5f	-0.017736612
119	0xbea89352	-0.32924896
120	0x3f3bc2d8	0.7334418
121	0x3fa30785	1.273667
122	0x3e46635e	0.19373843
123	0x3ef1e8da	0.47247964
124	0xbfa82996	-1.3137691
125	0xc03a40a6	-2.9101958
126	0x3e07df96	0.13268885
127	0x3ea36739	0.3191469
128	0x3f405175	0.75124294
129	0x3fba16f5	1.4538256
130	0x3d6cd840	0.05782342
131	0x3f40fe12	0.7538768
132	0xbf90a1ca	-1.1299374
133	0xc0632314	-3.549016
134	0x3d3cc07c	0.046082005
135	0x3f35e8f2	0.7105857
136	0x3f27fcee	0.65620315
137	0x3ff741f4	1.9317002
138	0xbde3bde4	-0.11120203
139	0x3ea3cc50	0.31991816
140	0xbfa08250	-1.2539768
141	0xc0bf23a8	-5.9731026
142	0x3dc15645	0.09440283
143	0x3f0fdccb	0.5619628
144	0x3fb9816a	1.4492619
145	0xbf3c09b9	-0.73452336
146	0x3da5600f	0.08074962
147	0x3e50e4ec	0.20399827
148	0xbec54bb2	-0.38534313
149	0x4028f5a7	2.6399934
150	0x3e48e310	0.19617867
151	0x3e918ee9	0.28429344
152	0x3fbe8149	1.4883205
153	0xbf327259	-0.6970573
154	0x3e0ba529	0.13637222
155	0xbe6f65ac	-0.23378628
156	0x3fa9d17a	1.3267052
157	0x3f87c6d9	1.0607558
158	0xbc1372ba	-0.008999521
159	0xbe6eb0ca	-0.23309627
160	0x3fc72630	1.5558529
161	0xbf120200	-0.570343
162	0x3e7de36d	0.24793787
163	0xbeaff191	-0.34363988
164	0x4039a128	2.9004612
165	0x3f8d22d8	1.1026258
166	0x3e385cf5	0.1800421
167	0xbe8972ab	-0.26845297
168	0x3f6204dd	0.8828867
169	0x3fca0d07	1.5785226
170	0xbd85d8c9	-0.06535489
171	0xbee649c4	-0.44978154
172	0x3f693545	0.9109691
173	0xbfad016e	-1.3516061
174	0xbe1eca2b	-0.15506808
175	0xbf00b158	-0.50270605
176	0x3f271628	0.6526818
177	0x3fdd1cf8	1.7274466
178	0xbe5f125d	-0.21784349
179	0xbdcd58c1	-0.10026694
180	0xbf3421ae	-0.7036389
181	0xbfac9017	-1.3481473
182	0xbe83b41d	-0.25723353
183	0xbd4451bc	-0.04792951
184	0x3f5747ef	0.84094137
185	0x3f9637b4	1.1735749
186	0xbeea2877	-0.45733997
187	0xbfa5b958	-1.2947187
188	0xbfeeec11	-1.8665792
189	0xbf35161a	-0.7073685
190	0xbf25de1b	-0.6479203
191	0xbf9e12c0	-1.2349472
192	0x3f31c1ee	0.6943654
193	0x401e952a	2.4778543
194	0x3d3ac3d2	0.045596905
195	0x40008e75	2.008695
196	0xbf4e480b	-0.8057868
197	0xbff446d1	-1.9084111
198	0xbd1189f4	-0.035531953
199	0x40093264	2.1437006
200	0x3f0c4464	0.54791856
201	0x40313110	2.7686195
202	0x3ea66756	0.32500714
203	0xbd945bd5	-0.07244078
204	0xbf964cd5	-1.1742197
205	0xbffb226d	-1.9619881
206	0x3e0e16f5	0.13875945
207	0xbda2e1e7	-0.07953244
208	0x3eafe0f8	0.34351325
209	0x4011dfeb	2.2792919
210	0x3d981370	0.074255824
211	0xc02c0c3a	-2.6882463
212	0xbf871a15	-1.0554835
213	0x3f508dac	0.81466174
214	0x3e08deda	0.13366261
215	0xc03545fc	-2.8323965
216	0x3ec81c6e	0.3908419
217	0x4006312f	2.096752
218	0xbdabb8bd	-0.083848454
219	0x3f7d65f8	0.98983717
220	0x3f0ef7f9	0.55847126
221	0xc053ccdd	-3.3093789
222	0xbea8087a	-0.32818967
223	0x3f8cc568	1.0997744
224	0x3f024982	0.50893414
225	0x4007011a	2.1094422
226	0x3e3e6c98	0.18596113
227	0x3e926107	0.2858965
228	0x3ffc7f0a	1.9726269
229	0xbf26d4fa	-0.65168726
230	0x3e58a690	0.21157289
231	0x3e40d9bd	0.1883306
232	0x3ea21840	0.31659126
233	0x4006d71b	2.106879
234	0x3d8e9263	0.06961515
235	0xbf069614	-0.5257275
236	0x403cc80e	2.9497104
237	0x4021dadd	2.5289834
238	0xbb97e380	-0.0046352744
239	0xbec551aa	-0.38538867
240	0x3df6c4a3	0.12049224
241	0x3e1f171a	0.15536156
242	0xbd90ffbe	-0.07080029
243	0x3fb14003	1.384766
244	0xbf8ae756	-1.0851848
245	0xbf38012e	-0.718768
246	0xbd7bbcae	-0.061459236
247	0x3fb039f7	1.376769
248	0x3eca8531	0.39554742
249	0x3f9e255b	1.235515
250	0xbe839e2c	-0.25706613
251	0x3fb56ea8	1.4174395
252	0xbeb2a45c	-0.3489102
253	0x3e0a193a	0.13486186
254	0xbea8b27c	-0.32948673
255	0x3fb556bc	1.4167094

layers.0.bias f4 [48]
0	0x402730e6	2.6123595
1	0xbe26cb70	-0.16288543
2	0xbfabce92	-1.3422415
3	0x3f40a6e8	0.7525468
4	0x3e93dc8f	0.2887921
5	0xbe75b5dd	-0.23995157
6	0xbfa665bd	-1.2999798
7	0xbfa66dba	-1.3002236
8	0xbfddfa67	-1.7342042
9	0x3d73e3a8	0.05954328
10	0xbfcc208a	-1.594743
11	0xbfcbad2d	-1.5912224
12	0xbf2dbc84	-0.67865777
13	0xbe852279	-0.26002863
14	0xc00268c3	-2.0376441
15	0xbda5e8a4	-0.08101013
16	0xbf1235c6	-0.571133
17	0x4013c224	2.3087244
18	0xc0085055	-2.129903
19	0xbf5aeb2f	-0.8551511
20	0x3ff351d5	1.9009348
21	0x3ffad938	1.959754
22	0xbf70dce1	-0.94087034
23	0xbfde3d52	-1.7362463
24	0xbd3e25aa	-0.046422638
25	0xc022c98e	-2.543552
26	0x3e943065	0.28943172
27	0xbf675f50	-0.9037981
28	0xbedf77ad	-0.43645993
29	0xbe7adf3c	-0.2449922
30	0xbecc4810	-0.3989873
31	0xbf20b71c	-0.627794
32	0xbf9976e1	-1.1989404
33	0xbf1f2ff2	-0.62182534
34	0x3fee8d8d	1.8636948
35	0xc00b2825	-2.1743252
36	0x3f7c4701	0.98545843
37	0xbfafed4b	-1.3744291
38	0x3fd6398f	1.6736315
39	0x3f90e1f8	1.131896
40	0xbf53e51a	-0.82771456
41	0xbfb32cd1	-1.3998052
42	0x3f5a4196	0.85256326
43	0xbf96896a	-1.1760685
44	0xbf6e7824	-0.9315207
45	0xbfadff3f	-1.359352
46	0x3ea6a2c2	0.3254605
47	0xbefcff9a	-0.4941376

layers.1.weight f4 [24, 48]
0	0xbef5b960	-0.47992992
1	0xc012991e	-2.2905955
2	0x3f595835	0.8490022
3	0x3a9f08f4	0.0012133406
4	0xbf094645	-0.5362285
5	0xbfe95990	-1.8230457
6	0x3d39b4d5	0.04533847
7	0xbf00b036	-0.50268877
8	0xbe0804f4	-0.1328314
9	0x3f23886e	0.6388005
10	0xbec75b78	-0.38936973
11	0x3fa95d3f	1.3231581
12	0xc0987590	-4.764351
13	0x3eea2eca	0.45738822
14	0xbe81be29	-0.25340393
15	0xbfe7630b	-1.80771
16	0x3ea88bde	0.3291921
17	0xbe177f00	-0.1479454
18	0x3e10a02f	0.14123605
19	0x3f873cce	1.0565431
20	0xbe66fbf4	-0.2255705
21	0x3da859a7	0.08220225
22	0xbed1fd20	-0.41013432
23	0xc0280d2e	-2.6258044
24	0xbf4c9a45	-0.79922897
25	0x3f8fe28a	1.1241009
26	0x401b3d83	2.4256294
27	0x3fa8ddd6	1.3192699
28	0xbf865a4f	-1.049631
29	0x3f513bad	0.81731683
30	0x3fca942c	1.5826468
31	0xbfb99933	-1.4499878
32	0xbfd54a23	-1.666325
33	0xc003787a	-2.0542283
34	0x3c870ba8	0.01648505
35	0x3faa84e5	1.3321806
36	0xbf2e635a	-0.6812035
37	0x3f146c9c	0.57978225
38	0xbedcee16	-0.43150395
39	0xc029521f	-2.6456373
40	0x3f832e68	1.0248537
41	0xbf2766af	-0.6539106
42	0xbfbfb1cc	-1.4976134
43	0xbe8d46e5	-0.2759315
44	0x3db2fc45	0.08739523
45	0x3e9b0058	0.302737
46	0xbe5b758e	-0.21431562
47	0x3f2af2d6	0.6677679
48	0xbf91b7e8	-1.1384249
49	0xbe894cdb	-0.2681645
50	0xbecd7015	-0.40124574
51	0x3e6aab7d	0.2291698
52	0x3f8121ba	1.0088418
53	0x3f5bdd48	0.85884523
54	0x3e64d683	0.22347455
55	0x3cf2ccc7	0.029638661
56	0xbfba0c50	-1.4535007
57	0x3fca9fb3	1.5829986
58	0xbf2ab8c7	-0.666882
59	0x4014fad3	2.327809
60	0xbf926c6e	-1.143934
61	0x3e2442d9	0.16041125
62	0xbdc507dd	-0.096206404
63	0xbf94f581	-1.1637422
64	0xbf87b833	-1.0603088
65	0xbfb179ef	-1.3865336
66	0x3efeb04c	0.4974388
67	0x3f427b80	0.75969696
68	0xc000ae2a	-2.0106301
69	0xc042d8ef	-3.0444906
70	0x3cf5a8cc	0.029987715
71	0xbd812de8	-0.06307584
72	0x3ecd11cf	0.4005265
73	0x3e92a472	0.28641087
74	0x3f26d9dc	0.6517618
75	0x3f2b0e06	0.66818273
76	0xbe53b186	-0.20673189
77	0x3ec57b2a	0.3857053
78	0x3b8ae413	0.0042386143
79	0x3f09cd08	0.5382848
80	0xbe9cb959	-0.3061016
81	0x3e1a6f95	0.15081628
82	0x3e1c6882	0.15274242
83	0x3d7d6f84	0.061873928
84	0xbfa8c663	-1.3185543
85	0x3f28b9aa	0.659083
86	0x3f663e91	0.8993922
87	0xc0497710	-3.147892
88	0x3d81d78d	0.06339941
89	0xbef5682c	-0.4793104
90	0xbf806d5f	-1.0033377
91	0xbe7aabbd	-0.24479575
92	0xbd1fb931	-0.03899497
93	0x3ed18afc	0.4092635
94	0x3d636aad	0.055521656
95	0x3fa5807f	1.2929839
96	0xbff3dcd0	-1.9051762
97	0xbfb0ccb4	-1.381247
98	0x3eb3cd1f	0.35117432
99	0xbf08377f	-0.5320968
100	0xbfc3263d	-1.5246044
101	0x3f50b846	0.8153118
102	0x3f54c4c3	0.83112735
103	0x3f74969f	0.9554233
104	0xbf4c4cf8	-0.79804945
105	0x3fc9f8b7	1.5779027
106	0x3f531b45	0.82463485
107	0x3f2323b4	0.63726354
108	0x3f84670f	1.0343951
109	0xbf2d004c	-0.6757858
110	0x3d0d93b7	0.0345647
111	0xbfd273e9	-1.6441623
112	0xbfb963cc	-1.448358
113	0xc0136af8	-2.3034039
114	0xbe82ea03	-0.25569162
115	0x3e0c63d8	0.13709962
116	0xbfae6c7e	-1.3626859
117	0xbf4f047c	-0.8086622
118	0x400af21e	2.1710277
119	0x3f4d4ea9	0.8019815
120	0x3f6291ff	0.8850402
121	0x3f1a8f90	0.6037531
122	0x3e9a3500	0.3011856
123	0x3e929f2f	0.28637072
124	0x3f2b38d4	0.6688359
125	0x3ecf1520	0.40445805
126	0x3effa660	0.49931622
127	0xbf189b7e	-0.5961226
128	0xbfa3802c	-1.277349
129	0xbf67e5b9	-0.90584904
130	0xbfa84d79	-1.3148643
131	0x3fe9acf4	1.8255906
132	0x3dad59e5	0.08464412
133	0xbea9e25f	-0.3318052
134	0xbea28acc	-0.3174652
135	0x3f0277fd	0.5096434
136	0x3f688c39	0.9083896
137	0xbe7a8e63	-0.24468379
138	0xbfea6c4b	-1.8314298
139	0xbe9f6608	-0.3113253
140	0x3f7ef308	0.99589586
141	0xbd369738	-0.044577807
142	0xbef71bee	-0.48263496
143	0x3f2250e9	0.6340471
144	0xbe8449ce	-0.25837559
145	0xbfef5a8b	-1.8699507
146	0x3fbceac7	1.4759148
147	0xbf4c2da8	-0.79757166
148	0xc02ef1e7	-2.7335145
149	0x3e5d14f7	0.21590029
150	0x3f73893f	0.95131296
151	0xbe9df46a	-0.30850536
152	0xbee32c5e	-0.44369787
153	0xbfa1b771	-1.2634107
154	0x3fc8a964	1.5676694
155	0xbfb59eed	-1.4189125
156	0x3fb8ebb7	1.4446934
157	0x3f38f7c6	0.7225307
158	0x3f873442	1.0562823
159	0xc0037124	-2.0537806
160	0xbf0137c6	-0.5047573
161	0xbf74d979	-0.95644337
162	0x3ec94790	0.3931241
163	0x3f3528ab	0.7076518
164	0xbe07f232	-0.13275984
165	0x3e4bc535	0.19899447
166	0x3f8c3cc7	1.0956048
167	0x3f35ff44	0.7109263
168	0x3f887a94	1.0662408
169	0xbfe9aa6a	-1.8255131
170	0xbebee04a	-0.37280494
171	0xbf8d94e9	-1.1061069
172	0xbd845fd3	-0.064635895
173	0xbfa9bf37	-1.3261479
174	0x3f174cc1	0.5910149
175	0xbe8e2e22	-0.27769572
176	0xbf50f2ed	-0.81620675
177	0xbf9d3978	-1.2283163
178	0xbfc3ab28	-1.5286608
179	0x3fdad9d9	1.7097732
180	0x3f7b6bb5	0.9821122
181	0x3e64c924	0.22342354
182	0x3d29d2e1	0.041460875
183	0x3f4099ac	0.75234485
184	0xbe0aa44e	-0.1353924
185	0x3eef2138	0.4670503
186	0xbc35bdbf	-0.011092602
187	0x3ec5bc5a	0.38620263
188	0x3fa498c2	1.2859118
189	0x3f2aaca6	0.6666969
190	0xbf723e67	-0.9462647
191	0x3e3390cb	0.17535703
192	0x3f6bd879	0.92127186
193	0xbeae37b0	-0.3402686
194	0x3e836e41	0.25670055
195	0xbdbee2c4	-0.09320596
196	0xbf0a26d8	-0.5396552
197	0x3d8cd806	0.06877141
198	0x3ea0a0ba	0.31372625
199	0xbf64357b	-0.89144105
200	0x3f00f5be	0.5037497
201	0x3fc19aee	1.5125406
202	0xbd212939	-0.039345954
203	0xbfde1722	-1.735081
204	0xbf75a831	-0.95959765
205	0x3ebf7db7	0.374006
206	0x3ff83295	1.9390436
207	0xbee1768e	-0.44035763
208	0xbf967477	-1.1754292
209	0x3ecbedac	0.39829767
210	0xbf00ff58	-0.50389624
211	0xbf1a769b	-0.6033723
212	0x3e8d3047	0.27575895
213	0x3f6fee7a	0.9372326
214	0xbf21dcbd	-0.63227445
215	0xbc47c673	-0.01219331
216	0xc01ea36b	-2.4787242
217	0x3e876073	0.26440772
218	0x3fa2da7b	1.2722925
219	0xc088aaca	-4.2708483
220	0x3fe27ef3	1.7694992
221	0xc0870e05	-4.2204614
222	0xbf3b0690	-0.7305689
223	0x3fc1df41	1.5146257
224	0xbf3ea464	-0.7446959
225	0x40078092	2.1172223
226	0xbf81534e	-1.0103548
227	0xbe40937b	-0.1880626
228	0xbe81b36a	-0.25332195
229	0x3ebff3c7	0.37490675
230	0x3d4ccf9a	0.05000267
231	0xc0000728	-2.0004368
232	0x3f4d423c	0.8017919
233	0x3f13eb38	0.5778079
234	0xbe3b496e	-0.1828973
235	0xc0140ce0	-2.3132858
236	0xbffad018	-1.9594755
237	0x3c17ce0f	0.009265437
238	0x3fad1009	1.3520519
239	0xbfa5a4a8	-1.2940874
240	0x3fb28388	1.394639
241	0xbd6b1096	-0.057388864
242	0xbe1deb89	-0.15421881
243	0x4010ba4b	2.2613704
244	0x3d906c2c	0.07051882
245	0xbf308cb2	-0.68964684
246	0xbf395962	-0.7240201
247	0xbe0b7c91	-0.13621737
248	0x3f5b3e93	0.85642356
249	0x3f32e6e8	0.69883585
250	0x3e6bc9d2	0.23026207
251	0xbf6f30ac	-0.9343364
252	0x3f81d245	1.0142294
253	0x3e010978	0.12601268
254	0xbdf84e18	-0.1212427
255	0x3f1d81c8	0.61526155

layers.1.bias f4 [24]
0	0xbfd0368c	-1.6266646
1	0xbf9d5fa4	-1.2294812
2	0xc005faf5	-2.0934422
3	0xbf5fd856	-0.8743948
4	0xbfe4e08f	-1.788103
5	0x403bc505	2.9339
6	0xbfcb93ff	-1.590454
7	0xbefe452d	-0.49662152
8	0xbedb96cd	-0.4288849
9	0xbeae92e3	-0.3409644
10	0xbf8312e5	-1.0240141
11	0xbe8247a6	-0.25445288
12	0xbfd9cd1c	-1.701572
13	0xbfa888c9	-1.3166744
14	0x3e414cb9	0.18876924
15	0xbf41c21d	-0.7568682
16	0xbf9dec05	-1.2337652
17	0xbfc40fa7	-1.5317277
18	0xbf75c5a5	-0.96004707
19	0x3e376b64	0.1791206
20	0x3eff8c0e	0.4991154
21	0xbf196b41	-0.5992928
22	0x3fdb5ed1	1.7138311
23	0xbe71a920	-0.23599672

layers.2.weight f4 [12, 24]
0	0xbf4f4f85	-0.8098071
1	0xbf2bc756	-0.6710104
2	0x3e623b7a	0.22093001
3	0xbe6d79d2	-0.23191002
4	0x3fc2313c	1.5171275
5	0xbf9f0ebd	-1.2426373
6	0xc038d88c	-2.888217
7	0x3f699c2e	0.91253936
8	0x3f90e204	1.1318974
9	0xc02852bf	-2.6300504
10	0xbf470a8e	-0.7775048
11	0x4038cddf	2.8875654
12	0xc00e531a	-2.223822
13	0xbee629fb	-0.44953904
14	0x3f7fa53a	0.9986149
15	0xbf093815	-0.536012
16	0x3fec917b	1.8481897
17	0x3ebd7c92	0.37009102
18	0x3e46786d	0.19381876
19	0x4051fd37	3.28108
20	0xbf7b0b5a	-0.98064196
21	0xbe05ae89	-0.13054861
22	0xbfc01fb7	-1.5009679
23	0xc0984130	-4.7579575
24	0xbf61eba0	-0.8825016
25	0xbf09ca20	-0.53824043
26	0xbe131377	-0.14362894
27	0xbecfd71a	-0.40593797
28	0x3f5948b7	0.8487658
29	0xbcac3dad	-0.021025503
30	0x3f22fd3a	0.63667643
31	0x3ed403ec	0.41409242
32	0x3f186d06	0.59541357
33	0x3f62aa62	0.88541234
34	0xbdfe8463	-0.124275945
35	0x3f9c7d37	1.2225713
36	0xbec3dc81	-0.3825417
37	0x3f8d932a	1.1060536
38	0x3fce354f	1.6110018
39	0xbfb065e1	-1.3781091
40	0xbf17c8e4	-0.5929091
41	0x3f96a866	1.1770141
42	0xbfe7a437	-1.8096989
43	0xbf9b8b46	-1.2151878
44	0xbf7d49af	-0.9894056
45	0xbbf82cdc	-0.007573707
46	0xbe41afdc	-0.18914741
47	0x3f9932e0	1.1968651
48	0x3e69e830	0.22842479
49	0xbe4b213d	-0.19836898
50	0x3f68a904	0.908829
51	0xbf07799b	-0.5291993
52	0xbfb38c6d	-1.402723
53	0xbffb881d	-1.9650913
54	0xbfa956ad	-1.3229576
55	0x3fcb3358	1.5875044
56	0xbf2bfd55	-0.6718343
57	0x3d8935b3	0.066996954
58	0x3d813977	0.06309789
59	0x3fd69ca6	1.6766555
60	0x3f7be994	0.98403287
61	0x3fbb221f	1.4619788
62	0xbf09e8f5	-0.5387109
63	0x3f29f1eb	0.6638476
64	0xc04b8c53	-3.1804397
65	0x40026034	2.0371218
66	0xbe26c60a	-0.16286483
67	0xbfb075b2	-1.3785918
68	0xbf35cf8e	-0.7101983
69	0xbf31960d	-0.69369584
70	0x3e0098bb	0.12558262
71	0xbe841b34	-0.25802004
72	0x3f7144df	0.94245714
73	0x3fb6d4cc	1.428369
74	0x3fb17274	1.3863053
75	0x3ffed4aa	1.990865
76	0xbf99a18a	-1.2002423
77	0xbef78410	-0.48342943
78	0xbde1c52f	-0.11023938
79	0xc083bf92	-4.117135
80	0xbf26a3e4	-0.6509383
81	0x401e62ca	2.4747796
82	0x3fa8ee44	1.3197713
83	0xc032f136	-2.7959723
84	0x3cb59abc	0.02216851
85	0x3f2f7ddb	0.68551415
86	0xc00029ab	-2.0025432
87	0x3f8b7a8d	1.0896775
88	0x3e0e1171	0.13873841
89	0x3fc886b7	1.5666112
90	0x3ec5638c	0.3855251
91	0xbfc3f18e	-1.5308092
92	0xbf54e152	-0.8315631
93	0x3ffc2c22	1.9700968
94	0xbe271bc9	-0.16319193
95	0xbe850ac9	-0.2598479
96	0xbf48144b	-0.78155965
97	0xbfdfa76b	-1.7472967
98	0x3f6e2ecc	0.93040156
99	0x3edc505a	0.43030053
100	0x3f8a0412	1.0782492
101	0xbf676986	-0.9039539
102	0xc07a1c22	-3.907967
103	0x3f96de8d	1.1786667
104	0x3fa4fe59	1.2890121
105	0xbfd6b661	-1.6774408
106	0x3ddb7e24	0.10717419
107	0x3fc475a5	1.5348402
108	0xbf9e4f3d	-1.2367932
109	0xbea3221a	-0.31861955
110	0x3fe91e45	1.8212363
111	0xbfc6363a	-1.5485299
112	0x406cc8aa	3.6997476
113	0xbfe1ffeb	-1.7656225
114	0xbe87af1f	-0.26500794
115	0x402496fc	2.5717154
116	0xbf7a920b	-0.97879094
117	0xbed84f85	-0.4224817
118	0xbf83cad1	-1.029627
119	0xc0827c24	-4.077654
120	0xc012fcda	-2.2966828
121	0xbda831cb	-0.08212622
122	0x3fb19846	1.3874595
123	0x3fe3efb3	1.7807525
124	0x3f8bb1a5	1.0913588
125	0xbe2ce8e8	-0.16885722
126	0xbf832a8f	-1.0247363
127	0x3f130c4f	0.57440656
128	0x3f430941	0.76185995
129	0xbf16a0c9	-0.5883909
130	0xbe0637a0	-0.13107157
131	0xbdafbe66	-0.085812375
132	0xbf6f577e	-0.9349288
133	0xbf191e3a	-0.5981175
134	0x3ff4df5f	1.9130667
135	0xbf4cae5b	-0.79953545
136	0x403c888a	2.9458337
137	0xbfab2081	-1.3369294
138	0xc0016a1e	-2.0221019
139	0xbeb04c6c	-0.34433305
140	0x3eb858a6	0.36005133
141	0xbd3aba7a	-0.045587994
142	0xc01a74a7	-2.41337
143	0xbe862f32	-0.26207882
144	0x3f87b5c4	1.0602345
145	0x40058d69	2.086756
146	0x3f8a0f06	1.0785835
147	0x3fd3bbdc	1.6541705
148	0xbe53a963	-0.20670085
149	0xbfad9ed9	-1.3564101
150	0x3f59293f	0.8482856
151	0x3f733e57	0.95017
152	0x3d907368	0.07053262
153	0x3feb63b5	1.8389803
154	0x3fa772cf	1.3081912
155	0xbfa8e835	-1.3195864
156	0x401d7779	2.460417
157	0xbe5dc786	-0.21658143
158	0xbf5d40af	-0.86426824
159	0x3e59f775	0.21285804
160	0xc038a407	-2.8850114
161	0x3fabb463	1.3414425
162	0x3fe06209	1.7529918
163	0xbfe53f9f	-1.7910041
164	0xbf775f89	-0.9663015
165	0x40353204	2.8311777
166	0x3e42f2aa	0.19037881
167	0xbf173572	-0.59065926
168	0x400f82da	2.2423615
169	0xbf74c067	-0.9560608
170	0x3f967433	1.1754211
171	0xbfb180b9	-1.3867408
172	0xc0005b3d	-2.0055687
173	0xbf540ab9	-0.8282886
174	0x3fe38a79	1.7776634
175	0xbea8910e	-0.32923168
176	0xc005676e	-2.0844378
177	0xbe876b53	-0.2644907
178	0x3d7e5cc9	0.062100206
179	0x402d51d5	2.7081196
180	0xbf737efe	-0.9511565
181	0x3f590595	0.8477414
182	0xc060b14a	-3.5108209
183	0xbe77e31b	-0.24207728
184	0xc03e512e	-2.9737048
185	0xbfb9953c	-1.4498668
186	0xbff6d369	-1.9283267
187	0xbec89b12	-0.3918081
188	0xc016fd35	-2.3592045
189	0xbf5eb998	-0.87001944
190	0xbf6c5779	-0.9232097
191	0xc02a99c6	-2.6656356
192	0x3e83fd1f	0.25779054
193	0x3f8cf121	1.1011087
194	0xc0080ef7	-2.1259134
195	0xbf28f37e	-0.6599654
196	0xbf46ed02	-0.77705395
197	0xbc7f54ee	-0.015584214
198	0x3f8545a5	1.0411879
199	0xbde80f0d	-0.11330996
200	0x3f102808	0.5631108
201	0x3eb7e8a3	0.35919675
202	0xbf0557d7	-0.5208716
203	0x3f84bb75	1.0369707
204	0xbea1dce4	-0.3161384
205	0xbdddb83e	-0.10826157
206	0x3da21437	0.07914012
207	0xbfb4d595	-1.412768
208	0xbfce61e9	-1.612363
209	0x40179e9f	2.3690565
210	0x3ea51547	0.32242796
211	0x3f9cbbc4	1.2244802
212	0x3ecdf538	0.4022615
213	0x3f602d31	0.87568957
214	0xbfc0e189	-1.5068828
215	0x3fd44c53	1.6585792
216	0xbec009eb	-0.37507567
217	0xbf8ae547	-1.085122
218	0x3f0ca24b	0.5493514
219	0x3e79a33b	0.24378674
220	0x3f99501d	1.1977574
221	0xbe4babc4	-0.19889742
222	0xbf828388	-1.019639
223	0xbf5cef5d	-0.8630274
224	0x3fc40587	1.5314187
225	0xbfdeb396	-1.7398555
226	0xbfab2fcc	-1.3373961
227	0xbf989670	-1.192091
228	0xbf4ca0d4	-0.79932904
229	0xbe8097aa	-0.2511571
230	0x3f057c43	0.52142733
231	0xbf6f661e	-0.93515193
232	0x4047c6ca	3.1215081
233	0x3fc07bc0	1.5037766
234	0xbeb9a49d	-0.36258402
235	0xbb463a16	-0.0030247024
236	0x3f16a20e	0.58841026
237	0xbfce4d40	-1.6117325
238	0xbee152b0	-0.44008398
239	0xc09f88a4	-4.98543
240	0x3f0df77b	0.5545575
241	0x3e2cf53e	0.16890427
242	0x3ecf78ee	0.4052195
243	0xbeec3291	-0.4613233
244	0x3fbc1cde	1.469631
245	0xbd076d3d	-0.033063162
246	0x400ee684	2.2328196
247	0xbd675427	-0.05647674
248	0xbe990dfb	-0.2989348
249	0x3f1f7d77	0.6230082
250	0x4002cc97	2.0437372
251	0x3d6da1b2	0.058015533
252	0xbe8bf248	-0.27333283
253	0xbe0d31da	-0.13788548
254	0xbe88940a	-0.26675445
255	0x3f8a2622	1.0792887

layers.2.bias f4 [12]
0	0x3d1e34c9	0.03862456
1	0xbd326c3a	-0.043560244
2	0xbfbef1a2	-1.491749
3	0xbf434a44	-0.76285195
4	0xbf02c92b	-0.5108821
5	0x3f808df6	1.0043323
6	0xc018f0c6	-2.3896956
7	0xbfb9e8c9	-1.4524165
8	0xbfedd31a	-1.8580048
9	0x3f67f304	0.9060519
10	0x3e9ef05d	0.31042758
11	0xc024e457	-2.5764368

layers.3.weight f4 [2, 12]
0	0x3eec0875	0.46100202
1	0x3d869a9b	0.065724574
2	0xbe81102f	-0.2520766
3	0xbedec248	-0.435076
4	0x3f736e45	0.9509013
5	0x3ebde03b	0.37085137
6	0xbeac898a	-0.33698684
7	0xbeb62bb4	-0.35580218
8	0xbd9c1a85	-0.07622246
9	0x3f785161	0.96999174
10	0xbdefc784	-0.117079765
11	0xbf1f0502	-0.62117016
12	0x3f7b4bb1	0.9816237
13	0x3f2899b4	0.6585953
14	0x4001622d	2.0216172
15	0xc05292e2	-3.290215
16	0x3ed6dac2	0.41963774
17	0xbce1caac	-0.027562462
18	0xbfa352ab	-1.2759603
19	0x40203e74	2.5038118
20	0xbf4334a8	-0.7625222
21	0xbfc5b507	-1.544587
22	0xbbfc7d1b	-0.0077053434
23	0xbf8d02e9	-1.1016513

layers.3.bias f4 [2]
0	0xbe472bf0	-0.19450355
1	0xbf342087	-0.7036213

layers.0.weight f4 [48, 24]
0	0xbf3b7200	-0.73220825
1	0x3d9b9e94	0.07598606
2	0xbc96fccf	-0.018431095
3	0xbcf4551a	-0.029825736
4	0x3fc8e043	1.5693439
5	0x40a01811	5.002938
6	0xbc8b6762	-0.01701707
7	0xbde79275	-0.11307231
8	0xbf4a75bc	-0.790859
9	0x3e7e610a	0.24841705
10	0x3e666b4c	0.22501868
11	0x3d227a97	0.039667692
12	0x3f75b6cd	0.95982057
13	0x3fa4688d	1.2844406
14	0x3e886660	0.26640606
15	0x3e957cc6	0.29196757
16	0xbf5acb76	-0.85466707
17	0xbd561ef9	-0.05227563
18	0xbded04a2	-0.11573149
19	0x3ef677b2	0.48138195
20	0x3f09fa25	0.53897315
21	0xc0b28f6d	-5.580008
22	0xbdd8b5e9	-0.105815716
23	0x3e936ffc	0.28796375
24	0xbe8b7a05	-0.2724153
25	0xbe068efd	-0.13140483
26	0xbceb2ca1	-0.028707804
27	0x3ceb4b31	0.028722377
28	0xc0319a14	-2.7750292
29	0xc05b1931	-3.4234126
30	0x3d8ff7a4	0.070296556
31	0x3d8be84e	0.06831418
32	0xbea4ad24	-0.32163346
33	0xbe482f4a	-0.1954929
34	0xbb3b6bf9	-0.0028598292
35	0xbe659e67	-0.22423707
36	0x3e3f2a8b	0.18668573
37	0xbf3f587a	-0.7474438
38	0xbd132085	-0.035919685
39	0xbe145a0b	-0.14487474
40	0xbe4cf9a9	-0.20017113
41	0xbd873bfe	-0.066032395
42	0x3dbe24d6	0.0928437
43	0x3e55307d	0.20819278
44	0x405520e3	3.3301322
45	0x40963064	4.693407
46	0x3c83ea4b	0.01610293
47	0x3e28aefb	0.16473
48	0x3ff862e4	1.9405179
49	0x3fca1002	1.5786135
50	0x3c2a0014	0.010375995
51	0x3f4b1a12	0.79336655
52	0xbe8a472c	-0.27007425
53	0xc04cd513	-3.200505
54	0xbcc8a50c	-0.024492763
55	0x3f18bc04	0.5966189
56	0x3fef41ba	1.8691933
57	0x3fa6e1b2	1.3037627
58	0x3e08f103	0.13373189
59	0x3ec4863d	0.38383666
60	0xbf55230f	-0.8325662
61	0xc07e0b5c	-3.9694433
62	0x3e0ed9a8	0.13950217
63	0x3ec47b61	0.3837538
64	0x3fe9dcfb	1.8270563
65	0x3ed40e0b	0.41416964
66	0xbdcab8de	-0.09898542
67	0xbfdc5ad5	-1.721522
68	0xbfb6fc4a	-1.4295743
69	0xc013408f	-2.3008153
70	0x3ddbcf44	0.10732892
71	0xbfccfc97	-1.6014584
72	0xbf49b876	-0.7879709
73	0xbef314f2	-0.47476918
74	0x3d909a83	0.07060721
75	0x3e856292	0.26051766
76	0x4010b09b	2.2607791
77	0xbedea492	-0.43484932
78	0x3c737596	0.014859578
79	0x3e43b44f	0.19111751
80	0xbf17b331	-0.592578
81	0xbf567b54	-0.83781934
82	0x3e310b6b	0.17289512
83	0xbd92cc5e	-0.07167886
84	0x3f03a2dc	0.5142038
85	0xbf025092	-0.5090419
86	0x3e1f4c79	0.15556516
87	0x3e27620b	0.16345994
88	0xbf638318	-0.8887191
89	0xbf27d46f	-0.6555852
90	0x3b738be8	0.0037162248
91	0x3e919cd0	0.2843995
92	0x3f1b9d9c	0.6078737
93	0xc0f8e591	-7.7780232
94	0x3dc8ebf4	0.098106295
95	0x3e9ceded	0.30650273
96	0x3ec995a6	0.39371985
97	0xc06ffd3c	-3.7498312
98	0x3ddc7efe	0.10766409
99	0xbda05904	-0.078294784
100	0xbec00fbb	-0.37512
101	0xbe213a48	-0.15744889
102	0x3d0abacd	0.033869553
103	0xbe82dab9	-0.25557497
104	0x3eead6c8	0.4586699
105	0xc059e584	-3.4046335
106	0xbd849b61	-0.06474949
107	0xbf31e48e	-0.6948937
108	0xbfeae0f7	-1.8349904
109	0x4015af01	2.3388064
110	0x3e0f4cf2	0.13994196
111	0xbf28a850	-0.65881824
112	0x3f6d0886	0.9259113
113	0xc05c0818	-3.437994
114	0xbd68bc19	-0.05682001
115	0xbedecb7d	-0.43514624
116	0xc0518038	-3.2734509
117	0x4036aa15	2.854131
118	0xbd2f2515	-0.042759974
119	0xbe9dab5c	-0.307948
120	0x3f41f3bc	0.75762534
121	0x3fa51777	1.2897786
122	0x3e48d2f1	0.19611718
123	0x3edab006	0.4271242
124	0xbfa5f47f	-1.2965239
125	0xc03e5b77	-2.9743326
126	0x3e0a4f00	0.13506699
127	0x3e8c2e2b	0.27378973
128	0x3f43cbd8	0.76482916
129	0x3fb9549e	1.4478948
130	0x3d45d5f0	0.04829973
131	0x3f31d531	0.6946593
132	0xbf8fb6e4	-1.1227689
133	0xc065b127	-3.5889375
134	0x3d15be11	0.036558215
135	0x3f26bfec	0.651366
136	0x3f28b5f2	0.65902627
137	0x3ff52cb1	1.9154264
138	0xbe1a213f	-0.15051745
139	0x3e97ec4c	0.29672468
140	0xbf9f485b	-1.2443956
141	0xc0bfd7ab	-5.9950767
142	0x3d61a5de	0.055089824
143	0x3f09ecff	0.5387725
144	0x3fbaab72	1.4583571
145	0xbf3ae9fb	-0.73013276
146	0x3d8e3f6c	0.069456905
147	0x3e485bb9	0.1956624
148	0xbec95296	-0.3932082
149	0x402908fb	2.6411731
150	0x3e3d531a	0.18488732
151	0x3e8d4a76	0.27595872
152	0x3fbf5605	1.4948126
153	0xbf317f7e	-0.6933516
154	0x3deba6f8	0.11506456
155	0xbe73aca2	-0.23796323
156	0x3fa8d97c	1.3191371
157	0x3f886352	1.065531
158	0xbcf84ada	-0.03030913
159	0xbe72f7b4	-0.23727304
160	0x3fc7b5c2	1.5602343
161	0xbf1108bc	-0.5665395
162	0x3e7121b0	0.23548007
163	0xbeaf9b16	-0.3429801
164	0x40392e50	2.8934517
165	0x3f8e8133	1.1133178
166	0x3e2b9aef	0.16758321
167	0xbe891c00	-0.26779175
168	0x3f6b5c2e	0.9193753
169	0x3fcd8ec7	1.6059197
170	0xbd58b2fb	-0.052905064
171	0xbee1a913	-0.44074306
172	0x3f6e73c9	0.93145424
173	0xbfae19c8	-1.3601618
174	0xbe120ae2	-0.14261964
175	0xbefcc216	-0.49366826
176	0x3f2c5809	0.6732183
177	0x3fdf4042	1.7441485
178	0xbe5f104a	-0.21783558
179	0xbdb8ca58	-0.09022969
180	0xbf3154a3	-0.6926977
181	0xbfacb455	-1.3492533
182	0xbe83b300	-0.25722504
183	0xbd1b3453	-0.037891697
184	0x3f5bb64d	0.85825044
185	0x3f986094	1.1904473
186	0xbee621a3	-0.44947538
187	0xbfa435dc	-1.2828937
188	0xbfedad2d	-1.8568474
189	0xbf317ff7	-0.69335884
190	0xbf23dae1	-0.6400586
191	0xbf9c8f4e	-1.2231233
192	0x3f3bbf4a	0.7333876
193	0x401f20d7	2.4863794
194	0x3d481766	0.04885044
195	0x3ffc5a0b	1.9714979
196	0xbf453432	-0.7703277
197	0xbff92e7b	-1.946731
198	0xbd043783	-0.032279503
199	0x4006d0e6	2.1065001
200	0x3f168176	0.5879129
201	0x40311357	2.7668054
202	0x3e95dfaf	0.2927222
203	0xbddb1046	-0.10696463
204	0xbf915054	-1.1352639
205	0xbfffbdaf	-1.9979762
206	0x3dda0d84	0.10647109
207	0xbde9967f	-0.11405658
208	0x3ec3a8d1	0.38214734
209	0x401111af	2.2667043
210	0x3d759ad3	0.059962105
211	0xc02da459	-2.713156
212	0xbf82144d	-1.0162445
213	0x3f49ba44	0.78799844
214	0x3df4781c	0.119369715
215	0xc036de91	-2.8573344
216	0x3ed3e114	0.41382658
217	0x40081a26	2.126596
218	0xbd9fddcb	-0.078059755
219	0x3f761cd3	0.9613773
220	0x3f07a706	0.5298923
221	0xc04f1d42	-3.2361608
222	0xbea51234	-0.3224045
223	0x3f8920dc	1.0713153
224	0x3f0841a1	0.5322514
225	0x4008e011	2.138676
226	0x3e34292a	0.17593828
227	0x3e803663	0.25041494
228	0x3ff906d4	1.9455209
229	0xbf15832e	-0.5840329
230	0x3e4e633e	0.20155045
231	0x3e1c83ff	0.15284728
232	0x3eadef7e	0.3397178
233	0x4008a9a5	2.1353543
234	0x3d947879	0.07249541
235	0xbf119d91	-0.5688105
236	0x403b36fa	2.9252305
237	0x4025a9bf	2.5884855
238	0xbae62b67	-0.0017560542
239	0xbedb606d	-0.42847005
240	0x3db4c959	0.088274665
241	0x3e059ae5	0.13047369
242	0xbd669233	-0.05629177
243	0x3fb56037	1.4169987
244	0xbf8f2540	-1.1183243
245	0xbf2f0540	-0.68367386
246	0xbd404f57	-0.046950664
247	0x3fb45a28	1.4090014
248	0x3eba7d1d	0.3642358
249	0x3f9c72ef	1.2222575
250	0xbe80df7f	-0.25170514
251	0x3fba1289	1.4536906
252	0xbec447b2	-0.3833595
253	0x3e2bc85f	0.16775654
254	0xbea5f3ec	-0.3241266
255	0x3fb9fa89	1.4529582

layers.0.bias f4 [48]
0	0x40288018	2.6328182
1	0xbe35d6c0	-0.17757702
2	0xbfac3f37	-1.3456792
3	0x3f3fd423	0.7493307
4	0x3e94681b	0.28985676
5	0xbe801e30	-0.2502303
6	0xbfa6e092	-1.3037283
7	0xbfa88fa6	-1.3168838
8	0xbfe2ffdf	-1.7734336
9	0x3d107570	0.035268247
10	0xbfc7fe20	-1.5624428
11	0xbfce5253	-1.6118873
12	0xbf34c01f	-0.70605654
13	0xbe858066	-0.26074523
14	0xc0047768	-2.069788
15	0xbd8271f7	-0.06369393
16	0xbf1570f4	-0.5837548
17	0x4014c804	2.324708
18	0xc0093a04	-2.144166
19	0xbf605277	-0.8762583
20	0x3ff6075b	1.9220995
21	0x3ffd6365	1.9795958
22	0xbf728e8e	-0.9474877
23	0xbfdc9800	-1.7233887
24	0xbd88c493	-0.066781186
25	0xc023abcd	-2.557361
26	0x3e894f8a	0.26818496
27	0xbf69cb18	-0.9132552
28	0xbed6e31f	-0.41970155
29	0xbe7b245b	-0.24525587
30	0xbed3c69d	-0.41362467
31	0xbf24d52a	-0.6438776
32	0xbf9a582f	-1.2058161
33	0xbf22ae52	-0.6354724
34	0x3ff03c1a	1.8768342
35	0xc00b079d	-2.1723397
36	0x3f7a84c7	0.9785885
37	0xbfaf08d0	-1.3674564
38	0x3fd9a0df	1.7002219
39	0x3f91e2d6	1.139735
40	0xbf4d67bb	-0.80236405
41	0xbfb13f91	-1.3847524
42	0x3f5f00a5	0.8711036
43	0xbf952499	-1.1651794
44	0xbf6df8fd	-0.9295805
45	0xbfae5a86	-1.3621376
46	0x3ea1f80a	0.3163455
47	0xbf02878d	-0.50988084

layers.1.weight f4 [24, 48]
0	0xbeed60fb	-0.46363053
1	0xc011b3c2	-2.2765965
2	0x3f5590a8	0.8342385
3	0xbc54cfc6	-0.01298899
4	0xbf04b815	-0.51843387
5	0xbfea2045	-1.8291098
6	0x3d36b779	0.044608567
7	0xbef6953d	-0.48160735
8	0xbe0e623f	-0.13904665
9	0x3f232778	0.637321
10	0xbecb9b2e	-0.3976683
11	0x3fa77f3a	1.3085701
12	0xc099d833	-4.8076415
13	0x3ee4adc3	0.4466382
14	0xbe835048	-0.25647187
15	0xbfe6b8fc	-1.8025203
16	0x3ea1f8da	0.3163517
17	0xbe0e710d	-0.13910313
18	0x3e02ae35	0.12761767
19	0x3f870b52	1.055033
20	0xbe666d2c	-0.22502583
21	0x3dbb47b9	0.091445394
22	0xbed8346b	-0.42227492
23	0xc0290bef	-2.6413534
24	0xbf5800db	-0.84376305
25	0x3f8e224d	1.1104218
26	0x401c0ee9	2.43841
27	0x3fab2eb3	1.3373626
28	0xbf83bba7	-1.0291642
29	0x3f57444b	0.8408858
30	0x3fcb6fe7	1.5893525
31	0xbfb51d35	-1.4149538
32	0xbfd55dfb	-1.6669306
33	0xc00295f5	-2.0404027
34	0x3d0f976d	0.03505652
35	0x3fa8bff5	1.3183581
36	0xbf2a4c87	-0.6652302
37	0x3f12e826	0.5738548
38	0xbed69529	-0.41910675
39	0xc02a8346	-2.6642623
40	0x3f8300d2	1.0234625
41	0xbf293f2b	-0.6611201
42	0xbfc11406	-1.5084236
43	0xbe950263	-0.29103383
44	0x3dab02f7	0.08350175
45	0x3e952469	0.2912934
46	0xbe57c7d9	-0.2107233
47	0x3f2f2bb8	0.68426085
48	0xbf8fa3cc	-1.1221862
49	0xbe947a2f	-0.2899947
50	0xbed0b898	-0.40765834
51	0x3e6af043	0.22943215
52	0x3f831480	1.0240631
53	0x3f60e6ae	0.8785199
54	0x3e533796	0.20626673
55	0x3d48f4f8	0.049061745
56	0xbfb7f7b0	-1.4372463
57	0x3fc5cbb5	1.5452791
58	0xbf2db418	-0.67852926
59	0x4012576b	2.2865856
60	0xbf961f53	-1.1728309
61	0x3e1b953c	0.15193647
62	0xbdd63913	-0.10460105
63	0xbf97b014	-1.185061
64	0xbf89874f	-1.0744418
65	0xbfb113ec	-1.3834205
66	0x3ef7a01a	0.48364335
67	0x3f3b28de	0.73109233
68	0xc0015915	-2.0210621
69	0xc0420d57	-3.0320642
70	0xbbd7f64a	-0.0065906392
71	0xbd033d2f	-0.03204077
72	0x3ebde0cc	0.3708557
73	0x3e8cdb0e	0.27510875
74	0x3f281dc7	0.65670437
75	0x3f3041a9	0.6885019
76	0xbe4997e4	-0.19686848
77	0x3ece9381	0.40346912
78	0x3c6b42e3	0.014359209
79	0x3f06d365	0.5266631
80	0xbe9a2f7f	-0.30114362
81	0x3e15ee0d	0.1464159
82	0x3e2e0c31	0.16996838
83	0x3d3d265a	0.046179153
84	0xbfa690be	-1.3012922
85	0x3f25241f	0.6450824
86	0x3f68e2b6	0.90970933
87	0xc048d8c0	-3.1382294
88	0x3d0f6c7c	0.035015568
89	0xbef0ca3f	-0.47029302
90	0xbf81af9d	-1.0131718
91	0xbe863221	-0.2621012
92	0xbd4b0deb	-0.04957382
93	0x3ec9fc17	0.39450142
94	0x3d15c259	0.036562297
95	0x3fa8e913	1.3196129
96	0xbff29c75	-1.8953997
97	0xbfafb295	-1.3726374
98	0x3eb24734	0.3481995
99	0xbf01267d	-0.50449353
100	0xbfc4de43	-1.5380329
101	0x3f47e7ae	0.7808789
102	0x3f555794	0.8333676
103	0x3f7887eb	0.97082394
104	0xbf526213	-0.821809
105	0x3fce3888	1.6111002
106	0x3f4f82ef	0.81059164
107	0x3f2ada55	0.667394
108	0x3f87b419	1.0601836
109	0xbf2bde8c	-0.67136455
110	0x3d1d1aa4	0.038355485
111	0xbfd32237	-1.6494817
112	0xbfb54a99	-1.416339
113	0xc0129ffc	-2.2910147
114	0xbe8373e6	-0.2567436
115	0x3e2429a7	0.16031514
116	0xbfabed50	-1.3431797
117	0xbf49538a	-0.78643095
118	0x400a0c3e	2.1569972
119	0x3f47ae77	0.7800059
120	0x3f6ac10d	0.9170082
121	0x3f1b4b2d	0.60661584
122	0x3ea69c85	0.3254129
123	0x3e91fabd	0.2851161
124	0x3f2c3c92	0.6727992
125	0x3ec8d305	0.39223495
126	0x3f061ad2	0.52384675
127	0xbf1b8990	-0.6075678
128	0xbfa6ba7d	-1.3025662
129	0xbf68ba04	-0.9090884
130	0xbfa91907	-1.3210763
131	0x3fe8f3b8	1.8199377
132	0x3dae6dc7	0.08517032
133	0xbea3f1aa	-0.32020313
134	0xbe937ab4	-0.28804553
135	0x3f04c2de	0.51859844
136	0x3f706652	0.9390613
137	0xbe8b5b44	-0.27218068
138	0xbfe961e1	-1.8232995
139	0xbea0d441	-0.31411937
140	0x3f7db666	0.9910644
141	0xbd45cd59	-0.048291538
142	0xbeee7843	-0.46576127
143	0x3f259a83	0.6468889
144	0xbe7e33f9	-0.24824513
145	0xbfebcf09	-1.8422557
146	0x3fbc1565	1.4694029
147	0xbf454a41	-0.7706643
148	0xc02ec4e7	-2.730768
149	0x3e62857a	0.2212123
150	0x3f71dd7b	0.9447858
151	0xbe95f225	-0.29286304
152	0xbee1da6b	-0.44111952
153	0xbf9dec59	-1.2337753
154	0x3fc82615	1.5636622
155	0xbfb1eee9	-1.3901035
156	0x3fbccd02	1.4750063
157	0x3f38595e	0.72011364
158	0x3f863fee	1.048826
159	0xc00356bd	-2.052169
160	0xbef2fd3a	-0.47458822
161	0xbf7129f9	-0.9420467
162	0x3ec5ae95	0.38609758
163	0x3f3bacf7	0.733108
164	0xbdeb5230	-0.114902854
165	0x3e618c04	0.22026068
166	0x3f8b9dc3	1.090752
167	0x3f38eb78	0.72234297
168	0x3f8b9b60	1.0906792
169	0xbfea3f23	-1.8300518
170	0xbeb4b802	-0.35296637
171	0xbf8bdb5b	-1.0926317
172	0xbd6959db	-0.05697046
173	0xbfa8ce21	-1.3187906
174	0x3f1c9324	0.6116202
175	0xbe97941e	-0.29605192
176	0xbf503448	-0.81329775
177	0xbf9b58a1	-1.2136422
178	0xbfc2df19	-1.5224334
179	0x3fd9d606	1.701844
180	0x3f7e53c0	0.9934654
181	0x3e6bef89	0.23040594
182	0x3d8ef9ef	0.06981265
183	0x3f442ca7	0.76630634
184	0xbdd15e43	-0.10223057
185	0x3ef46dd3	0.4774004
186	0x3ba6f9b9	0.005095687
187	0x3ec562fe	0.38552088
188	0x3fa52c27	1.2904099
189	0x3f28b9bb	0.659084
190	0xbf6e4358	-0.9307151
191	0x3e44b45e	0.1920943
192	0x3f70e47e	0.9409865
193	0xbea595a9	-0.32340744
194	0x3e74700b	0.23870866
195	0xbd8605af	-0.06544053
196	0xbf06d947	-0.5267529
197	0x3d675202	0.056474693
198	0x3e94bc82	0.2905007
199	0xbf69a31d	-0.91264516
200	0x3ef8db5c	0.48604858
201	0x3fc4ee0a	1.5385144
202	0xbd527174	-0.05137773
203	0xbfdc2a65	-1.7200438
204	0xbf6d4941	-0.926899
205	0x3eb3ecdd	0.3514165
206	0x3ff1247c	1.8839259
207	0xbedbff3c	-0.42968166
208	0xbf95bcad	-1.1698204
209	0x3ed9e1a0	0.4255495
210	0xbf07ade2	-0.529997
211	0xbf19555d	-0.5989588
212	0x3e9efeee	0.3105387
213	0x3f749d12	0.9555217
214	0xbf2595d0	-0.6468172
215	0xbc8cc306	-0.017182838
216	0xc01c9029	-2.4462988
217	0x3e76d393	0.24104147
218	0x3fa51831	1.2898008
219	0xc0887f89	-4.2655683
220	0x3fe2d226	1.7720382
221	0xc086c776	-4.2118483
222	0xbf384faf	-0.7199659
223	0x3fc09d85	1.5048071
224	0xbf447f36	-0.7675661
225	0x4008e630	2.1390495
226	0xbf7eb3d9	-0.99493176
227	0xbe52f264	-0.20600277
228	0xbe6dc8c2	-0.23221114
229	0x3e9f0e6b	0.31065688
230	0x3da32de2	0.07967736
231	0xbffd2ea3	-1.9779857
232	0x3f535b74	0.8256142
233	0x3f0fb0af	0.5612897
234	0xbe28dba7	-0.1649004
235	0xc014fdde	-2.3279948
236	0xbffe6b55	-1.9876505
237	0xbc98eec0	-0.018668532
238	0x3fae9fd5	1.3642527
239	0xbfa46070	-1.284193
240	0x3fb16f05	1.3862005
241	0xbd95a512	-0.07306875
242	0xbe18347d	-0.14863773
243	0x400f215f	2.2364118
244	0x3d96ab2e	0.07356869
245	0xbf3015bb	-0.6878316
246	0xbf388383	-0.7207567
247	0xbdffc238	-0.12488216
248	0x3f601556	0.87532556
249	0x3f2b459e	0.669031
250	0x3e833119	0.25623396
251	0xbf75da32	-0.96036065
252	0x3f7b8c0b	0.98260564
253	0x3dfcf22f	0.1235088
254	0xbdf1cc73	-0.11806574
255	0x3f1bb11f	0.6081714

layers.1.bias f4 [24]
0	0xbfcdd9b1	-1.6082059
1	0xbf9b04e6	-1.211087
2	0xc006142c	-2.0949812
3	0xbf5e15f5	-0.86752254
4	0xbfe18c43	-1.762093
5	0x403bba3c	2.9332418
6	0xbfcf3205	-1.618714
7	0xbefeab58	-0.497401
8	0xbed46f5f	-0.4149122
9	0xbebb9759	-0.36638907
10	0xbf8485cb	-1.035333
11	0xbe88ce3d	-0.26719847
12	0xbfdc782c	-1.7224174
13	0xbfaa359b	-1.3297609
14	0x3e4993a6	0.1968523
15	0xbf3ae1d1	-0.7300082
16	0xbf9bed67	-1.2181824
17	0xbfc312f3	-1.5240158
18	0xbf6fbffa	-0.9365231
19	0x3e5276f6	0.20553192
20	0x3f055804	0.52087426
21	0xbf187d9e	-0.59566677
22	0x3fd98c3f	1.6995925
23	0xbe57eae5	-0.21085699

layers.2.weight f4 [12, 24]
0	0xbf526ef7	-0.8220057
1	0xbf2dd990	-0.679101
2	0x3e70d69d	0.23519368
3	0xbe5f8910	-0.21829629
4	0x3fc32551	1.5245763
5	0xbf9feb9c	-1.2493777
6	0xc0386858	-2.8813686
7	0x3f623927	0.8836846
8	0x3f907885	1.128678
9	0xc025e4e2	-2.592095
10	0xbf423e88	-0.75876665
11	0x4038185d	2.876487
12	0xc00c7cfe	-2.195129
13	0xbee0b271	-0.4388614
14	0x3f79bdff	0.97555536
15	0xbf0d37b9	-0.5516315
16	0x3feec649	1.8654262
17	0x3ec36ef5	0.3817059
18	0x3e3e2a18	0.18570745
19	0x4051e685	3.2796948
20	0xbf721aba	-0.9457203
21	0xbe16eb30	-0.14738154
22	0xbfbfdd95	-1.4989496
23	0xc09834ab	-4.756429
24	0xbf5e7924	-0.86903596
25	0xbf0ea7aa	-0.55724585
26	0xbe0b4fe1	-0.1360469
27	0xbecb3d56	-0.39695233
28	0x3f5f059b	0.8711793
29	0xbd09b1f9	-0.033616994
30	0x3f179d6a	0.5922457
31	0x3ec6039a	0.38674623
32	0x3f1b11cb	0.60574025
33	0x3f553ba3	0.83294123
34	0xbde5f665	-0.11228637
35	0x3f9ea27a	1.2393334
36	0xbec7b32f	-0.39003894
37	0x3f8fe781	1.1242524
38	0x3fcc78db	1.5974382
39	0xbfb28d12	-1.3949301
40	0xbf116f7c	-0.56810737
41	0x3f96825c	1.1758533
42	0xbfec9ba2	-1.8484995
43	0xbf9cb078	-1.2241354
44	0xbf7f5489	-0.99738365
45	0xbca5fcdb	-0.020262172
46	0xbe3e9ad0	-0.18613744
47	0x3f93ff75	1.1562334
48	0x3e59f060	0.21283102
49	0xbe554036	-0.20825276
50	0x3f6b6cd7	0.9196295
51	0xbf058809	-0.521607
52	0xbfb3aa04	-1.403626
53	0xbffdea32	-1.9837096
54	0xbfaa6bef	-1.3314189
55	0x3fc9a7cb	1.5754331
56	0xbf2f94f6	-0.6858667
57	0x3d60f248	0.054918557
58	0x3d939444	0.07206014
59	0x3fd5163a	1.6647408
60	0x3f72f67a	0.94907343
61	0x3fbd03ad	1.4766747
62	0xbf0d3a48	-0.55167055
63	0x3f26b34e	0.6511735
64	0xc04b0603	-3.172242
65	0x4002ebd9	2.045645
66	0xbe3d30b3	-0.18475609
67	0xbfb320f4	-1.3994431
68	0xbf3ecfef	-0.7453603
69	0xbf36cee8	-0.71409464
70	0x3defb38f	0.1170417
71	0xbe8e33ac	-0.27773798
72	0x3f750708	0.95713854
73	0x3fb8906c	1.4419074
74	0x3fb096f7	1.3796071
75	0x3ffe1004	1.9848638
76	0xbf9a9b0f	-1.207857
77	0xbef4f3c7	-0.47842237
78	0xbe0261e7	-0.1273266
79	0xc0834193	-4.1017547
80	0xbf2d90a1	-0.6779881
81	0x401c3c36	2.441175
82	0x3fa772fc	1.3081965
83	0xc0322ceb	-2.7839916
84	0x39520a60	0.00020031026
85	0x3f2d9508	0.6780553
86	0xc0000073	-2.0000274
87	0x3f8d4b60	1.1038628
88	0x3dff1479	0.12455077
89	0x3fc7c219	1.5606109
90	0x3ed1c9b5	0.40974203
91	0xbfc2752c	-1.5192008
92	0xbf5d8f39	-0.86546665
93	0x3ffea82d	1.9895073
94	0xbe270b67	-0.16312943
95	0xbe78fee9	-0.2431599
96	0xbf49be95	-0.7880643
97	0xbfe0faac	-1.7576499
98	0x3f6ed3b3	0.9329178
99	0x3edd3087	0.43201086
100	0x3f8b08b3	1.086203
101	0xbf65f1ad	-0.8982189
102	0xc07984e4	-3.898736
103	0x3f95eea4	1.1713452
104	0x3fa6931f	1.3013648
105	0xbfd34f95	-1.6508662
106	0x3dec1cab	0.115289055
107	0x3fc316d1	1.5241338
108	0xbf9b3e82	-1.2128451
109	0xbea379f3	-0.31928977
110	0x3fe90483	1.8204502
111	0xbfc7fa4c	-1.562326
112	0x406d97e1	3.712395
113	0xbfe1532c	-1.7603507
114	0xbe8834a7	-0.2660267
115	0x4024dcf1	2.5759852
116	0xbf733035	-0.94995433
117	0xbedea102	-0.43482214
118	0xbf832bf3	-1.0247787
119	0xc0825830	-4.073265
120	0xc014b7b0	-2.3237114
121	0xbddc5034	-0.10757485
122	0x3faeb15f	1.3647879
123	0x3fe11bd9	1.7586623
124	0x3f8a7c8f	1.0819262
125	0xbe0d2aee	-0.13785908
126	0xbf80a222	-1.0049479
127	0x3f1ac3a7	0.6045479
128	0x3f4862b3	0.78275603
129	0xbf0ff3e1	-0.56231505
130	0xbe103a0c	-0.14084643
131	0xbdeaff6e	-0.114745006
132	0xbf6afb98	-0.9179015
133	0xbf20d7e7	-0.6282944
134	0x3ff5e19e	1.9209478
135	0xbf509de3	-0.81490916
136	0x403b06d9	2.922293
137	0xbfa91282	-1.3208773
138	0xc0005dfa	-2.0057359
139	0xbeaaff5a	-0.33397943
140	0x3ec3f46d	0.3827242
141	0xbd3f94d4	-0.046772793
142	0xc01a310e	-2.409244
143	0xbe854ee1	-0.26036742
144	0x3f892919	1.0715667
145	0x4005ffab	2.0937297
146	0x3f89b8c8	1.0759516
147	0x3fd352d2	1.650965
148	0xbe5f42b0	-0.21802783
149	0xbfad47b1	-1.3537503
150	0x3f5a3776	0.85240877
151	0x3f74695a	0.95473254
152	0x3d534e4f	0.051588353
153	0x3fed83cb	1.8555845
154	0x3fa63f06	1.2987983
155	0xbfa7f760	-1.3122368
156	0x401d06c0	2.453537
157	0xbe62025c	-0.22071213
158	0xbf5bea8c	-0.85904765
159	0x3e65f2bb	0.22455876
160	0xc0394318	-2.89472
161	0x3faafb64	1.3357968
162	0x3fdffe3a	1.7499459
163	0xbfe41a14	-1.7820458
164	0xbf7cc724	-0.98741364
165	0x40353f4a	2.8319879
166	0x3e3f4b9b	0.18681185
167	0xbf12ec5b	-0.573919
168	0x400e869f	2.2269666
169	0xbf772693	-0.96543235
170	0x3f9848e6	1.1897247
171	0xbfafed93	-1.3744377
172	0xc0005008	-2.0048847
173	0xbf594d0b	-0.84883183
174	0x3fdca4d5	1.7237803
175	0xbeb72566	-0.3577072
176	0xc00657a7	-2.0990999
177	0xbe92ce48	-0.28673005
178	0x3d981d65	0.074274816
179	0x402c8f88	2.6962605
180	0xbf7c3fd3	-0.9853489
181	0x3f5dae2d	0.86593896
182	0xc0618ac3	-3.5240943
183	0xbe824dc7	-0.25449964
184	0xc03d66ba	-2.959395
185	0xbfb87b23	-1.4412578
186	0xbff94a2c	-1.947576
187	0xbed4c0a5	-0.41553226
188	0xc0193283	-2.393708
189	0xbf64d49a	-0.89386904
190	0xbf6ea9ff	-0.93228143
191	0xc02bd9b8	-2.6851635
192	0x3e63ed51	0.22258498
193	0x3f89eeb3	1.077597
194	0xc00a1f1e	-2.1581492
195	0xbf2c561d	-0.673189
196	0xbf513043	-0.81714267
197	0x3c928882	0.017887358
198	0x3f8a9839	1.0827705
199	0xbd8b6290	-0.06805909
200	0x3f0fa196	0.56105936
201	0x3ec857f3	0.391296
202	0xbf0e5272	-0.5559455
203	0x3f7fd3cc	0.9993255
204	0xbe9e575d	-0.30926028
205	0xbe161fa2	-0.14660504
206	0x3daa7f3f	0.083250515
207	0xbfb4b2d1	-1.411707
208	0xbfd3b957	-1.6540936
209	0x4017bab3	2.3707702
210	0x3eb03f7d	0.34423438
211	0x3f9dd84e	1.2331636
212	0x3ec4c443	0.38430986
213	0x3f5e7a26	0.86905134
214	0xbfc0784b	-1.503671
215	0x3fda334e	1.7046907
216	0xbec330b9	-0.3812311
217	0xbf8dd104	-1.1079412
218	0x3f083f44	0.53221536
219	0x3e6d010d	0.23144932
220	0x3f991e63	1.1962398
221	0xbe33aaeb	-0.17545669
222	0xbf818529	-1.0118762
223	0xbf5e7ce9	-0.8690935
224	0x3fc6ee7b	1.5541528
225	0xbfdaa98d	-1.7082993
226	0xbfacc323	-1.3497051
227	0xbf9c16e2	-1.2194483
228	0xbf444613	-0.76669425
229	0xbe8b9d05	-0.27268234
230	0x3f0bf60e	0.54672325
231	0xbf79a199	-0.97512203
232	0x404706ca	3.1097894
233	0x3fbeaeb3	1.4897064
234	0xbec421ea	-0.38307124
235	0x3a1c4c57	0.0005962303
236	0x3f1e709b	0.6189057
237	0xbfd14d2f	-1.635168
238	0xbed84968	-0.42243505
239	0xc09ffc35	-4.999537
240	0x3f111e54	0.566869
241	0x3e33b566	0.17549667
242	0x3ecee159	0.40406302
243	0xbeedcbc7	-0.46444532
244	0x3fbc7156	1.4722087
245	0xbd24b565	-0.040212054
246	0x400e4977	2.223234
247	0xbd36e32f	-0.044650253
248	0xbea5ee3c	-0.3240832
249	0x3f175bf3	0.5912468
250	0x40028dbc	2.0399008
251	0x3d8e4fe1	0.069488294
252	0xbe9cd9fd	-0.30635062
253	0xbe0c5701	-0.13705064
254	0xbe99101a	-0.29895097
255	0x3f8cc928	1.0998888

layers.2.bias f4 [12]
0	0x3c9a5b5a	0.018842388
1	0xbd4cb596	-0.04997786
2	0xbfc0c36a	-1.5059636
3	0xbf407bab	-0.751887
4	0xbf0420f0	-0.5161276
5	0x3f84041c	1.0313754
6	0xc018c3de	-2.3869548
7	0xbfbc2597	-1.4698972
8	0xbfe9db79	-1.8270103
9	0x3f6ab9e0	0.9168987
10	0x3ea079c9	0.31342915
11	0xc0247400	-2.56958

layers.3.weight f4 [2, 12]
0	0x3ee4968a	0.44646102
1	0x3d87a077	0.06622403
2	0xbe874ce0	-0.26425838
3	0xbee23909	-0.4418414
4	0x3f6fa5ce	0.9361237
5	0x3ebdb502	0.3705216
6	0xbeae2d64	-0.34019005
7	0xbec01a54	-0.37520087
8	0xbd78d538	-0.060750216
9	0x3f7a1646	0.97690237
10	0xbde14ea9	-0.11001331
11	0xbf1f9171	-0.623313
12	0x3f7d32bd	0.98905545
13	0x3f22c8a3	0.635874
14	0x400248c3	2.035691
15	0xc051bd23	-3.277169
16	0x3ed82d70	0.42222166
17	0xbcf6c4ba	-0.030123103
18	0xbfa2d7ec	-1.2722144
19	0x4020b12f	2.5108144
20	0xbf51c0c6	-0.81934774
21	0xbfc4da1e	-1.5379064
22	0xbcb73136	-0.022362333
23	0xbf8b7a15	-1.0896631

layers.3.bias f4 [2]
0	0xbe4a3d1d	-0.19749875
1	0xbf37cc37	-0.7179598
