saved_models/ddpg_model_longer_run.pth (torch_old, 48494 bytes, 30 tensors)

layers.0.weight f4 [48, 24]
000000 f3 8e a5 3e 8f 06 24 bf ce 3d 95 3c 8f ca 68 3d
       0.32335624 -0.6407251 0.018217947 0.0568338
000010 f0 ef 89 3e 8c 44 20 bf ac d3 a0 3c 1e 58 d8 bc
       0.2694087 -0.62604594 0.019632183 -0.026409205
000020 31 a1 9f 3e 94 b2 12 bf 83 6a 8a 3d 40 8c 30 be
       0.31177667 -0.5730374 0.06758597 -0.17241001
000030 b5 40 9f 3c d2 71 bc 3e fb 2f df 3d 9d 93 a3 3d
       0.019440034 0.36805588 0.108978234 0.079871394
000040 1b ab a0 3e a3 07 2a bf 63 06 61 3d 8b 75 1d bd
       0.31380543 -0.664179 0.05493773 -0.038442176
000050 73 d9 3d be 04 0e de 3f 9d d2 84 3d f8 6e 6d be
       -0.18539982 1.7348027 0.06485484 -0.23186862
000060 e6 a7 65 be 76 9b 0e 3f 6a 87 6b bd 25 21 a9 3d
       -0.2242733 0.55705965 -0.057502188 0.08258275
000070 2b e6 ba 3e 55 ac 7b 3f bc fd 29 3d 6b 36 fa 3d
       0.3650373 0.9830983 0.041501746 0.12217411
000080 9c 44 8c be fc 14 1f 3f e7 66 ad ba 9a b5 41 be
       -0.27396095 0.62141395 -0.001322952 -0.18916932
000090 d3 0e e9 3d 74 25 42 be bb d4 0c bd b2 df e0 bd
       0.113797806 -0.189596 -0.034382563 -0.109801665
0000a0 39 d2 60 be 94 0e 03 3f b3 46 b4 3c 56 09 67 3e
       -0.21955194 0.5119412 0.022006368 0.22562155
0000b0 88 eb f3 3d f8 d9 25 c0 b7 31 60 bd 3a 88 3a 3e
       0.119101584 -2.5914288 -0.05473491 0.18216029
0000c0 9a 3d f2 3d 2a 1c 07 3d 4a 99 8a 3d 33 39 e7 3d
       0.11828156 0.032985844 0.06767519 0.11290207
0000d0 60 91 83 bf 34 c6 be bf e7 5a 06 3d 94 b2 ab bd
       -1.027874 -1.4904237 0.032801535 -0.083836704
0000e0 4f f1 eb 3d 09 a6 81 bd 9a 86 fe 3b e9 89 ce 3c
       0.11520635 -0.06330497 0.0077675106 0.025212245
0000f0 08 66 6c be a9 cd 9e bd e5 d6 5d 3c 65 dc cd 3c
       -0.23085797 -0.0775407 0.013540004 0.025129506
000100 ab 1c 41 3d 7a c1 84 be 1c 40 98 bd fb 9a 18 be
       0.04714648 -0.2592886 -0.07434103 -0.1490287
000110 56 a3 fc 3e 10 f7 12 40 c2 23 07 3e 0a 46 ed bc
       0.49343365 2.2963295 0.13197234 -0.028964061
000120 92 6f 50 be 32 a1 98 be 86 62 bb 3c 42 d3 ec bd
       -0.2035506 -0.29810482 0.022874128 -0.11563732
000130 ac 13 30 3f 66 67 d7 bf b1 a9 06 bd 1d 7a 3d be
       0.68780017 -1.682843 -0.032876674 -0.18503614
000140 52 68 34 ba 19 89 f4 be 65 0c dc bc c8 bc 50 be
       -0.0006882 -0.47760847 -0.026861379 -0.20384514
000150 4b aa 0a 3f 53 77 12 bf 87 00 35 bd fe 33 00 3d
       0.54166096 -0.57213324 -0.044189956 0.031299584
000160 30 34 ac be 82 8c ec be 5b fb 2c 3d ae 16 f2 bd
       -0.33633566 -0.4620095 0.0422319 -0.11820732
000170 28 2e 18 3f 54 e9 b4 3f e4 e7 0b 3e 2c d5 c4 bd
       0.5944543 1.4133706 0.13662678 -0.09610972
000180 d1 5a 9d 3e 67 a7 1c 3e 57 ad 87 3c 1f cb fe bb
       0.3073335 0.15298234 0.016562147 -0.0077756788
000190 26 3c e1 3e 40 a9 81 bf 5a 6a 6a bd 8f 7c 3d be
       0.43991202 -1.0129776 -0.05723033 -0.18504547
0001a0 80 0e 36 3e 4b 24 b0 3e e7 77 09 3d 09 ad 63 3e
       0.17778969 0.3440269 0.033561613 0.22233976
0001b0 74 05 98 3e fa 00 a2 bf 0c f6 73 3e 3d 4f 84 3e
       0.2969166 -1.2656548 0.23824328 0.25841704
0001c0 22 87 e2 3e 06 cb 87 3e 6a e9 12 bd 2d 1e 31 3e
       0.44243723 0.26522082 -0.035867132 0.17296667
0001d0 3f 45 b6 3e d0 27 cc bf be a8 b2 bc ad b0 99 3e
       0.35599706 -1.594965 -0.021808978 0.30017605
0001e0 f6 09 d4 bd 54 70 04 bf 7c 70 9b 3d e1 44 90 3d
       -0.103534624 -0.517339 0.07589814 0.070443876
0001f0 9d 6e c3 3e 9e 74 38 bf 72 35 73 3c fa c1 a9 bd
       0.3817033 -0.72052944 0.014844285 -0.08288951
000200 9c eb 26 3e b7 32 f3 be d1 2d 21 3d 84 5e 39 be
       0.16300815 -0.4749963 0.039350335 -0.18102461
000210 97 59 e5 be ef 42 4f 3e e5 2f e2 3c 80 b0 65 be
       -0.44794914 0.20240377 0.027610729 -0.2243061
000220 7e a9 26 3e c7 e0 10 bf 69 8a d6 bc c5 65 54 be
       0.16275594 -0.56592983 -0.026189046 -0.20741947
000230 cc 25 8d bf 99 6e a9 3f 5b b9 37 3e 18 d5 0d 3d
       -1.102716 1.3236877 0.17941801 0.03462705
000240 e1 c3 31 3e 01 13 2e 3f 3b 06 94 bd 70 73 e0 3b
       0.17359878 0.6799775 -0.07227751 0.0068496987
000250 bf 8e 80 3d dc ad 3e bf a4 b4 30 3d a3 76 b2 3d
       0.06277227 -0.7448404 0.043141022 0.087140344
000260 7d 39 43 3c 47 e5 24 3f 5e a7 a0 3d 11 01 be 3e
       0.011915562 0.6441235 0.07844423 0.3711019
000270 55 3d e1 bc a9 4b 91 3d aa 0e 89 bd a9 5b be 3e
       -0.027495066 0.07094509 -0.0669225 0.37179306
000280 79 04 c7 bd f3 2c 3f 3f 4d c5 d5 ba 26 1f 0b bf
       -0.0971765 0.7467796 -0.001630941 -0.54344404
000290 7a 44 5e bd 6a 5b c6 3f 13 69 8e bd c0 be ef be
       -0.054264523 1.5496647 -0.06953635 -0.46825218
0002a0 8b 07 14 be d7 12 c3 be ac 76 58 3d 45 c2 f9 3d
       -0.14456002 -0.3810031 0.05284755 0.12195257
0002b0 15 1d b7 3f 30 2e 86 be ba f8 16 bd 89 5a 8d 3d
       1.430575 -0.26207113 -0.036858298 0.06902034
0002c0 31 ce 47 be b9 5f 7f be 82 f7 9b 3c 7e a7 a0 3d
       -0.1951225 -0.24938859 0.01903892 0.078444466
0002d0 9d fb 9d 3e 08 46 6e bd 2b b7 a6 bc 88 ed 05 3e
       0.30856028 -0.058172256 -0.020351013 0.13078892
0002e0 a8 03 a5 3d 0c b1 a3 be 69 ac bf 3d 08 58 ae bd
       0.08057338 -0.31971014 0.093590565 -0.085128844
0002f0 76 9b 1d bf be f4 cf 3d ff a5 c6 bd b3 c2 cf bc
       -0.6156534 0.10154103 -0.0969963 -0.025361395
000300 de e8 10 3d 03 57 c1 ba a4 84 90 3d a5 f6 5c be
       0.03537833 -0.0014750663 0.07056549 -0.21578462
000310 c9 cc 06 bf 01 b4 d4 be 5b 16 2d bc 6c 5a a5 bd
       -0.5265623 -0.41543582 -0.010564412 -0.08073887
000320 42 eb 41 3d 51 36 f6 3d c6 e3 d0 3d 58 ed 58 be
       0.0473435 0.12022079 0.10199694 -0.2118429
000330 9a f7 63 3e 9a 26 83 bd a6 8e ac bd 9e 2f 60 be
       0.22262421 -0.06403847 -0.084256455 -0.21893165
000340 c4 ae a6 3d 42 1d 01 3e 16 18 31 be 88 da 9c 3e
       0.08138803 0.12608817 -0.17294344 0.30635476
000350 e3 92 6a 3f 41 b8 84 3f 4d 83 e8 bd 1f 22 26 3e
       0.9163038 1.036873 -0.11353169 0.16223954
000360 d4 4b f1 bd af 05 95 bd 0c e3 80 3d 5b 9e c1 bd
       -0.11782041 -0.07276475 0.06293306 -0.09454032
000370 50 ce c0 3e 95 ae 9f be 8c c4 39 be 8b 2f 7c 3c
       0.37657404 -0.31187883 -0.18141383 0.0153921945
000380 fc 8d bb bc f5 79 a1 bd fa 10 90 bd 49 1d 9f bd
       -0.022894852 -0.078845896 -0.07034488 -0.077692576
000390 66 86 08 3c 5d 87 85 3e 58 46 37 bd 6e 76 33 be
       0.008332824 0.26079836 -0.04474482 -0.17525646
0003a0 d5 5f 20 3e d0 9d 32 3e 56 e2 fa 3c f2 7d 82 bd
       0.15661557 0.17443013 0.030625504 -0.063716784
0003b0 f0 8f c0 be 38 0b 69 3f 67 b4 32 bd 4a e5 9c 3d
       -0.37609816 0.91032743 -0.043629076 0.07660921
0003c0 f2 30 b2 3e 26 5b 81 be f1 10 65 3b 0e a4 91 3d
       0.34802967 -0.25264853 0.0034952725 0.07111369
0003d0 26 2b dd be a5 38 be be 41 5f 52 3c fa 43 81 3d
       -0.43196982 -0.3715259 0.012840093 0.063117936
0003e0 0e c5 25 3e 76 59 17 3d 9e 3f 40 3d cb 4c 01 bd
       0.16188452 0.03695055 0.04693567 -0.031567376
0003f0 ff 8f f9 3e ee e5 15 bb cb b9 d0 bc 9b 4a 04 bd
       0.48742673 -0.0022872644 -0.025479218 -0.03229771

layers.0.bias f4 [48]
000000 73 1c eb bc d4 28 01 3f c0 fb 5e be 22 f3 3d 3c
       -0.02870009 0.50452924 -0.21775723 0.011593612
000010 a8 3c 79 3d 64 69 d3 3d 07 66 ed bd e2 a5 84 be
       0.060848862 0.10322836 -0.11591726 -0.2590781
000020 9c 2b 99 bc 5f 84 35 3e 6d db 3e bf 06 75 ef bd
       -0.018697552 0.17726277 -0.7455357 -0.11692242
000030 c6 0e 09 3e f8 27 62 be ec aa 78 be 4d 8b ab be
       0.13384542 -0.2208556 -0.24283952 -0.33504716
000040 4a 6c c8 be 63 44 e5 bc 6f 7b b9 be 7d fe 84 bb
       -0.39145118 -0.02798671 -0.36226985 -0.0040586577
000050 ec 5e 8a 3e 75 9a a0 bd 97 2b 23 3e c7 f7 b7 be
       0.27025545 -0.0784196 0.15934597 -0.35931227
000060 63 29 88 be c6 99 d9 bc 92 62 54 be dd 7c fd bd
       -0.26594076 -0.026562583 -0.20740727 -0.123773314
000070 34 52 4d 3e 52 22 c0 be c5 b2 ca be 28 2c 7c 3e
       0.20050889 -0.37526184 -0.39589515 0.2462622
000080 cc a0 81 3e 64 28 97 3e 61 23 e6 be ed 59 0c be
       0.2531799 0.29523003 -0.44948867 -0.13706179
000090 85 cd f5 3e e0 5d 73 3e 27 84 41 bf b8 47 d6 bd
       0.4800836 0.23766279 -0.75592273 -0.10462898
0000a0 cb ed 77 bd e0 30 04 3f 2d 25 69 bd 07 ba 02 bf
       -0.06052951 0.5163708 -0.05692022 -0.51065105
0000b0 d4 eb 34 bf f5 87 ac be ac b3 8e be bd 58 5f 3e
       -0.70672345 -0.33697477 -0.27871454 0.21811195

layers.1.weight f4 [24, 48]
000000 8e 00 dc bd 59 ca 4a be b6 7e 26 3e 67 b8 27 3f
       -0.10742293 -0.19803752 0.16259274 0.6551575
000010 b9 0f b1 3e a9 5f 27 bf e0 c4 12 bf 14 3f a5 ba
       0.34582308 -0.6538034 -0.5733166 -0.00126073
000020 08 65 ae 3e 13 c8 97 be c7 32 08 3e 41 f5 43 3e
       0.34061456 -0.29644832 0.1330062 0.19136526
000030 3c 6e f1 3c 03 f6 b5 be f2 50 eb bd 03 22 c5 be
       0.02947151 -0.35539255 -0.114900485 -0.3850251
000040 2e 7f a3 3e 55 4a 46 3e 32 a2 4d bd ca 4d 4b 3f
       0.31932968 0.19364293 -0.05020351 0.7941557
000050 57 54 95 3e f1 aa e0 be d8 7c df be 91 8b 53 3f
       0.2916591 -0.43880418 -0.43649936 0.82634836
000060 a4 e0 80 bf dd d6 5f bd cd 0d 8e bd f0 16 f6 bd
       -1.0068555 -0.05464827 -0.06936226 -0.12016094
000070 5d b8 88 bf f2 30 6b bd 2c 40 b6 bd 9a 42 8e be
       -1.0681263 -0.057419725 -0.088989586 -0.27785188
000080 b6 d7 3e bf 2f 7e 0d bf 74 d7 51 bd ec 95 68 3e
       -0.745479 -0.55270666 -0.051230863 0.2271344
000090 dd ed 9a bf 10 98 74 3e c4 48 2c bf ef ab a4 be
       -1.210384 0.23886132 -0.6729853 -0.32162425
0000a0 d5 d0 37 be f5 2d 8a 3e f2 e8 20 be 03 56 e1 be
       -0.17950757 0.26988187 -0.15713862 -0.44010934
0000b0 e2 98 b0 be dc cd bb bc bc 95 0f bf 73 39 d6 be
       -0.3449164 -0.02292531 -0.5608785 -0.41840705
0000c0 81 de b0 be 0d d4 e0 bd ab 16 7c bf 03 4d 20 3f
       -0.34544757 -0.109779455 -0.9847209 0.6261751
0000d0 a6 05 1a bf db 05 53 3e 40 df f0 be 86 af c5 be
       -0.6016487 0.20607702 -0.47045326 -0.38610476
0000e0 ee 74 a1 be 66 97 4f 3e a3 cc a4 3d 93 c0 02 3f
       -0.31534523 0.20272598 0.08046844 0.51075095
0000f0 d1 fd 96 3d 3d a1 67 3e 94 b3 73 bf f1 92 21 bf
       0.073726304 0.22620101 -0.9519589 -0.6311484
000100 27 3c a3 be 01 bc 96 bf 8b 92 e5 3e ae d3 06 3f
       -0.3188183 -1.1776124 0.44838366 0.5266675
000110 19 f3 ac bd ce 42 0f 3e 23 80 b5 be f6 34 71 bf
       -0.08444805 0.13990328 -0.35449323 -0.94221437
000120 0d 51 95 3e e8 c0 f9 be 72 d1 16 3c a9 ac c4 3d
       0.291634 -0.48779988 0.009205209 0.09603245
000130 34 e0 3a bf 9e 7f d7 be c8 2b b7 be c5 77 4a be
       -0.72998357 -0.42089552 -0.3577559 -0.19772251
000140 91 d3 21 be ab 3f a6 3e 3d 15 22 be b3 4e f9 be
       -0.15803362 0.3247045 -0.15828414 -0.48692855
000150 fe e0 55 3e 7a f7 07 bf 17 2e 79 3d ec 4d 22 bf
       0.20886609 -0.53111994 0.06083497 -0.6340015
000160 17 89 d8 bd 4a 5d 00 bd 4a fa ef be 6a 6e a5 be
       -0.10573023 -0.031338967 -0.46870643 -0.32310802
000170 12 2e fe 3c 12 96 b0 be e5 f1 e9 be 30 54 05 bf
       0.031027827 -0.34489495 -0.45692363 -0.52081585
000180 d1 e3 76 3d 8c 59 26 3d 35 93 aa be 3d be 16 bd
       0.060275856 0.040612742 -0.33315435 -0.03680252
000190 f8 22 ad be b5 20 7b be 07 f8 28 3f 88 87 34 3e
       -0.33815742 -0.24524195 0.6600346 0.17629826
0001a0 8e c1 de bd e6 fa 9a be 26 b3 96 be 45 aa c8 3c
       -0.108767614 -0.30269545 -0.29433554 0.024495253
0001b0 d2 5f ac bb 02 a2 1a 3e 76 76 10 3e 19 be ec 3e
       -0.005260446 0.15100864 0.1410769 0.46238783
0001c0 7f 94 52 bd e9 2a 9d 3e 68 b8 2f be 66 ab 36 bf
       -0.05141115 0.306968 -0.17160189 -0.71355283
0001d0 b9 c9 c7 be d7 90 2a 3f 07 82 ac 3d 1c 8e 90 be
       -0.3902109 0.6662726 0.08423238 -0.2823342
0001e0 09 a3 1f be fa 8a ed 3d 34 86 3f be f2 dd 28 be
       -0.15589537 0.11598773 -0.18703538 -0.16490915
0001f0 76 ce 73 be db 6a 34 3e f5 27 82 3e 1a c4 39 3f
       -0.23809227 0.17618887 0.2542111 0.7256485
000200 b5 a1 06 3e c0 51 10 be 70 45 21 3f 17 9e 4f be
       0.13147624 -0.14093685 0.6299658 -0.2027515
000210 d8 fd b9 be 80 d0 83 bd 94 bd b4 3e 48 bc cf 3e
       -0.3632648 -0.064362526 0.35300887 0.40573335
000220 c0 d0 cb 3c 36 58 fb be be b1 81 3b ae ba a0 3e
       0.024879813 -0.49090737 0.003957956 0.31392425
000230 0b 31 4c 3e fb fa 55 3a 12 fa f7 3e 78 d9 c8 3d
       0.19940583 0.0008162704 0.48432976 0.09807104
000240 ac c9 b2 bd 45 30 d4 3d 9b 2a 19 bf c6 c8 36 be
       -0.08729872 0.10360769 -0.59830636 -0.17850026
000250 25 ea 80 be c1 d1 1a bf 4a d8 8b 3c 9d 2e 71 be
       -0.25178638 -0.6047631 0.017070908 -0.23552938
000260 9d b4 dc 3c b8 db 58 3e 24 20 a7 3e 70 65 0c 3e
       0.026941592 0.21177566 0.3264171 0.1371057
000270 13 14 b9 be e6 92 aa be db c8 9d 3d b6 c0 25 be
       -0.36148128 -0.333152 0.07704326 -0.16186795
000280 e0 e5 49 be e4 a5 a0 bd 0b 77 01 bc ae b0 38 be
       -0.19716597 -0.07844141 -0.007901917 -0.18036148
000290 61 f5 06 3e b1 fc 02 3e a4 ec ed bd 4c e1 06 3d
       0.13179542 0.12791707 -0.11617401 0.032929704
0002a0 cc 9a be 3e 52 cc d9 be 2b 43 8d bd 8d 2b 32 be
       0.37227476 -0.42538697 -0.06897577 -0.17399426
0002b0 e3 15 f8 bd 43 4d 22 3f cb 6f 25 be b3 06 fe 3e
       -0.121135496 0.6339914 -0.16155927 0.49614486
0002c0 0e 12 df 3e fb b5 f1 3d 05 07 1a bf e9 24 cc be
       0.43568462 0.11802288 -0.6016696 -0.3987191
0002d0 01 d9 bf 3e 19 41 bf bd 90 05 ea bd 9d 8b c3 be
       0.37470248 -0.09338588 -0.11426842 -0.38192454
0002e0 78 01 23 bf 4d 4b 83 3e 8e 3b 1f be 98 f7 3b bf
       -0.63674116 0.25643387 -0.15550062 -0.73424673
0002f0 14 af 12 3f 4c 72 08 3d bc 99 19 bf ab 3b 71 bb
       0.572984 0.033312127 -0.60000205 -0.0036809247
000300 e9 be c5 3e bd e2 1f bf d0 57 06 3f 8c 93 1a 3c
       0.38622215 -0.6245535 0.5247774 0.009434592
000310 61 d0 2a be a2 68 66 be d7 03 57 3f 50 28 51 bd
       -0.16681053 -0.22500852 0.83990234 -0.051063836
000320 15 54 ba be 1b 5f d2 be 71 29 4f bd 50 7f 7d be
       -0.36392274 -0.41088185 -0.05057663 -0.24755597
000330 ed ac 5d bd f6 ca 07 be 8c d1 fb 3d 17 05 19 3e
       -0.054119993 -0.13261017 0.12295827 0.14943348
000340 ff 7a 4c 3e d6 34 7a be d2 77 86 3d 63 63 af 3e
       0.19968794 -0.24434218 0.06565823 0.34255514
000350 ee 1b 3b be 23 55 07 3e 48 1a 80 be 75 7c a8 3d
       -0.18272373 0.13216071 -0.2502005 0.08226863
000360 f2 aa ff bd 11 83 e8 3e 79 ea 45 be 17 1b d5 be
       -0.12483777 0.45412496 -0.19327725 -0.4162223
000370 0c dd 0d bf 66 e1 21 bf e2 cb 90 bf 7c e5 1d 3d
       -0.55415416 -0.63234556 -1.131222 0.03854893
000380 2a 67 c7 3e 20 0a 28 bf 9f 5d bf be 84 85 65 3e
       0.38945895 -0.6564045 -0.37376115 0.22414213
000390 ae 2e 3c bf 46 ea 18 bf c4 71 b5 3e 98 74 b2 3e
       -0.7350873 -0.5973247 0.3543836 0.3485458
0003a0 84 f4 a4 bd fa d2 88 be c9 1a e7 be 06 7a 03 3f
       -0.0805445 -0.26723462 -0.45137623 0.5135807
0003b0 bd 6b 14 3e 7f e0 a5 bd b8 4e f8 bc 0d 8f 6c 3e
       0.14494224 -0.0809946 -0.030310974 0.23101445
0003c0 c5 19 f5 3e f2 f9 d6 3e 6b 40 09 3f 73 77 a1 3e
       0.47871223 0.41987568 0.5361392 0.31536445
0003d0 81 e6 77 be f9 38 c3 bc 83 11 79 3e c6 a9 d6 3e
       -0.24209024 -0.023830878 0.24323086 0.41926402
0003e0 b5 15 35 be 71 9c 10 bb 5e df 18 bf 6a 1e ea bc
       -0.17684062 -0.0022065903 -0.5971583 -0.028578956
0003f0 bd 2f f6 3d 93 3f 9b 3e 68 9e b2 3e 8a dd bd 3e
       0.12020824 0.3032194 0.3488648 0.37083083

layers.1.bias f4 [24]
000000 fb 0f 69 be dd 9f 55 be c5 6d 8f be 40 3d 86 3d
       -0.22760002 -0.20861764 -0.28013435 0.06554651
000010 24 85 45 bf d3 a6 c3 3e c7 8d 67 3d d7 b4 e2 3d
       -0.7715628 0.38213214 0.056531694 0.11069649
000020 c1 95 ae be 81 f2 ef 3e d3 06 26 3d 72 9f 28 be
       -0.34098628 0.46864703 0.04053385 -0.16467074
000030 26 38 be be f8 ad c1 3d ef 30 ed 3e 53 24 a5 be
       -0.37152213 0.0945701 0.46326396 -0.32254276
000040 41 6c 5a 3c d7 9b 4f bd 5c d9 20 bf 0c a0 5e bd
       0.013331474 -0.05068573 -0.62831664 -0.05435185
000050 7e ce 66 bd 9c 4f 63 be 41 cc b1 bd 6d 96 c0 3e
       -0.05634927 -0.22198337 -0.086815365 0.37614766

layers.2.weight f4 [12, 24]
000000 8b 13 69 be 8e d2 28 bf e5 8f c8 be f6 29 40 3e
       -0.22761361 -0.6594628 -0.39172283 0.18766007
000010 e0 ad 30 bf 6b ba 98 bd fe c2 ba bd d6 24 d3 3e
       -0.6901531 -0.074574314 -0.09119223 0.4123904
000020 a8 61 ff 3e 00 d8 a7 3e b8 c5 cc bc e4 b0 c6 bd
       0.49879193 0.32781982 -0.024996623 -0.09701708
000030 8b e1 0e bf 51 fe 98 3e 67 1e 16 be 98 2c af 3f
       -0.558129 0.29881528 -0.14660035 1.3685484
000040 b4 20 72 be d5 1f 43 be 93 1d b4 be 29 29 60 3e
       -0.23645288 -0.19055112 -0.35178813 0.21890701
000050 20 02 72 bf 88 82 01 3f 1d 4e 33 3e 2d c5 b5 3f
       -0.9453449 0.505898 0.17510267 1.4200798
000060 9d cc 30 bf c4 f9 9c 3e 06 ee 24 be 09 ec f9 3c
       -0.69062215 0.30659306 -0.16106424 0.030508058
000070 ea aa 74 be f8 7e 5b bf 59 b2 41 3e 0d d3 27 bf
       -0.23893324 -0.85740614 0.1891569 -0.6555641
000080 2e 42 50 3f db 64 16 3f a1 88 db 3e dc 84 22 bf
       0.8135098 0.58747643 0.42877677 -0.6348398
000090 ee 06 fd 3d 36 73 19 3f 3a 38 e9 3d 6d 48 34 3e
       0.12354837 0.5994142 0.113876775 0.17605753
0000a0 dc c0 7b 3e 4f d0 1e 3f 56 89 a9 be 31 ad 34 bd
       0.24585289 0.62036604 -0.33112592 -0.04411048
0000b0 5b 5c b7 bf 66 12 c0 bf ee 94 6c 3e 18 76 83 bf
       -1.432506 -1.5005615 0.23103687 -1.0270414
0000c0 a3 ed 4f 3e 82 de 17 3d 79 bd 00 3e 26 11 ee 3c
       0.20305495 0.037077434 0.12572278 0.029060911
0000d0 43 2f 03 3f 77 71 4e 3f e7 d0 27 3f c9 cc 03 3f
       0.5124399 0.80641884 0.65553135 0.5148435
0000e0 c2 70 18 bf f2 50 e2 be 7d ac 9b bd 26 99 36 3f
       -0.59547055 -0.4420238 -0.07601259 0.71327436
0000f0 d6 d2 69 3f d9 7b 02 be 63 65 f8 bd 0f dd 61 bf
       0.91337335 -0.12742557 -0.12128713 -0.88227934
000100 44 23 d0 3e 63 33 12 bf 14 31 23 bf 55 9b 07 be
       0.40651906 -0.5710966 -0.6374676 -0.13242848
000110 27 7c a1 be 8d 34 9a be 7f bc 13 be 91 34 8c 3f
       -0.31540033 -0.30118218 -0.14427374 1.0953542
000120 68 fd 2b 3f a3 24 b7 bc fa 75 c6 be e4 e3 e0 be
       0.6718354 -0.022356337 -0.38761884 -0.43923867
000130 32 70 c8 be 22 93 de 3e 8c fa 87 be 56 73 e0 bd
       -0.39148098 0.43471628 -0.2655834 -0.109594986
000140 0a 9f ea be 09 7a 05 be 23 9d 8b bd 31 e2 cf be
       -0.45824462 -0.13034834 -0.06817081 -0.40602258
000150 90 a7 93 be 8b 72 03 3f 1b 5a 27 3d 8c 28 92 3e
       -0.28838778 0.51346654 0.040857416 0.2854656
000160 3f c3 db 3b 87 07 43 bc 28 dc fd 3d a2 27 28 3f
       0.0067066248 -0.01190365 0.12395507 0.65685475
000170 07 c0 10 3f c1 f5 79 bd ef 58 ce ba cb 06 3d 3f
       0.5654301 -0.061025385 -0.0015743057 0.7383849
000180 b9 43 9f bf e7 83 85 3e 68 4d 41 3f ca 64 f2 bd
       -1.2442542 0.26077196 0.7550874 -0.1183563
000190 3a 59 6f be 6f 56 20 bf 9f 2e af 3e e3 15 c6 3e
       -0.23373881 -0.6263189 0.34215257 0.38688573
0001a0 fc 27 fd be 71 86 00 be 35 62 27 3e 4c bb 14 bf
       -0.49444568 -0.12551285 0.16346057 -0.5809829
0001b0 59 d6 b8 be e0 96 b9 3d 9d 69 10 bf 64 89 12 3f
       -0.36101034 0.0906198 -0.56411153 0.5724089
0001c0 0a 3b a9 bd d7 ee 16 bf 75 5b 04 3f 93 a7 56 bf
       -0.08263214 -0.5895819 0.5170205 -0.8384945
0001d0 6d 7d b9 bd 68 e8 66 3d e5 e5 82 bd 74 e3 42 bf
       -0.09057126 0.056373984 -0.06391505 -0.76128316
0001e0 2a 7e 2d bf 9c 2c f7 bd 98 95 e9 bd 61 1e 1c 3d
       -0.67770636 -0.120690554 -0.11405486 0.03811491
0001f0 1d 31 1d bf d8 2b 85 be 83 6f 77 3d 5f 9b 64 be
       -0.61403066 -0.26010013 0.06040908 -0.22324894
000200 a6 10 2c 3e 16 26 aa 3e c9 4a 79 bd d8 a0 8d bf
       0.16803226 0.33232182 -0.060862336 -1.1064711
000210 a5 ae cb bf 64 87 8b bf d1 75 a6 3e 17 5f cd 3e
       -1.5912672 -1.0900693 0.32511762 0.4011161
000220 bb d3 11 3e 75 32 2c be d4 b6 1c bf 5a eb 07 3f
       0.14240925 -0.16816123 -0.61216474 0.53093493
000230 e4 46 a7 bd 12 b6 1b 3c d0 05 14 bf 77 4a 69 bf
       -0.08167818 0.009503858 -0.5782137 -0.9112925
000240 26 53 3d 3f d5 8f 13 3d a1 90 e0 bd c8 fa 84 3e
       0.73955 0.03602584 -0.10965086 0.2597258
000250 f4 00 33 3f 40 9b e6 3e ae 5d fe 3e f6 99 66 3e
       0.6992333 0.4504032 0.49680847 0.22519669
000260 3f c7 45 bf 81 61 1f 3e 38 c9 9c bd 31 6e 33 3f
       -0.7725715 0.15564539 -0.07655567 0.70090014
000270 2a 69 c9 3e 07 45 10 3c a3 41 97 3e 2a bf 0b bf
       0.39338046 0.00880552 0.29542264 -0.5458857
000280 1e f6 b9 3d 5e 73 c5 be ca b8 53 bf 8b 14 4e 3e
       0.09080146 -0.3856458 -0.8270384 0.20125024
000290 b1 bf 8f 3c bf f0 c8 bd 11 3b 1a be 1f 41 2a 3f
       0.01754746 -0.09811544 -0.15061595 0.66505617
0002a0 1d ac 4c 3f 4d 30 3e 3d 79 4f d7 3e e4 86 9b be
       0.79950124 0.046432782 0.4205282 -0.3037635
0002b0 c2 7c 77 3f 98 34 91 3f a0 33 eb be 44 42 dd 3d
       0.9667474 1.1344175 -0.45937824 0.10803655
0002c0 34 f1 d3 bd 5e 72 1d bf 1b a6 66 be 3e de 7b 3e
       -0.1034874 -0.61502635 -0.22524302 0.24596497
0002d0 d4 16 bd 3d bb 46 4c bf b8 8a 0d bf db 8c 59 3e
       0.0923287 -0.79795426 -0.55289793 0.21245138
0002e0 94 e0 02 3f 81 6f 62 be 8c 28 6b bf d2 4f 14 3f
       0.5112393 -0.22112848 -0.91858745 0.57934296
0002f0 45 f7 74 3e 70 03 82 be b6 d2 06 3e 29 f4 96 3f
       0.23922451 -0.25393248 0.13166317 1.1793262
000300 88 06 b4 bf bd ce 03 be e3 d7 57 3e f8 b9 ad 3e
       -1.4064493 -0.12871833 0.21078448 0.33930945
000310 07 4e 14 3f 0a 22 3d bf 5a 85 22 3f 0c 80 8c bf
       0.5793156 -0.73880064 0.6348473 -1.0976577
000320 bd cf cc 3e bb 21 c3 be d3 a9 0d be fb cb 06 3f
       0.40002242 -0.38111672 -0.13834314 0.52655
000330 b8 1b e8 3e 5c 5b 93 bf 24 ca 68 3d a6 7d 2a bf
       0.45333648 -1.1512256 0.0568334 -0.66597974
000340 55 46 d8 bd aa d3 7e 3e 75 93 22 bf 54 e6 bb be
       -0.1056029 0.24885431 -0.6350625 -0.36699164
000350 4c b5 61 be b0 a7 85 bd ff 3c da 3e f1 cd 93 be
       -0.22041816 -0.065261245 0.4262466 -0.28868058
000360 37 93 9d 3e c7 ae 89 bf 1b af 44 be 1f 40 cd bd
       0.3077638 -1.0756463 -0.19207422 -0.10021996
000370 9c 26 0f 3f 19 4a f7 be dc b8 ab 3e c6 21 be be
       0.5591829 -0.4829872 0.33539474 -0.37135142
000380 d7 9f 99 be ef ac 13 3f d2 8a 2b bf ec e2 18 3f
       -0.3000476 0.5768575 -0.670087 0.59721255
000390 22 fa 91 bf b9 cc 07 3f e4 59 af 3e e1 26 21 bf
       -1.140446 0.53046757 0.3424827 -0.6294995
0003a0 1a cf 60 3e 24 97 28 bf 06 9f 07 bf 7e 49 cf be
       0.21954003 -0.6585562 -0.52977026 -0.40485758
0003b0 ad bf 1b be 0a 52 06 3e 38 96 18 3e f6 64 ba be
       -0.15209837 0.13117233 0.14901054 -0.36405152
0003c0 77 ff 1b bd e9 1f 1a 3f c3 39 8f bb 95 9e 86 be
       -0.038085427 0.6020494 -0.0043708994 -0.26292863
0003d0 3a 6b dc be 69 a0 ca 3d 04 7e 19 bd 1c 05 69 bc
       -0.43050557 0.09893877 -0.037473693 -0.01422241
0003e0 0c 36 f6 3d 44 78 1b 3e 93 0c 27 3f f9 71 e1 3d
       0.120220274 0.15182596 0.6525356 0.11008067
0003f0 7d ab b5 be 1d c7 42 3f b4 bb 28 3e ad 6a 1a 3f
       -0.35482398 0.7608507 0.16477853 0.60319024

layers.2.bias f4 [12]
000000 c9 e9 13 3c 98 58 98 be 83 4d 38 bd 82 1a 8e be
       0.009027907 -0.29755092 -0.044995796 -0.277546
000010 6e 26 07 be 6c 23 82 3f c1 79 b0 bd e5 b1 e7 bc
       -0.13198254 1.016706 -0.08616973 -0.028283069
000020 50 d5 c7 be 87 c8 63 3f ad ed 13 3f 8b 2d 01 be
       -0.39029932 0.88977855 0.5778454 -0.1261503

layers.3.weight f4 [2, 12]
000000 08 ff a5 3e a4 2b 26 3f 44 27 49 bf 73 54 01 be
       0.32421136 0.6491034 -0.7857554 -0.12629871
000010 83 10 19 3e 7f d4 3c 3e 6e 55 1f be d1 ee af bf
       0.14947705 0.18440436 -0.15559933 -1.3744756
000020 7a f3 ac be cb d7 49 bd 9e bb c7 3d 71 b0 83 3f
       -0.33779508 -0.04927806 0.09752582 1.0288221
000030 93 57 1b bf af 36 64 3f 1c 94 ac be 41 b7 53 3e
       -0.606805 0.8914594 -0.33706748 0.20675375
000040 2c 80 5a 3f e0 22 73 bf 3a c7 99 be 87 23 96 3c
       0.85351825 -0.9497509 -0.3003481 0.018327488
000050 0d 53 76 3f 21 2d 21 c0 7b f4 06 bf fa c1 ef 3e
       0.96220475 -2.5183794 -0.527168 0.4682768

layers.3.bias f4 [2]
000000 cc 2b c2 3d 13 58 50 bf
       0.0948101 -0.8138439

layers.0.weight f4 [48, 24]
000000 dd f8 a4 3e 81 3e 25 bf 7e 54 f5 3c 72 22 9a 3d
       0.32221118 -0.645485 0.029947516 0.07526101
000010 5e 69 8d 3e 43 8e 21 bf 33 75 00 3d 0a cb 02 bc
       0.2761945 -0.631077 0.03136177 -0.007982979
000020 7d 01 9c 3e c0 26 13 bf 37 da 84 3d e5 25 25 be
       0.30469885 -0.57481 0.06486934 -0.16127737
000030 ab b6 f2 3c a5 07 b9 3e 11 a0 d9 3d 06 62 ba 3d
       0.029628119 0.36138645 0.10626233 0.09100728
000040 5c 0d 9f 3e 02 99 29 bf c2 b8 93 3d 23 b9 16 bd
       0.3106488 -0.66249096 0.07212974 -0.036797654
000050 a6 e7 2f be 22 38 dc 3f 44 08 a8 3d 87 c0 6b be
       -0.1717821 1.720463 0.082047015 -0.23022662
000060 3d 21 6a be 08 c6 0b 3f 60 8b 4f bd cc ec 9c 3d
       -0.22864242 0.54599047 -0.050670028 0.07662353
000070 38 4c bd 3e 15 15 7b 3f 21 fb 45 3d 55 02 ee 3d
       0.36972213 0.98079044 0.0483352 0.116215385
000080 25 02 8d be 1a 7e 1c 3f b7 7a 9e 3b 72 17 3e be
       -0.275407 0.61129916 0.004836406 -0.18563631
000090 e2 66 f4 3d 7a dd 3d be 39 35 e7 bc b6 a2 d9 bd
       0.11933686 -0.18541518 -0.02822362 -0.10626738
0000a0 bb 71 60 be d3 0c 01 3f 96 00 9f 3c ee 03 6b 3e
       -0.21918385 0.50410193 0.01940946 0.22950718
0000b0 90 8b 03 3e a6 ef 24 c0 e1 d5 6a bd c2 82 3e 3e
       0.12846208 -2.577127 -0.057332877 0.18604568
0000c0 a9 85 f6 3d 70 1c 29 3c 9d 99 8f 3d ff b2 eb 3d
       0.120372124 0.010321721 0.07011721 0.1150875
0000d0 e9 78 84 bf 5c 22 bf bf f4 5a 10 3d 16 3a a7 bd
       -1.0349399 -1.4932361 0.03524299 -0.08165376
0000e0 dc 8d ed 3d d4 78 a6 bd c1 cc a1 3b 45 0a 43 3d
       0.11599323 -0.08128515 0.0049377386 0.047617216
0000f0 5f 1b 76 be 6b 36 aa bd 34 7a 2f 3c 85 b3 42 3d
       -0.24033879 -0.08311161 0.010710288 0.047534484
000100 b2 9c 3c 3d 2e ec 8b be dc 7b b1 bd af 1a 04 be
       0.046047874 -0.27328628 -0.086662024 -0.12900804
000110 b1 2e f6 3e 6b 59 12 40 21 0d f5 3d 5a 81 12 bc
       0.48082498 2.2867076 0.11965395 -0.008941973
000120 a6 3c 4c be af 07 8f be 6f 36 34 3d cb e7 c6 bd
       -0.1994501 -0.2793555 0.043997224 -0.0971218
000130 12 b0 30 3f 12 92 d4 bf 3f 95 40 bc 98 84 2a be
       0.6901866 -1.6607077 -0.011754333 -0.16652143
000140 2d 7e 26 3a 5a 18 ec be 1c 1c ce bc b2 a4 4e be
       0.0006351199 -0.4611233 -0.025159888 -0.20180014
000150 e6 83 0c 3f 2a c7 0e bf 96 08 2e bd 69 97 08 3d
       0.5488876 -0.5577265 -0.042488657 0.03334752
000160 ed 17 ab be 57 63 e5 be b6 8b 11 3d 95 6f 05 be
       -0.3341669 -0.44802353 0.03553363 -0.13030846
000170 f8 26 1b 3f e1 ea b5 3f 50 0c 05 3e 61 9d dd bd
       0.60606337 1.4212304 0.12992978 -0.10821033
000180 13 0f 9b 3e c7 36 17 3e 26 97 e6 3c ae 89 43 bc
       0.30284938 0.1476699 0.028148245 -0.011934681
000190 59 ef df 3e c3 59 7d bf 65 f6 3a bd 76 bf 41 be
       0.43737295 -0.9896509 -0.045645136 -0.18920693
0001a0 59 37 35 3e e0 0e ae 3e e5 76 1a 3d 0a b5 6f 3e
       0.17696895 0.33995724 0.037711043 0.23408905
0001b0 31 91 97 3e 09 b7 9f bf 7a 36 78 3e 33 53 8a 3e
       0.2960296 -1.2477733 0.24239531 0.270166
0001c0 4f b2 e1 3e 4a 2f 84 3e 61 32 44 bd da 92 21 3e
       0.4408135 0.2581733 -0.047899608 0.15778676
0001d0 cb ed b7 3e 2d 3c cc bf 33 9d 0a bd 46 eb 91 3e
       0.3592361 -1.5955864 -0.033841323 0.28499812
0001e0 46 80 ca bd 95 f7 02 bf 89 5b af 3d 90 33 95 3d
       -0.098877475 -0.5115903 0.08562381 0.072852254
0001f0 cb c7 c1 3e 1a 36 35 bf 71 45 c9 3c 47 d4 a4 bd
       0.37847742 -0.7078568 0.024569245 -0.08048301
000200 d5 17 2e 3e b3 29 f1 be 3d 70 60 3d 9d 96 38 be
       0.17001279 -0.47102126 0.05479454 -0.18026204
000210 26 07 e2 be c9 88 60 3e 4d 5a 30 3d b8 e8 64 be
       -0.4414608 0.2192718 0.043054868 -0.223544
000220 c4 d3 2d 3e 23 f1 0f bf 29 dc fa bc 06 0f 51 be
       0.16975313 -0.5622732 -0.030622559 -0.20415887
000230 7b 17 8b bf 1e 67 ac 3f e0 2f 33 3e 71 33 1b 3d
       -1.0866541 1.3468969 0.17498732 0.037890855
000240 5e cc 2d 3e 3e f8 2a 3f b8 f3 8f bd 7a 47 c3 3c
       0.16972491 0.6678504 -0.070289075 0.023837794
000250 ab eb 69 3d c0 6e 3c bf 47 db 38 3d e5 41 d5 3d
       0.057109516 -0.7360649 0.045130994 0.10412959
000260 be 6e 91 3b bf 00 23 3f 7a 97 9b 3d 30 08 cc 3e
       0.0044382503 0.63673013 0.07597251 0.39849997
000270 1d 47 13 bd e5 56 a1 3d 90 1f 8e bd bf 62 cc 3e
       -0.03595649 0.07877902 -0.06939614 0.39919087
000280 33 cd d4 bd 15 3f 40 3f b2 ba 2a 3b b4 02 04 bf
       -0.10390701 0.75096256 0.002605122 -0.51566625
000290 50 d4 8a bd e9 fa c6 3f 8c bc 85 bd 96 85 e1 be
       -0.06778777 1.5545322 -0.06530103 -0.4404723
0002a0 31 1d 10 be 6d 5d c3 be f1 0b 36 3d 4f 38 d5 3d
       -0.14073636 -0.38157216 0.044444982 0.10411131
0002b0 b3 42 b5 3f 2a ba 86 be bc 64 39 bd 42 a0 51 3d
       1.416098 -0.26313907 -0.045262083 0.051178224
0002c0 f6 bb 43 be 10 d4 80 be 62 c6 7e 3c d9 6e 99 3d
       -0.1911467 -0.2516179 0.015550228 0.07491846
0002d0 b1 4a 9b 3e 01 ea 83 bd a2 4c c3 bc 74 51 02 3e
       0.30330423 -0.06441117 -0.023840252 0.12726384
0002e0 41 48 b1 3d c3 e8 a4 be 0e 62 ce 3d 5f af ce bd
       0.086563595 -0.32208833 0.10077296 -0.10092043
0002f0 6d bf 1b bf d8 30 9d 3d a3 f1 b7 bd 46 8f 28 bd
       -0.6083897 0.07675332 -0.089816354 -0.04115226
000300 ff b5 46 3d e7 2e 0b 3d 91 e7 ad 3d e3 37 55 be
       0.04851341 0.033980276 0.084914334 -0.208221
000310 8c f5 06 bf 53 8a d3 be f2 f5 77 3b 00 dc 95 bd
       -0.52718425 -0.4131647 0.0037835804 -0.07317352
000320 f1 f8 6f 3d 25 1c 1e 3e 34 34 d0 3d 81 f4 60 be
       0.05858702 0.15440424 0.10166207 -0.21968271
000330 df 02 5d 3e be 03 6d bd 83 3f ad bd ce 36 68 be
       0.21583126 -0.057864897 -0.084593795 -0.22677156
000340 9a 76 b7 3d 1d a4 22 3e e9 b3 35 be a1 e6 98 3e
       0.08958168 0.15882917 -0.17744412 0.29863456
000350 3f 0c 67 3f f1 3b 87 3f 97 ba f1 bd ac 39 1e 3e
       0.9025306 1.0565168 -0.11803167 0.15451688
000360 30 2a 04 be d0 22 bd bd 9e e0 69 3d 61 06 c5 bd
       -0.12906718 -0.092351556 0.057098977 -0.09620357
000370 c5 42 b9 3e 24 79 98 be a2 be 3f be 1d f5 60 3c
       0.36183754 -0.29779923 -0.18725064 0.013730315
000380 a5 40 07 bd 41 58 c1 bd 53 d5 80 bd 9a 15 40 bd
       -0.033020634 -0.09440661 -0.06290688 -0.0468956
000390 8c 82 e2 ba 52 af 8c 3e a9 ce 18 bd 73 ed 13 be
       -0.0017281338 0.2747751 -0.03730646 -0.14446048
0003a0 a5 f7 17 3e cf 22 24 3e f9 07 62 3d 0b 88 7c bd
       0.14840563 0.16028903 0.055183385 -0.06165318
0003b0 4c bf c2 be c1 0c 6d 3f 27 3d 9c bc 18 20 a1 3d
       -0.38036573 0.92597586 -0.019072128 0.078674495
0003c0 1e 93 b2 3e 8c 1f 74 be 1b 33 16 bc bf 53 99 3d
       0.34877867 -0.23840159 -0.009167458 0.074866764
0003d0 d1 78 da be 36 59 ca be 48 15 3a 39 8b f3 88 3d
       -0.426703 -0.39521188 0.0001774627 0.06687077
0003e0 12 be 25 3e 8a d3 47 3d 97 f7 53 3d 44 e9 44 bd
       0.16185787 0.048785724 0.051749792 -0.048074022
0003f0 4a 10 fa 3e cc 60 de bc cc 4b a9 bc 0e e7 47 bd
       0.48840553 -0.027145766 -0.020666026 -0.048804335

layers.0.bias f4 [48]
000000 dc c3 c1 bc 6d a2 00 3f 0f 47 5c be 3f cc 3d 3c
       -0.023652963 0.5024784 -0.21511482 0.011584341
000010 21 9d 7e 3d 9e 6b c3 3d 68 a4 d5 bd c6 97 85 be
       0.06216157 0.09542011 -0.10431749 -0.26092356
000020 eb 26 dc bc 0a 25 3f 3e 8b d4 3e bf e2 ab df bd
       -0.026874026 0.18666473 -0.74543065 -0.10921456
000030 93 89 02 3e 03 9c 65 be a0 bc 77 be fc 73 a3 be
       0.12747793 -0.22422795 -0.24193048 -0.31924427
000040 f9 5c c8 be 3f 17 45 bc f2 6f c3 be e6 3f 81 3b
       -0.39133433 -0.012029468 -0.38171345 0.003944385
000050 3f 44 96 3e de 3d ac bd 63 bc 23 3e 5f 93 b0 be
       0.29348943 -0.08410238 0.15989833 -0.34487435
000060 50 d0 7e be 07 40 b2 bc 2e 52 51 be 1a 2a 00 be
       -0.24884152 -0.021759046 -0.20441505 -0.1251606
000070 e6 85 54 3e 4b 2e c3 be 48 85 c8 be 50 e7 6c 3e
       0.20754203 -0.38121256 -0.39164186 0.23135114
000080 69 dd 7b 3e 0d f8 97 3e a2 f9 e3 be 73 3d 13 be
       0.2459618 0.29681435 -0.44526392 -0.1437891
000090 3b 68 ef 3e 5b 11 75 3e 90 f7 41 bf db 88 b4 bd
       0.4675921 0.23932402 -0.75768375 -0.088151656
0000a0 e7 12 6e bd f0 63 04 3f 8e d4 89 bd d5 64 01 bf
       -0.058123495 0.5171499 -0.06729995 -0.5054448
0000b0 ed b1 36 bf 79 aa ac be 8b 5b 9b be 93 fe 43 3e
       -0.71365243 -0.3372381 -0.3034328 0.19140081

layers.1.weight f4 [24, 48]
000000 c4 d5 8a bd c6 bc 49 be 93 da 56 3e 65 9d 27 3f
       -0.06779054 -0.19700918 0.20981817 0.6547454
000010 0e 76 c6 3e f8 c1 26 bf c6 6d 09 bf 41 0c 37 3b
       0.38761944 -0.6513972 -0.53683126 0.0027930888
000020 14 1b c5 3e 30 23 91 be 7a 97 37 3e 9b c4 4c 3e
       0.3849722 -0.28347158 0.17928877 0.19996874
000030 2a 09 64 3c d8 90 b6 be 97 e2 b9 bd 56 5e c3 be
       0.0139182005 -0.35657382 -0.09076422 -0.3815791
000040 cd f4 aa 3e 65 c7 43 3e d5 5c 62 bd f7 20 4b 3f
       0.33389893 0.19119032 -0.055264313 0.79347175
000050 98 9e 90 3e ee d1 d0 be b7 b9 cc be fb 85 57 3f
       0.28245997 -0.40785164 -0.3998544 0.8418881
000060 eb 9d 80 bf d1 6a 83 bd 83 f2 9b bd a6 b8 b9 bd
       -1.0048193 -0.06416858 -0.07614615 -0.09068422
000070 30 c0 87 bf e3 1e 7a bd 70 a3 5e bd 9e 48 89 be
       -1.0605526 -0.061064612 -0.054355085 -0.26813215
000080 0c 4e 32 bf 49 2f 03 bf fa 3f 73 bd 1f 34 85 3e
       -0.6965034 -0.51244026 -0.059387185 0.26016328
000090 0a 81 98 bf c9 c4 7e 3e 7b be 2c bf e9 07 a6 be
       -1.191438 0.24879755 -0.6747815 -0.3242791
0000a0 6d 3e 3c be d0 69 86 3e 55 e0 24 be 48 40 e4 be
       -0.18383189 0.26252604 -0.16101201 -0.44580293
0000b0 11 b2 ac be f8 bd 0f bc fe 99 0c bf b6 fe c5 be
       -0.33729604 -0.008773319 -0.54922473 -0.38670892
0000c0 08 76 b0 be 8d 03 da bd 36 a9 7a bf b7 1f 21 3f
       -0.3446505 -0.106452085 -0.97914445 0.6293902
0000d0 cd 35 17 bf 61 d0 57 3e c2 eb ed be 19 4d c9 be
       -0.5906647 0.21075584 -0.4646893 -0.39316633
0000e0 d9 db a1 be 93 90 6c 3e 26 e7 92 3d d8 52 02 3f
       -0.31613043 0.23102026 0.07172994 0.5090766
0000f0 5b a3 c5 3d 01 9d 76 3e 97 b3 77 bf b8 a8 19 bf
       0.09650298 0.2408333 -0.9675841 -0.6002307
000100 2f a7 9f be 28 38 97 bf 54 dd e6 3e 23 4b 08 3f
       -0.31182238 -1.1814013 0.45090735 0.5323965
000110 bf e0 d0 bd 65 e4 0c 3e f2 ae b4 be 31 90 72 bf
       -0.10199117 0.13759 -0.35289723 -0.9475127
000120 6b 3c 94 3e 57 f4 f6 be 57 73 83 3b 8b 5a c3 3d
       0.28952345 -0.48233292 0.0040115523 0.09538754
000130 22 87 3b bf 1d fa dc be 0d 0d ba be ac 8b 49 be
       -0.7325307 -0.4315957 -0.36338082 -0.19682187
000140 ef a9 23 be c2 81 9c 3e 38 56 26 be 5c a1 fd be
       -0.15982793 0.30567747 -0.16243827 -0.4953717
000150 35 01 4e 3e 4e 3d 07 bf b5 9f 4e 3d 33 6d 29 bf
       0.20117648 -0.5282792 0.050445277 -0.6618225
000160 a1 09 ac bd bb 90 05 bd ce 31 c4 be 5a 40 aa be
       -0.08400274 -0.03260873 -0.38319248 -0.3325222
000170 99 a4 c1 3c f0 91 a5 be 4e de ee be 4e 5a 09 bf
       0.023638057 -0.32337904 -0.4665398 -0.5365342
000180 b9 a6 77 3d 8a 61 66 3d aa 3c bb be dc 0c 4f bd
       0.060461733 0.056245364 -0.3656972 -0.050549373
000190 ac d0 b3 be e6 38 81 be 68 fc 24 3f d4 8a 18 3e
       -0.35120142 -0.25238723 0.6444764 0.14896709
0001a0 ff ba b2 bd 9d 36 9d be 28 56 94 be 0e a4 22 3d
       -0.08727073 -0.3070573 -0.28971982 0.039707236
0001b0 7a 3f fd 3c 14 7c 1e 3e d2 eb 1d 3e 26 19 ef 3e
       0.030914057 0.1547702 0.1542199 0.46698874
0001c0 65 a9 14 bd a3 ae 9a 3e 8f 4f 31 be 96 04 47 bf
       -0.03629436 0.30211362 -0.17315505 -0.7774137
0001d0 3d 43 d8 be 5e d1 26 3f 2a 7d c4 3d 6c f3 96 be
       -0.422388 0.6516322 0.09594186 -0.2948259
0001e0 e1 52 37 be e1 0f 19 3e 36 d5 79 be ce 0a 46 be
       -0.1790271 0.14947464 -0.2439774 -0.19340059
0001f0 78 0f 80 be b8 31 30 3e 37 22 71 3e 63 3c 32 3f
       -0.25011802 0.17206466 0.23548208 0.6962339
000200 92 fa eb 3d e3 6f 0d be 23 63 25 3f 51 52 56 be
       0.11522402 -0.13812213 0.64604396 -0.20929839
000210 33 c7 bd be 6d 57 56 bd 29 66 bf 3e e1 e1 d5 3e
       -0.3706604 -0.05232947 0.3738263 0.41773894
000220 ae d4 37 3d 83 b8 f8 be 7b 41 c6 3c ef 6e 98 3e
       0.04488056 -0.4857827 0.024201145 0.29772136
000230 b2 c5 4b 3e 09 72 b2 3c 0f ae f1 3e 40 20 c8 3d
       0.19899634 0.021782892 0.4720311 0.09771776
000240 6e 4a b4 bd 43 77 d7 3d cc 79 1a bf f5 96 5a be
       -0.08803259 0.10520794 -0.603421 -0.21346648
000250 30 29 86 be 70 83 1b bf 5a 9a 97 3a 3b 25 87 be
       -0.262033 -0.6074743 0.0011566386 -0.26395592
000260 c6 3a 49 b9 ce 01 3f 3e 71 39 8f 3e 3a 1e 02 3e
       -0.00019190749 0.18653032 0.27973512 0.12706843
000270 a6 b5 ce be 13 b0 a7 be 87 55 5d 3d 4d 85 58 be
       -0.40372962 -0.3275152 0.054036643 -0.211446
000280 8c ff 48 be cc dc 90 bd 73 0c c2 bc a7 dd 5e be
       -0.19628733 -0.07073364 -0.023687577 -0.21764241
000290 0a f5 16 3e e8 dd 9b 3d 78 46 ed bd 1c 7c f0 3b
       0.14741912 0.07610685 -0.115857065 0.0073390137
0002a0 ca 1b c2 3e 0f eb cf be b0 47 70 bd e5 97 35 be
       0.37911826 -0.40609023 -0.058662117 -0.17733724
0002b0 0d ba e8 bd 9a 2f 18 3f 4f 42 19 be d0 2a 01 3f
       -0.11363611 0.59447634 -0.14966701 0.5045595
0002c0 99 44 e0 3e fe 25 04 3e 30 c8 19 bf 80 4c d1 be
       0.43802336 0.12905118 -0.60071087 -0.40878677
0002d0 be f6 c5 3e 31 17 ad bd b2 2b d2 bd 7f a3 c1 be
       0.38664812 -0.08451689 -0.102622405 -0.3782005
0002e0 fc 8b 20 bf dd d9 88 3e 4d c0 22 be 29 67 39 bf
       -0.627136 0.26728716 -0.1589367 -0.72423035
0002f0 97 53 06 3f 61 e4 3c 3c 29 28 13 bf b4 63 0b bc
       0.524713 0.011529059 -0.57483155 -0.008507658
000300 ea b2 c6 3e 39 92 1c bf f1 5a 02 3f c6 f3 1b 3c
       0.38808376 -0.6116062 0.50920016 0.009518569
000310 b9 6b 20 be 9f ed 74 be b6 9f 58 3f ca 18 36 bd
       -0.15666093 -0.2391877 0.846187 -0.044457234
000320 28 4e c0 be db 67 cc be 4d ea 30 bd 03 2f 7b be
       -0.37559628 -0.39922985 -0.043192197 -0.24529652
000330 5d 18 56 bd 13 2e 0b be 96 72 02 3e 3e af f0 3d
       -0.05226933 -0.13591795 0.12739024 0.11752175
000340 11 cc 40 3e e9 c8 84 be 11 28 8d 3d d0 11 ad 3e
       0.18827845 -0.25934532 0.06892408 0.33802652
000350 b9 7c 34 be 6f 41 17 3e c3 1e 81 be 22 70 bd 3d
       -0.17625703 0.14771055 -0.25218782 0.09249903
000360 39 9c 06 be e8 26 e2 3e ec 28 3b be 5b c6 d9 be
       -0.13145532 0.44170308 -0.18277329 -0.42534146
000370 50 3f 0d bf 4e ff 24 bf 81 d5 90 bf 73 27 1f 3d
       -0.5517473 -0.64452064 -1.1315156 0.03885598
000380 f1 de c2 3e ea bc 30 bf a5 a2 bd be 07 44 6e 3e
       0.38060716 -0.6903826 -0.3703815 0.23268138
000390 7d ae 3f bf 69 fa 17 bf 86 69 b9 3e b8 bb b3 3e
       -0.74875623 -0.5936647 0.3621332 0.35104156
0003a0 45 3c b9 bd 17 b5 8a be e7 98 ed be b1 07 02 3f
       -0.090446986 -0.27091286 -0.46405718 0.50792986
0003b0 be b0 18 3e 08 b4 8e bd 05 90 c7 bc fc ce 69 3e
       0.14911172 -0.06967932 -0.024360666 0.22832865
0003c0 ff bd fa 3e 1e 2b cb 3e a9 42 07 3f af ad 93 3e
       0.4897308 0.39681333 0.5283609 0.28843448
0003d0 2c 2b 57 be ea 13 a7 bd cc 51 67 3e 51 f7 c6 3e
       -0.21012563 -0.08158095 0.22589797 0.38860562
0003e0 33 45 1c be 93 84 26 bd 98 aa 09 bf 7f 03 16 bd
       -0.15260772 -0.040653776 -0.5377593 -0.036624428
0003f0 bd 75 a2 3d 46 8e 94 3e 29 d1 b0 3e 43 71 b8 3e
       0.07932613 0.29014796 0.34534577 0.36023912

layers.1.bias f4 [24]
000000 3e 93 5d be 37 06 50 be 06 00 98 be a5 9b 7e 3d
       -0.216382 -0.20314871 -0.29687518 0.062160153
000010 91 aa 45 bf 15 15 b4 3e 08 e5 66 3d 8d 41 df 3d
       -0.7721339 0.35172334 0.056370765 0.10901175
000020 e9 9f ac be 77 58 f2 3e 2a f5 53 3d 46 36 24 be
       -0.33715752 0.47333118 0.05174748 -0.16036329
000030 6d fe c4 be 31 7c de 3d d1 e5 ee 3e 40 68 b7 be
       -0.3847536 0.108635314 0.4665971 -0.35821724
000040 ad 67 d8 3c 4d d9 63 bd 4c ed 20 bf ad 0d 4e bd
       0.026416624 -0.055627156 -0.62862086 -0.05030601
000050 ff 52 74 bd b7 fe 56 be f1 4a 11 be e1 20 bb 3e
       -0.059649464 -0.20995604 -0.14188744 0.36548522

layers.2.weight f4 [12, 24]
000000 9e 6f 52 be 58 1a 2b bf 81 56 d4 be 0c 93 2a 3e
       -0.20550391 -0.6683707 -0.41472247 0.16657656
000010 1a 51 2b bf 23 62 11 3d 61 92 cd bd bd 6e d2 3e
       -0.66920626 0.03549398 -0.10037685 0.41100112
000020 d7 df fc 3e c0 27 9f 3e 30 55 bc bc 77 c8 c8 bd
       0.49389526 0.31085014 -0.02298984 -0.09803861
000030 38 b6 10 bf 68 aa a6 3e 73 0b 2d be d3 79 ad 3f
       -0.56528044 0.32551885 -0.16898899 1.3552803
000040 7c 15 82 be 54 17 2b be 7f d0 ab be 3f e7 5a 3e
       -0.25407016 -0.16708118 -0.33557507 0.21377276
000050 83 9b 70 bf ef 53 f7 3e 7e c9 1c 3e 57 f6 b5 3f
       -0.9398729 0.48306224 0.15311238 1.4215802
000060 28 a3 2f bf 22 48 9a 3e 71 7d 0c be e5 7d a8 3c
       -0.6860833 0.30133158 -0.13719727 0.020567844
000070 0a 04 65 be b8 4e 5e bf 75 ab 32 3e 89 48 20 bf
       -0.22364822 -0.86838865 0.17448218 -0.6261068
000080 90 90 4e 3f 44 44 1a 3f b6 21 db 3e 4c 33 22 bf
       0.80689335 0.60260415 0.42799157 -0.6335952
000090 b4 84 07 3e 3b e9 18 3f 60 fa fd 3d 02 15 2e 3e
       0.13234216 0.5973088 0.12401271 0.17000201
0000a0 28 f2 5d 3e aa f5 22 3f 3e dc af be 7e 80 9b bd
       0.21674407 0.63656104 -0.3434772 -0.07592867
0000b0 63 06 b7 bf be e1 c3 bf 3b f3 5f 3e bc bb 81 bf
       -1.4298824 -1.5303266 0.21870129 -1.0135417
0000c0 44 1c 5b 3e c2 5d 0b 3d 69 4b 13 3e 2a 30 a1 3c
       0.21397501 0.03402496 0.14384235 0.019676287
0000d0 27 54 05 3f 9f 49 41 3f 77 3a 27 3f 10 5a ff 3e
       0.5208153 0.7550296 0.65323585 0.498734
0000e0 c1 af 14 bf 3e 06 ea be e1 7b aa bd 98 a0 37 3f
       -0.5808068 -0.45707887 -0.08324409 0.7172942
0000f0 05 ab 64 3f 60 22 08 be b1 aa 06 be 15 75 5c bf
       0.89323455 -0.13294363 -0.13151051 -0.86116153
000100 ac d5 cb 3e 81 e7 15 bf 44 aa 24 bf f3 5d 05 be
       0.39811456 -0.5855637 -0.64322305 -0.1302412
000110 7f b4 a7 be 2e 59 9f be 88 67 16 be d1 0e 8b 3f
       -0.32754895 -0.31122726 -0.14687932 1.0863897
000120 92 6c 27 3f 59 d1 b4 bc a9 59 c6 be 48 91 e1 be
       0.6540004 -0.022072481 -0.3874028 -0.44056153
000130 e0 90 c8 be 60 e0 c1 3e 52 61 86 be 60 31 09 be
       -0.3917303 0.37866497 -0.26246125 -0.13397741
000140 01 18 e0 be ae 4d 06 be 6b 4c 8f bd 3d 2a c7 be
       -0.43768314 -0.1311557 -0.069969974 -0.38899413
000150 c2 10 92 be 86 6d ff 3e 9d 3d 36 3d 7c f0 91 3e
       -0.2852841 0.49888247 0.044492353 0.28503788
000160 ce e7 1c 3b 56 43 08 bd ff 00 f5 3d 1d d1 2d 3f
       0.0023941877 -0.03326734 0.119630806 0.67897207
000170 34 d8 12 3f 86 f2 48 bd 92 d8 ae 3c d5 17 3b 3f
       0.5736115 -0.049059413 0.021343503 0.7308324
000180 4f f1 9b bf b5 db 92 3e 09 59 3d 3f b4 5c 11 be
       -1.2183017 0.28683248 0.7396398 -0.1419552
000190 51 54 83 be 22 e0 1f bf e8 c0 a1 3e d4 40 c8 3e
       -0.25650266 -0.62451375 0.31592488 0.3911196
0001a0 d5 43 fd be 41 e5 02 be 51 cf 42 3e 7f 69 13 bf
       -0.49465814 -0.12782766 0.19024397 -0.5758285
0001b0 23 d4 ae be 8a 17 ac 3d 1c 41 15 bf 26 2c 18 3f
       -0.34146222 0.08402927 -0.58302474 0.59442365
0001c0 84 93 a8 bd d2 85 10 bf 7e 0b 01 3f 1e 42 50 bf
       -0.082312614 -0.56454194 0.5040816 -0.81350887
0001d0 6b fc cc bd 67 71 19 3d 51 fe 58 bd 87 3f 3e bf
       -0.100090824 0.037461665 -0.05297691 -0.74315685
0001e0 df 08 2a bf da 3c e5 bd 23 b7 03 be 7a c3 29 3d
       -0.66419786 -0.11193247 -0.1286283 0.041446187
0001f0 fb 2c 1d bf 9e 7a 83 be e9 07 75 3d 7f 88 64 be
       -0.6139676 -0.25679487 0.059821997 -0.22317694
000200 29 0b 0e 3e 41 7b ab 3e 4b 76 a1 bd bf 65 8e bf
       0.13871445 0.33492473 -0.07883891 -1.11248
000210 dd 56 cc bf aa 5e 8b bf 3e 69 a8 3e 55 b2 af 3e
       -1.5964009 -1.0888264 0.32892793 0.34315744
000220 e3 59 14 3e a9 fe 2a be d1 57 29 bf 71 ec 01 3f
       0.14487414 -0.16698708 -0.6614962 0.50751406
000230 38 fa bc bd 5f 5d 85 bc 6c 27 1b bf 40 a7 69 bf
       -0.09227413 -0.016279874 -0.6060703 -0.9127083
000240 8c 0b 3d 3f 55 cd 37 3d d2 92 ec bd af c5 83 3e
       0.73845744 0.044873554 -0.11551441 0.25736758
000250 b4 4d 2f 3f 35 e8 f2 3e 41 75 03 3f 50 0b 5e 3e
       0.6847794 0.47442785 0.5135079 0.21684003
000260 60 e7 41 bf 3e c1 19 3e da 51 91 bd 5d e2 36 3f
       -0.75743675 0.15015122 -0.0709569 0.7143915
000270 71 63 c6 3e 84 cf f3 3c b5 89 97 3e 6f 92 04 bf
       0.38747743 0.029762037 0.2959725 -0.5178594
000280 17 b5 e6 3d 5f af c9 be f1 4a 54 bf df 60 72 3e
       0.11265009 -0.3939161 -0.8292685 0.23669766
000290 93 da da 3c fb dc a4 bd 98 61 01 be 80 f4 2c 3f
       0.026715552 -0.08049961 -0.12634885 0.6756058
0002a0 99 ee 4a 3f 64 8a b1 3c c4 95 e2 3e 74 7e a0 be
       0.7927032 0.021672435 0.44254887 -0.31346476
0002b0 89 13 77 3f b1 66 8d 3f 64 fc e1 be 41 e8 bb 3d
       0.96514183 1.1046964 -0.4413787 0.09175158
0002c0 cf 74 b5 bd 21 d7 1c bf ab c5 73 be 55 13 85 3e
       -0.0886017 -0.6126576 -0.23805873 0.25991312
0002d0 b3 ad e6 3d 0d 6b 52 bf ba 6f 0a bf 90 7c 67 3e
       0.11263599 -0.82194597 -0.5407673 0.2260611
0002e0 aa bd 02 3f 0b 6b 6b be f7 eb 6a bf 0b 57 14 3f
       0.51070654 -0.22990052 -0.91766304 0.5794532
0002f0 63 8a 71 3e d5 0e 7e be 26 63 1e 3e 69 d7 93 3f
       0.23587947 -0.24810345 0.1546751 1.1550113
000300 c3 cf b1 bf 9f 69 2d be e7 95 7a 3e 67 67 ae 3e
       -1.3891529 -0.16934822 0.24471246 0.34063265
000310 83 a0 0c 3f e1 71 41 bf e1 4f 19 3f 52 0f 8f bf
       0.5493242 -0.7556439 0.5988751 -1.117655
000320 9f 02 c8 3e 3c ad bf be 79 e9 08 be e3 9e 01 3f
       0.390645 -0.37436855 -0.13370313 0.50633067
000330 dd 62 e3 3e 92 71 98 bf a6 37 cc 3c 18 e4 29 bf
       0.44411364 -1.1909659 0.024928879 -0.6636367
000340 e1 63 20 be 4c 04 75 3e c4 66 22 bf 68 95 d2 be
       -0.15663101 0.2392742 -0.6343806 -0.41129613
000350 eb d2 72 be 1e e9 0f bd 72 b7 ce 3e 75 90 a3 be
       -0.23713271 -0.035134427 0.40374333 -0.3194615
000360 28 93 a5 3e 8b d6 87 bf d8 1e 54 be 2a 29 a2 bd
       0.32338834 -1.0612348 -0.20714891 -0.07918008
000370 a6 05 16 3f 2a b0 d9 be af b7 bd 3e 60 3b b1 be
       0.5860237 -0.42517215 0.37054202 -0.34615612
000380 be 1e 97 be 19 7a 13 3f 54 ee 23 bf 58 96 1a 3f
       -0.29515642 0.5760818 -0.64035535 0.60385656
000390 05 4b 93 bf 6c eb 12 3f 61 25 b5 3e c8 27 14 bf
       -1.1507269 0.57390475 0.3538008 -0.578732
0003a0 10 79 81 3e ea 60 26 bf c6 23 ff be 57 58 c1 be
       0.25287676 -0.6499163 -0.4983198 -0.3776271
0003b0 6c 36 05 be 04 66 24 3e 94 37 31 3e 9f 3d b3 be
       -0.13009042 0.16054541 0.17306358 -0.3500795
0003c0 d3 a7 63 bd 48 93 23 3f e8 5d 2a bc d7 9a 7a be
       -0.05557997 0.6389661 -0.010398366 -0.24473129
0003d0 b0 6c dc be ef da 40 3e a3 4b b6 bb a7 d9 0c 3c
       -0.43051672 0.18833517 -0.005563216 0.008596814
0003e0 d1 f7 f6 3d 69 3d 28 3e aa 5f 25 3f 1b cb ea 3d
       0.12058986 0.16429676 0.64599097 0.114645205
0003f0 26 ad b2 be c4 22 49 3f 6b 53 3a 3e 3d a6 15 3f
       -0.34897727 0.78568673 0.18195884 0.58456784

layers.2.bias f4 [12]
000000 f5 e3 83 bc 48 5a 97 be d3 4c 30 bd d7 94 88 be
       -0.01609991 -0.29561067 -0.043042015 -0.26676056
000010 16 55 1d be e5 76 81 3f 0e 9d a9 bd d2 7e be bc
       -0.15364489 1.0114409 -0.08281909 -0.023253832
000020 6a 77 d6 be 8b 35 69 3f 34 70 1a 3f 22 97 e5 bd
       -0.4188798 0.91097325 0.6032746 -0.11210467

layers.3.weight f4 [2, 12]
000000 1b 75 9a 3e 36 d5 29 3f 59 46 46 bf 39 8c 10 be
       0.3016747 0.6634096 -0.7745109 -0.1411599
000010 75 9f 16 3e 39 79 46 3e 8f 2b 20 be 58 a9 b1 bf
       0.14709266 0.1938218 -0.15641616 -1.3879805
000020 04 ca 9f be cc 2f 2f bd 4d e6 cc 3d 5d 7a 81 3f
       -0.31208813 -0.042770192 0.10004864 1.0115467
000030 18 80 16 bf 8b 44 61 3f 05 b8 b8 be 74 b7 31 3e
       -0.58789206 0.87995213 -0.36077896 0.17355138
000040 01 72 57 3f 70 50 6d bf dd 8b a5 be 08 a4 8e b9
       0.8415833 -0.9270086 -0.3233327 -0.00027206563
000050 3c 97 70 3f 64 ba 21 c0 df 10 0d bf 1e 55 e1 3e
       0.93980765 -2.5270014 -0.5510387 0.44010252

layers.3.bias f4 [2]
000000 ae a4 ae 3d 1c 8c 59 bf
       0.08527504 -0.84979415
