saved_models/ddpg_model_first_succesful_weights.pth (torch_old, 100593 bytes, 30 tensors)

layers.0.weight f4 [48, 24]
000000 bf 90 bb 3e e5 58 00 be f1 b0 cc bd 08 fe 69 3e
       0.3663387 -0.1253391 -0.099946864 0.22850811
000010 f4 3c f6 3e aa ca 1e bf a5 cb c9 bd 1d c0 14 3e
       0.4809338 -0.6202799 -0.09853295 0.1452641
000020 55 d8 6b 3e 61 af ca bd 40 f6 6d be 18 77 31 be
       0.23031743 -0.09896732 -0.23238468 -0.17330587
000030 5f e4 cd 3e 91 49 1c bf 2e 94 43 be 1b bd a1 3d
       0.40213296 -0.61049753 -0.19099495 0.07897397
000040 b1 69 a6 3e 23 6e a8 bc 37 24 11 bd c0 3b 99 bc
       0.3250251 -0.02056033 -0.035434928 -0.018705249
000050 db dc bb 3e 5e 4f 70 bf d0 0a d1 bc aa 38 59 be
       0.36691937 -0.93871105 -0.025517851 -0.21213022
000060 d9 70 f5 3c c0 6f 1e be af 8a 0f 3e db 9e 02 3a
       0.029961037 -0.15472317 0.14017747 0.0004982778
000070 3c 30 41 3d bc d7 ea be f9 eb 74 3e 34 34 24 3d
       0.04716514 -0.45867717 0.23918141 0.040088847
000080 c1 8c 0e 3e 7d ca 58 3d be 78 e4 3d b1 9b 31 3e
       0.13920881 0.052927483 0.11155842 0.17344548
000090 9a c8 ed 3d 1b 9d 4a bf 36 c4 a0 3d 7d 70 81 3e
       0.11610527 -0.79145974 0.07849924 0.25281134
0000a0 90 35 89 3e 38 48 06 3d 01 ac 9d 3d 24 80 0e 3f
       0.26798677 0.032783717 0.07698823 0.5566428
0000b0 60 6a 00 3f 21 0f b5 bf f8 23 82 39 e7 5f 03 3f
       0.50162315 -1.4145242 0.0002482233 0.5131821
0000c0 41 ac e8 3e 81 ad cf bd 19 33 cb 3d 96 06 62 3e
       0.4544392 -0.10140515 0.099218555 0.22072825
0000d0 78 47 ea 3e 33 fe a1 bd 0c c7 83 3d 1b 84 c4 3c
       0.4575765 -0.07909813 0.064344496 0.023988774
0000e0 1e 15 ad 3e 00 4f 9b be 59 57 1f be 57 59 59 3e
       0.33805174 -0.3033371 -0.15560664 0.21225487
0000f0 5b 47 19 3f 4d 77 bc bd f3 6d 19 be a5 43 59 3e
       0.59874505 -0.09202442 -0.14983349 0.2121721
000100 24 e3 9e 3e 99 ce c7 be 25 2b e9 bd 69 b8 98 be
       0.3103267 -0.3902481 -0.11385182 -0.29828194
000110 1a 9f 57 3f 05 f9 69 bf f7 5d bd 3d 24 7e 36 be
       0.84227145 -0.913956 0.09246438 -0.17821556
000120 ed 6f e0 3d 65 8f 9c 3e d4 8c e1 3d c7 32 9e be
       0.10958848 0.3057815 0.11013189 -0.30898115
000130 d2 09 33 be 52 ac af be 63 bd 5e 3d 4d bb c1 be
       -0.17484215 -0.34311157 0.054379832 -0.37838212
000140 f5 b6 9e 3e 1b 26 b7 bc 2c 91 09 3d c9 3f af be
       0.3099896 -0.022357037 0.033585712 -0.34228352
000150 84 97 60 3e 12 f3 a7 3e 96 2e 85 3c b0 6d db bd
       0.21932799 0.32802635 0.016257565 -0.107142806
000160 55 82 5d 3d f3 a1 8e bd d2 e2 09 be 29 c1 13 bf
       0.054079372 -0.06964483 -0.13465431 -0.57716614
000170 7a fa 5b 3f 3e a6 76 3f 4c e6 24 bd f3 18 0e bf
       0.8592907 0.96347415 -0.04025869 -0.5550682
000180 39 b9 81 3e d6 f7 4a 3f 6a b3 3b 3d 41 b6 63 3e
       0.25336626 0.7928442 0.0458254 0.22237493
000190 b5 8f a8 be 25 53 0c bf 26 19 e5 bc 08 c0 38 3d
       -0.3292214 -0.5481437 -0.027966093 0.04510501
0001a0 3d d0 d8 3b 03 dd 94 3f 35 52 8c bd 6d 91 aa 3d
       0.006616621 1.1629947 -0.06851617 0.08328519
0001b0 5b 04 04 bf 53 87 6a bf 78 6f 0b 3e 72 73 f4 3d
       -0.51569146 -0.9161274 0.1361674 0.11936082
0001c0 ed b3 82 3e 71 6a 75 3f 52 0b 2f 3d 43 f4 d0 be
       0.25527897 0.9586554 0.042735405 -0.40811357
0001d0 44 c9 03 bf 35 d4 cc bf 9b a0 68 3d eb d2 8f be
       -0.5147898 -1.600226 0.05679379 -0.28090605
0001e0 ab b9 64 3e 5a 22 0c 3e 9b 79 88 3d b3 04 81 3d
       0.22336452 0.13684979 0.066638194 0.062997244
0001f0 d6 18 ec be 1f 13 d0 bd 9d 07 b7 3b c5 02 b9 bd
       -0.46112698 -0.10159897 0.0055856244 -0.09033731
000200 0c 9d c6 3e f2 3e 5e bd 8d 5b 07 3d 96 16 3e 3d
       0.38791692 -0.054259248 0.033046294 0.04640826
000210 b7 e7 4c bf be a1 35 3e 5b 8a ae 3c 12 ce 4c 3b
       -0.8004107 0.17737481 0.021306207 0.0031250757
000220 f8 76 a4 3e 3c b9 95 bd 78 c5 5b bd d7 8b 5d 3e
       0.32122016 -0.07310721 -0.053655118 0.21635376
000230 d2 6c 3c bf a8 55 83 3e db 99 1b 3e 7b b3 ea 3e
       -0.73603547 0.25651288 0.1519541 0.45840058
000240 0d f4 27 3e b5 e4 dd be 3e c4 08 bd d1 6b 51 be
       0.16401692 -0.43338552 -0.033390276 -0.20451285
000250 7b ac 87 bf 35 25 f1 be cc fd a7 3d 1c 68 fe bd
       -1.0599512 -0.470987 0.08202705 -0.12422201
000260 9a 49 13 3e 19 de 0d bf 5d 0c d2 3d 44 4b ca bd
       0.14383546 -0.5541702 0.10256264 -0.09877637
000270 d4 87 88 3b d3 4c 80 3e 86 51 2f bd 1c e1 c8 bd
       0.0041665826 0.25058612 -0.042802356 -0.09808561
000280 d5 f9 43 bd f7 26 bd be ba e6 2b 3d 8b 0b c9 bd
       -0.04784568 -0.3694379 0.041968085 -0.09816655
000290 c7 d1 03 3f 22 8e b8 3f 3e 79 d4 bc 11 37 bc bc
       0.5149197 1.4418375 -0.025936719 -0.022975476
0002a0 ce 1d 50 bd 78 ed 0c b8 ce 83 86 3c b8 3e 9a 3d
       -0.050809674 -3.359976e-05 0.016420271 0.07531494
0002b0 c6 0b 6b 3f 59 5a 54 3f 60 17 96 bd ef 5a b7 3c
       0.9181484 0.8295036 -0.07328677 0.022382228
0002c0 49 82 1a be ba 0a 98 bd db 61 9e bc 2d 03 b0 be
       -0.15088762 -0.07423921 -0.01933377 -0.34377423
0002d0 fd 6f 3d bd 4d 01 dc 3e d3 89 70 bd 5b 36 95 be
       -0.04624938 0.42969742 -0.05872519 -0.29143032
0002e0 fc b3 03 3e dd 1b 1c be f8 db 7a 3d 5b db 43 bf
       0.12861627 -0.15245004 0.061244935 -0.76506585
0002f0 66 6a 2a bf 96 27 85 be 8f 72 04 be 57 8e 34 bf
       -0.665686 -0.26006764 -0.12934326 -0.70529693
000300 c2 56 bc 3e 50 b5 80 bf ed ae 11 3d 5c 62 d7 bd
       0.3678494 -1.0055332 0.035567213 -0.105168074
000310 1d ee e3 3d 28 66 4e 3e 45 a1 3a bd 9d c2 f4 3c
       0.11129401 0.20156157 -0.045563955 0.029877955
000320 93 b8 cc 3e ed 2d 58 bf 70 63 c2 3d f7 02 91 bd
       0.3998457 -0.8444508 0.094916224 -0.070806436
000330 77 3e b3 be 95 11 32 3f d4 0e bb bd 95 87 9f bd
       -0.35008594 0.6955808 -0.091336876 -0.07789532
000340 41 b1 30 3e 69 7c 7f bf 04 62 44 bc 31 cb c8 3d
       0.17255117 -0.9979921 -0.011986259 0.09804381
000350 be 16 13 bf 7f 46 ed 3f b2 40 42 3d a7 b4 3c bd
       -0.57456577 1.8537139 0.04742498 -0.04607072
000360 c7 89 c7 bd 16 fe 4b 3e 5a 2a d9 3d c7 80 2e 3e
       -0.09743076 0.19921145 0.10603781 0.17041312
000370 bf 7c bd be 15 cc a3 3e df a0 0d be 95 89 8f 3e
       -0.37009236 0.3199164 -0.13830899 0.28034654
000380 f5 91 12 3e 7a 98 0d 3f bc f6 d0 bc 7a f9 83 3e
       0.1431349 0.55310786 -0.025508277 0.25776273
000390 99 46 95 3e 39 d3 0d 3f f2 3d c0 38 25 0b 24 3e
       0.29155424 0.55400425 9.166812e-05 0.16019876
0003a0 69 4d c9 3d da 08 3f 3f b8 15 8a 3d f4 0b c5 3d
       0.09829218 0.7462288 0.06742424 0.096214205
0003b0 46 f5 2b 3f ab e2 53 3f c4 cc df bb 54 38 72 3e
       0.6717113 0.8276774 -0.00682983 0.236543
0003c0 23 e5 37 3e e4 6a 30 bf 35 8e ac bc 47 14 5f 3d
       0.17958502 -0.689131 -0.021063903 0.054462697
0003d0 1a 60 64 3f b2 7b 45 3f 26 01 40 bc 42 54 3e 3d
       0.8920914 0.7714187 -0.011719024 0.046467073
0003e0 cc 2f c1 bd a0 2d 0b bf c7 62 4f 3d 6c ea ac bd
       -0.09432945 -0.54366493 0.05063131 -0.0844315
0003f0 a2 c5 88 be 84 31 99 3e 17 74 b2 bc 62 69 ae bd
       -0.26713282 0.2992059 -0.021783872 -0.08516194

layers.0.bias f4 [48]
000000 ca ba 09 3e 7e b5 26 3e 1e 27 56 bc 6c e5 fa be
       0.1345016 0.16280171 -0.01307085 -0.4900316
000010 5a de 27 3e 0e a9 08 3d 43 63 ab bc e9 c0 04 be
       0.16393414 0.033364348 -0.020921355 -0.12964214
000020 d6 27 82 be 3d e9 ef bd 4e 8f fc be 0f 40 1d bf
       -0.25421017 -0.117144085 -0.49328083 -0.6142587
000030 68 ba fc be 5c 66 8d be b0 16 94 bc 26 5e 73 be
       -0.49360967 -0.27617157 -0.018077224 -0.23766384
000040 b1 d9 19 be ae e0 01 3f 36 23 f7 be 4a 48 12 bf
       -0.15024449 0.5073346 -0.4826905 -0.57141554
000050 9e 04 38 3e 04 3a 1b 3e 84 63 4b be 8c 05 fe be
       0.17970511 0.1515885 -0.19862181 -0.49613607
000060 3c b4 c7 be cb 7a 1f 3e 84 71 2e bd f7 48 33 bf
       -0.39004695 0.15574186 -0.042588726 -0.7003321
000070 b4 4c 9c 3d b4 2d 6c bf ae 99 03 bf 99 04 23 3f
       0.076318175 -0.9225724 -0.5140637 0.6367889
000080 b8 e5 c4 bd 7c bf 09 bf b9 36 de bd 87 9f c3 be
       -0.09614128 -0.53807807 -0.10850281 -0.38207647
000090 73 e6 31 3e b6 62 8f be 08 19 f6 be fe 53 ff be
       0.17373066 -0.28004998 -0.48065972 -0.49868768
0000a0 a2 60 f9 3e 2c 88 8b bb 7b 50 31 3e b2 99 71 bd
       0.48706537 -0.0042581763 0.17315857 -0.058984466
0000b0 5d 7d 12 bf 1c 5b 21 be 68 fc a7 3c 6f c6 1f 3e
       -0.5722254 -0.15757412 0.020506099 0.1560304

layers.1.weight f4 [24, 48]
000000 78 16 b2 bb ed 95 6e be ea d5 dd 3c 45 8f be 3d
       -0.0054348074 -0.2329938 0.027079541 0.0930467
000010 40 46 d7 3e e7 63 bd 3e 61 98 70 be 9b b8 12 3f
       0.42045784 0.36990282 -0.23495628 0.57312936
000020 77 ae 99 bf 2e 97 89 be 7c 5f 9d bd 5c ef 59 bd
       -1.2006367 -0.26873153 -0.07684228 -0.053206787
000030 e4 37 16 be ef bd 16 3e 90 9d f2 3e 02 c0 19 be
       -0.14669758 0.14720891 0.47385836 -0.15014651
000040 e3 3d f0 be 90 26 42 3e 40 42 74 bd 3a d5 d0 be
       -0.46922216 0.18960023 -0.059633493 -0.4078768
000050 e5 30 0d bf 21 47 23 3c de f1 04 bf d5 65 70 bf
       -0.5515273 0.009965689 -0.5193156 -0.93905383
000060 e5 c9 80 bc 97 5d 54 3d 72 06 82 bd a6 35 cd 3d
       -0.01572127 0.051847067 -0.063488856 0.10019998
000070 78 ab d7 be 85 57 26 be 87 38 98 3e 55 93 81 be
       -0.42123008 -0.16244324 0.29730627 -0.25307718
000080 a1 9a 42 3e b1 3c 11 bf 84 e7 1a 3f d7 0e c5 be
       0.19004299 -0.5673323 0.60509515 -0.38487884
000090 cd 03 7f bf 82 0e d5 be f5 6a 56 be ab b3 bf be
       -0.99615175 -0.4161263 -0.20939238 -0.37441763
0000a0 bd 38 c7 3e 2b c0 82 3e 0b 55 1b be 00 71 c6 3d
       0.38910475 0.25537238 -0.1516916 0.09689522
0000b0 ac 60 13 bf 2a 3e 0b bd 8f b4 19 3e d5 6a 4c bd
       -0.57569385 -0.03399483 0.15010284 -0.04990657
0000c0 d8 47 c4 3e 4b 92 82 be a3 0f 44 bf 55 ca b1 be
       0.38336062 -0.25502238 -0.7658636 -0.3472468
0000d0 3a b7 9a 3e e7 94 9e 3e 9b 52 6b bd 26 55 05 bc
       0.30217916 0.30972978 -0.057451826 -0.008137977
0000e0 46 c0 17 3f 3a fe c8 3d 86 34 cb bc 8b 0e 26 3e
       0.5927776 0.09814115 -0.024805319 0.16216485
0000f0 f0 3d 83 3e 7f c9 82 3e 74 73 57 3e 83 9f c9 bc
       0.25633192 0.25544354 0.21040136 -0.024612194
000100 04 c9 5c 3f bd ee 25 be e5 b4 8f 3e 2f a9 84 3e
       0.86244226 -0.16204353 0.280677 0.25910327
000110 08 62 f4 be 6f 2f 1d 3e cb c3 52 bf 1b 7b b3 3e
       -0.47731042 0.15350126 -0.82330006 0.3505486
000120 db 85 f5 b8 5a 82 89 be 19 eb 4c be b3 8d 18 bf
       -0.00011707443 -0.26857263 -0.20011558 -0.59591216
000130 f3 d3 c7 3e 94 79 ba bd fb 16 4d 3e 56 82 5d 3e
       0.39028892 -0.091052204 0.20028298 0.2163175
000140 08 88 e6 be 3b ea 58 be 25 08 c8 be af 52 11 3f
       -0.4502566 -0.21183102 -0.39068714 0.5676679
000150 1e db 62 3e d3 33 b0 3e 0d 4c 17 3f 5b 8d ff 3e
       0.22153899 0.3441454 0.5910042 0.49912533
000160 ad 47 82 be 57 55 54 be af 60 c7 be 7e 6c 2f 3e
       -0.2544531 -0.2073568 -0.3894095 0.1713123
000170 77 5d e0 3e 5d 88 a0 be b0 96 cf bc a4 27 cf 3d
       0.43821308 -0.31354037 -0.025340408 0.10114983
000180 fd 0d ac be 74 5d 96 3e d8 29 36 3e cb 63 22 3f
       -0.33604422 0.29368174 0.177894 0.6343352
000190 35 78 48 bf 4f 57 9f be c5 28 8f 3f 83 50 10 3e
       -0.7830842 -0.311213 1.1184317 0.14093213
0001a0 52 ec c3 3e 8f a9 4e 3c c7 8f 2a bf b8 1a c0 bb
       0.38266236 0.012613668 -0.66625637 -0.00586256
0001b0 b6 69 24 3f 6f aa 0c bd 19 29 31 be 92 dd 8b be
       0.642238 -0.034342226 -0.17300834 -0.27317482
0001c0 53 46 38 be 73 57 ac be 8d 10 15 3d 82 54 17 be
       -0.17995577 -0.33660468 0.036392737 -0.14778331
0001d0 c6 d7 cf 3e e0 a5 f3 be b1 81 fb 3e 73 b9 b4 3e
       0.4059431 -0.4758749 0.49122384 0.35297737
0001e0 36 cf 15 3d e2 7f 06 bf fb 28 7a be 2e 30 5b 3b
       0.036574565 -0.52538884 -0.24429695 0.0033445465
0001f0 a4 4d 32 be 28 ec 44 3e 44 a4 b1 3e 0f 68 2b 3e
       -0.1741243 0.19230711 0.34695637 0.16738914
000200 6b 05 2e 3c 2d 87 5b bd ce e0 83 be 6d 24 cf bd
       0.010621409 -0.05359571 -0.2575745 -0.101143695
000210 f0 19 07 3f cb c2 62 3e be ac 93 3e 74 11 ba bc
       0.5277395 0.2214462 0.2884273 -0.0227134
000220 95 73 65 be 1b c2 2e be 6b d6 9d bd a6 1a 3f bf
       -0.22407372 -0.17066233 -0.077069126 -0.7465004
000230 c0 f1 35 3e ae cd d6 3e 99 61 d8 bd ac 9b 0e be
       0.17768002 0.41953796 -0.1056549 -0.13926572
000240 9d 9c 55 be 2e 32 0d bf 50 fa dc be 1d 01 90 be
       -0.20860524 -0.55154693 -0.43159723 -0.2812585
000250 78 47 8d be 00 0d f4 bc 64 fd 72 be a7 aa 1d 3e
       -0.2759359 -0.029791355 -0.23729473 0.1539713
000260 63 c9 84 3e 6e 83 d4 bd d0 e6 99 3e ac 75 8e 3d
       0.25934896 -0.10376631 0.30058908 0.06956038
000270 0c c2 07 3e f6 32 53 3e 1b 20 88 3e d0 56 a8 be
       0.13257617 0.20624909 0.26586995 -0.32878733
000280 ac a3 17 bf 4b bf e1 be 96 2d 80 3d 94 4f 81 3e
       -0.5923412 -0.44091257 0.06258695 0.25256026
000290 3f 17 b7 be fa c5 59 bd 3b 78 67 bf 9f a4 d2 3e
       -0.35759923 -0.05316732 -0.9041783 0.4114122
0002a0 4d 08 29 3e d9 8d 91 be 55 ce 63 bc 9a 98 1c bf
       0.16507073 -0.28428534 -0.013904174 -0.6117035
0002b0 32 54 2f bf 58 05 c9 3d b2 af 8a 3e 2a 87 bf be
       -0.68487847 0.09815472 0.2708717 -0.3740781
0002c0 a1 59 8f 3d b4 86 78 3e 55 b5 93 be a1 ef 12 3f
       0.06999517 0.24270135 -0.28849283 0.57396895
0002d0 a3 3e 2b 3e 3a 81 5a 3e 5d 3b 01 3f ad 22 f9 3e
       0.16723113 0.21338359 0.50481206 0.48659268
0002e0 e1 36 53 be cf df 1c be 80 fc 31 bf 63 1e 29 3f
       -0.20626403 -0.15319751 -0.6952591 0.6606199
0002f0 6f 38 fa 3b d0 a2 6c 3d f7 b4 67 be b1 19 a0 bd
       0.007636122 0.057772458 -0.22627626 -0.078174
000300 50 7b 7d be ca 9e 77 be 73 02 f9 be 36 c0 c7 be
       -0.24754071 -0.24181667 -0.4863468 -0.39013833
000310 89 73 0b be 07 8c e0 3b d1 72 32 be cd 19 ad 3e
       -0.13618292 0.00685263 -0.17426611 0.33808747
000320 b4 d8 a2 3d f5 78 a9 3e 59 20 c6 3d 25 43 9c 3e
       0.07951489 0.33100095 0.096741386 0.30519977
000330 2a 93 dc be 01 bc 83 bf 80 82 4c 3d 81 fa 0d 3e
       -0.43081027 -1.0291749 0.049929142 0.13865091
000340 ed cf 90 be 0e a0 98 bd 76 95 87 bd 4a c7 8b 3e
       -0.28283635 -0.07452403 -0.06620304 0.27300483
000350 19 f1 e6 bb 47 2d 18 be 06 fd c0 bc d0 cd bd 3d
       -0.007047784 -0.14861022 -0.023558151 0.09267771
000360 c7 51 10 3e ea f3 94 3b e7 f9 a7 bd 27 f9 b1 be
       0.14093696 0.0045456784 -0.08201962 -0.347604
000370 1f 9e 94 bd 46 3c 03 bf b9 c1 a4 be 4d 5f c8 bd
       -0.07256722 -0.51263845 -0.3217905 -0.09783802
000380 da bf e6 bd cf 3f d4 bd 48 de 8d be ee af e2 3e
       -0.112670615 -0.10363733 -0.2770865 0.4427485
000390 ff 9f a9 3d 3c 3e 8a 3e 9e a9 27 3f 17 87 10 3f
       0.0828247 0.27000606 0.6549319 0.5645613
0003a0 2c 42 57 3e 73 1e ff 3c a6 24 ec be 16 1c c3 be
       0.21021336 0.031142449 -0.4612171 -0.38107365
0003b0 d6 a1 21 3e ef d2 b7 bd 06 70 a1 3e 28 4a c5 3d
       0.15784392 -0.08975779 0.3153078 0.09633285
0003c0 17 02 cc 3d 8c ff 7e 3e 57 64 a8 3e 62 40 3f 3e
       0.09961336 0.24902171 0.32889053 0.18676904
0003d0 a6 9e d2 3d 44 db d8 3d cd c3 06 be d5 43 2d be
       0.10284166 0.105886966 -0.1316063 -0.16920407
0003e0 f6 b8 8b bf d2 d2 29 bf fa 34 81 be dd 3d 1d bf
       -1.0915821 -0.6633731 -0.2523573 -0.6142252
0003f0 a3 ca 2c bf 8f f6 96 be dd b7 c8 3d 7e 34 e7 3e
       -0.674967 -0.29484984 0.09800694 0.45157236

layers.1.bias f4 [24]
000000 d1 8a 84 3e 62 13 eb be 0f af 4a 3e 6e 22 0d bf
       0.2588716 -0.45913225 0.19793342 -0.5513066
000010 6f 3f a3 3c cc 9d 8f 3e a9 2e 43 bf e4 14 91 3d
       0.019927708 0.28050077 -0.7624307 0.07084063
000020 f4 5f 99 3e 9c 17 20 be 3e 8b b0 bd 50 5d cf be
       0.2995602 -0.15634006 -0.08620308 -0.4050088
000030 83 16 d0 bd 9a 43 58 bc 12 60 8b be 5e 88 be 3d
       -0.10160544 -0.013199711 -0.27221733 0.09303354
000040 50 0f 39 be 10 0c 03 3f 63 31 ad 3e b4 c9 ae be
       -0.18072248 0.5119028 0.33826742 -0.34138262
000050 0d 01 4b be 56 ee c0 bd 9c 53 6f be 7e e4 b6 bd
       -0.1982462 -0.09420459 -0.23371738 -0.089303

layers.2.weight f4 [12, 24]
000000 af d9 8d 3d 1d d6 45 3d 3d db 75 3d a4 ab ea 3e
       0.069262855 0.048299897 0.060023535 0.45834076
000010 cb 64 d8 bc 3f 08 36 bf 06 3a 1a 3f 17 96 2e 3f
       -0.02641525 -0.7110633 0.60244787 0.6819777
000020 06 c3 95 3d e6 60 18 3f 75 45 e4 bd 93 11 8c 3d
       0.073125884 0.59522855 -0.111460604 0.068392895
000030 44 96 eb bb a6 f7 7d be 8b 12 89 3e 7d fc bb be
       -0.007189544 -0.24801502 0.2677196 -0.3671607
000040 31 d3 a9 be a1 a3 0a 3c 0c d4 1e bf 2a c2 ab 3e
       -0.3316894 0.008461864 -0.6204231 0.33546573
000050 f8 d8 04 3d bc c8 25 3e 20 25 01 bf a2 14 95 b9
       0.03243348 0.16189855 -0.50447273 -0.00028434867
000060 3a 95 0a 3f ae c7 ab be 43 e5 b5 3e b8 77 07 bf
       0.5413395 -0.3355078 0.35526475 -0.5291705
000070 b3 04 1c be a6 0c 02 be b1 7a 22 be a1 b2 ab be
       -0.15236168 -0.12700137 -0.15867116 -0.3353472
000080 b6 eb f1 bc e5 12 a7 bd df 5e 3c 3e fc df 47 3e
       -0.029531341 -0.08157901 0.18395565 0.19519037
000090 5c 8a c8 3e 9b 81 09 bf 39 57 82 be 37 aa dc 3e
       0.3916806 -0.5371339 -0.2545717 0.43098614
0000a0 fb 34 55 be 3a d5 97 be 58 c4 ef bd c4 47 64 bf
       -0.20820992 -0.29654866 -0.117073715 -0.89172006
0000b0 ff a5 41 3e fd bd ac be c9 3d c4 3b 09 ca 29 bd
       0.18910979 -0.337387 0.0059888107 -0.04145244
0000c0 dd dd 1a be c4 c8 22 bf 72 1b a3 3e 16 9e 2b bf
       -0.15123697 -0.63587594 0.31856877 -0.67038095
0000d0 ff 80 2c bf 85 17 97 be ec c2 58 bf 1d bd 98 3e
       -0.6738433 -0.2951013 -0.8467243 0.29831782
0000e0 0a fd 28 bf b8 2e 95 be d6 b0 7b be 3a e3 c2 bd
       -0.66011107 -0.29137206 -0.24579176 -0.09515996
0000f0 92 97 a9 3e d4 a7 9a be 57 41 46 be 77 20 11 3e
       0.3312345 -0.30206168 -0.19360863 0.1417254
000100 d0 37 58 3e 91 15 23 bf e6 7b 8a be a6 a7 b0 3e
       0.21115041 -0.6370478 -0.27047652 0.34502906
000110 27 2d 1a bf 57 98 07 bf 8f 98 c9 3e fb 48 ef 3e
       -0.60225147 -0.5296683 0.39374205 0.46735367
000120 bf b8 0d 3f 7d da 4b bd ff d6 ad 3e a9 14 0d bf
       0.55360025 -0.049768914 0.33953092 -0.5510965
000130 0e 30 90 be 9a e4 4a 3f 3b f1 4a bf cc 40 3e bd
       -0.28161663 0.7925507 -0.7927434 -0.046448514
000140 d8 ae a7 3e 6d 82 39 bf 3f 39 0c 3f 8a 86 aa be
       0.32750583 -0.7246464 0.5477485 -0.3330577
000150 9e f1 c9 3e 83 0c b6 3e a5 f3 51 bf c7 ce 6a 3e
       0.39442152 0.3555642 -0.820124 0.22930442
000160 fe 0f 88 3e 7d 33 9e 3e b9 de 45 3e a6 f4 94 3e
       0.265747 0.30898657 0.19323243 0.29092902
000170 d6 03 96 3e 62 5e 16 3e 52 4c 5e 3e 6d 8c 71 3f
       0.29299802 0.14684442 0.21708801 0.943549
000180 ed 9b fb be d8 eb b9 3e 3e 9f 0e 3e f3 4e c3 bd
       -0.491424 0.36312747 0.13927934 -0.09536543
000190 0d 49 09 bf 04 ad 29 bf 87 cf 6b 3f 51 de bb 3e
       -0.5362709 -0.66279626 0.92113537 0.3669305
0001a0 dc 9d bd bb 00 db 4c 3f 46 2a 2f 3d 96 0a 91 3e
       -0.0057866406 0.8002167 0.042764924 0.2832839
0001b0 e9 4e 8f 3e 46 df f4 3e 98 9b ed 3d f2 de b5 3e
       0.2798989 0.47826594 0.11601943 0.35521656
0001c0 97 c0 9c 3e 23 09 b0 3d d4 0b a8 be a2 16 7d be
       0.30615684 0.08595493 -0.32821524 -0.24715665
0001d0 ae 6b 7d 3e 11 21 92 3e d1 55 b5 be 83 a0 7f be
       0.24748108 0.28540853 -0.35417035 -0.24963574
0001e0 92 80 56 bc 7a bb da bd 30 f9 4b be 45 e0 c3 3e
       -0.013092177 -0.106802896 -0.19919276 0.38257042
0001f0 7a 78 88 be af 59 26 bd 31 54 1f 3c f9 4e 7e bf
       -0.26654416 -0.040612873 0.009724663 -0.9933925
000200 bb b1 2a 3e 62 4a a3 3e ba fb 15 bf 4d a3 3c bf
       0.16669361 0.31892687 -0.5858723 -0.7368668
000210 e7 d0 19 3e be fd 03 bf 72 43 70 3e cc f9 1d bf
       0.15021096 -0.51559055 0.23463228 -0.61709285
000220 cf 56 2b 3e b0 2c 03 3e 14 59 cd bd ef 87 93 be
       0.16732334 0.12810016 -0.10026756 -0.28814647
000230 45 f9 a4 3d b7 14 64 3e e9 21 d2 be 6d 3d b1 3e
       0.08055357 0.22273527 -0.41041496 0.34617177
000240 5d 4c fb bc 5a 8c 01 3e f5 27 54 bf 48 8c a5 3d
       -0.030676061 0.12651196 -0.8287347 0.08083397
000250 3a b1 13 bd 02 d5 f8 bd 19 f9 1a 3e fb 3b 06 bd
       -0.03605769 -0.12150003 0.15134086 -0.032772046
000260 c5 22 b8 bd 56 a1 0e 3e b4 c9 1a bd ec 11 c8 3d
       -0.08991007 0.13928732 -0.037790015 0.09769043
000270 11 d8 35 bf f9 e1 b1 3e ed 63 bf 3d 03 19 00 be
       -0.71032816 0.34742716 0.09345231 -0.12509541
000280 a6 45 cc be fd 2e 7e 3e cc 56 e1 be 06 60 9c 3e
       -0.39896888 0.24822612 -0.44011533 0.3054201
000290 72 9b 6e be 6b 87 ca be 51 ee 96 3e 59 20 44 bd
       -0.23301485 -0.3955644 0.29478696 -0.04788241
0002a0 04 0f 3a be 22 31 1d be e9 49 4e 3f 7f ae a1 be
       -0.1816979 -0.15350774 0.8058153 -0.31578442
0002b0 70 85 0a bf c6 02 13 3e 14 42 5c 3f a0 99 26 3f
       -0.5410986 0.14356527 0.8603833 0.65078163
0002c0 e0 c6 14 bf 51 6a a1 be 85 53 b2 3d 92 97 ed 3e
       -0.5811596 -0.31526425 0.08707336 0.464047
0002d0 67 ab 2f 3f b0 16 a3 be 58 40 ea bd 4f 02 cf 3e
       0.68620914 -0.31853247 -0.11438054 0.4043145
0002e0 c6 54 a6 3d 55 49 52 bf ee d3 04 3f cc 47 9b be
       0.08121638 -0.82143146 0.5188588 -0.30328214
0002f0 46 35 23 3f e3 96 eb be 1c bc af be f5 fd d7 3d
       0.63753164 -0.46013555 -0.34323204 0.10546485
000300 9e 19 2a 3f 96 17 f3 be ed 99 96 3e d6 9b 14 bf
       0.6644534 -0.47478932 0.2941431 -0.58050287
000310 b9 30 0b 3e da 04 06 3f 4f 3b 14 be 08 3a d0 3e
       0.13592805 0.5235115 -0.1447575 0.40669274
000320 20 1e c1 3e 8a c3 d9 3d bd e2 4a bf d4 b5 1d 3d
       0.37718296 0.10632999 -0.79252225 0.038503483
000330 4b 25 80 be 92 12 08 bf a8 96 d1 be 5b 93 3b bf
       -0.25028452 -0.53153336 -0.40935254 -0.7327172
000340 22 78 36 3b ce 4e 91 3e e1 83 fa 3d 44 c0 ae be
       0.00278426 0.28380436 0.12232185 -0.34131062
000350 f8 dc 7b bd ea 30 61 be ec cd 1e 3f 28 78 09 3f
       -0.06149003 -0.21991315 0.6203296 0.5369897
000360 1f 04 e3 bd 1d f6 ee be 5e dd d5 be 7b a4 9a be
       -0.110847704 -0.46672145 -0.41770452 -0.30203614
000370 c4 f8 95 3e 5c 06 04 3f 9e b1 30 bf 34 35 6e 3d
       0.29291356 0.51572204 -0.6902102 0.058156207
000380 33 57 4a bf 7f 17 c2 3e 0d 47 b8 be 4a b4 ed be
       -0.79039305 0.3790855 -0.35991707 -0.46426612
000390 85 77 e1 bd 81 dd d2 3e cd 2f 00 3e 58 d6 db be
       -0.11009125 0.4118462 0.12518235 -0.4293697
0003a0 f4 9a 6a bd 7b 9b 1b 3e 5c d1 cf be 1d b7 ed 3c
       -0.05727668 0.1519603 -0.40589416 0.02901798
0003b0 90 1e dc 3c 14 58 cc 3c 35 35 a5 3f 0e 51 b4 3e
       0.026870042 0.024944343 1.2906862 0.3521809
0003c0 ad ae 2f be ef fa 6a 3d d7 93 a0 be a2 d3 16 3e
       -0.17156477 0.057368215 -0.31362793 0.14729169
0003d0 6c 29 52 bf 16 76 33 bf 18 cb 75 3f 41 8a 98 3e
       -0.82094455 -0.7010206 0.9601302 0.2979298
0003e0 c0 a0 22 3d 85 f4 c1 3e ac 34 d8 3d 02 26 a2 bd
       0.039704084 0.37881866 0.10556921 -0.07917406
0003f0 c8 ee ea 3e 40 9e 77 be 2b 39 bc 3e e5 09 08 be
       0.458853 -0.24181461 0.36762366 -0.13285024

layers.2.bias f4 [12]
000000 6a 19 2c bf 29 03 27 bf 17 8a a5 3d 20 2b 1a 3f
       -0.6722628 -0.65239197 0.08082979 0.60222054
000010 f8 e5 31 be 3d 28 a6 3e d4 06 9a bd 07 4a e3 3c
       -0.17372882 0.32452574 -0.075208336 0.02774526
000020 74 99 12 3d 71 24 fc 3e 65 7a 4e be d0 c6 8a be
       0.035790876 0.49246553 -0.20163877 -0.27104807

layers.3.weight f4 [2, 12]
000000 10 40 90 be a7 45 19 be a2 cb 46 3f db 14 59 3e
       -0.28173876 -0.14967977 0.7765447 0.21199362
000010 58 d8 8a be 06 20 33 3e eb 28 51 3e a3 27 39 be
       -0.27118182 0.17492685 0.20425765 -0.18081526
000020 94 4b ec 3e dd 64 31 3f a4 df 8a be 53 c5 5b be
       0.46151412 0.6929453 -0.2712375 -0.21461992
000030 85 57 ab bd bb cf a1 bd 60 ad 7e be 55 1a a2 bf
       -0.083663024 -0.079009496 -0.24870825 -1.2664286
000040 09 15 90 bd 64 dc 46 3e 1f 89 03 3e c7 cc 07 bf
       -0.07035262 0.1942001 0.12845276 -0.5304684
000050 e3 80 1d bf 08 b0 43 3f 48 27 7e 3c d9 ef 84 3e
       -0.6152479 0.7644048 0.015512295 0.2596424

layers.3.bias f4 [2]
000000 7b 1a 02 3f 45 02 a5 bd
       0.50821656 -0.080570735

layers.0.weight f4 [48, 24]
000000 11 d0 ba 3e 03 a0 d2 bd 80 e8 e6 bd b2 db 83 3e
       0.36486867 -0.10284426 -0.112748146 0.25753552
000010 c4 e0 ea 3e ee 83 1e bf 28 03 e4 bd 5f 79 32 3e
       0.45874608 -0.6192006 -0.111334145 0.17429112
000020 b6 57 70 3e 6f 4a 9b bd 4e 34 5d be d1 fc 26 be
       0.23470959 -0.075825565 -0.21601984 -0.1630738
000030 68 42 c7 3e d0 fc 1d bf 34 d2 32 be 6a b3 b6 3d
       0.3891785 -0.61713886 -0.17462999 0.08920939
000040 1d f6 a9 3e f0 70 f8 3a 05 f0 88 bc 2a 4c d1 bc
       0.33195582 0.0018954556 -0.016716013 -0.025549013
000050 a0 9b b9 3e 01 15 73 bf 68 c8 de bb 70 3b 60 be
       0.36251545 -0.94953924 -0.0067987926 -0.21897674
000060 47 51 37 3d 53 37 e1 bd 68 67 ff 3d 6d 68 60 3c
       0.044755246 -0.109968804 0.12470895 0.013696772
000070 50 93 36 3d 58 34 f3 be 41 15 65 3e 64 44 5a 3d
       0.044574082 -0.47500873 0.22371389 0.05328788
000080 cf 05 1a 3e fb ba cd 3d 5d 49 bb 3d d6 76 31 3e
       0.15041278 0.10045429 0.09144852 0.17330489
000090 6b fd eb 3d 52 8d 4c bf 3f 29 6f 3d 46 5e 81 3e
       0.11522945 -0.7990314 0.058388945 0.25267237
0000a0 ec 6b 90 3e 8a d1 9f 3d 5a ab a3 3d 16 7f 09 3f
       0.28207338 0.07803638 0.07991667 0.5370954
0000b0 1a 45 00 3f f1 4a b3 bf 33 1f 50 3b aa bd fc 3e
       0.5010544 -1.4007245 0.0031756877 0.49363452
0000c0 6a 88 e6 3e c4 c8 dc bd 6f 4c d8 3d 2b 0b 48 3e
       0.4502595 -0.107804805 0.105614536 0.1953551
0000d0 38 a8 de 3e b8 37 ef bd 3e e0 90 3d 1f ba b5 ba
       0.43487716 -0.116805494 0.07074021 -0.0013864673
0000e0 92 ac a8 3e b4 a2 a1 be 7f 73 34 be e7 67 51 3e
       0.3294416 -0.31569445 -0.17622183 0.20449792
0000f0 84 81 10 3f 07 ef ea bd 1e 8a 2e be 37 52 51 3e
       0.56447625 -0.11471372 -0.17044875 0.20441519
000100 95 4f 9d 3e 12 6f ce be 42 40 d2 bd 15 fc 95 be
       0.3072478 -0.40319115 -0.102661625 -0.29293886
000110 ad cc 4b 3f 5c da 6b bf 40 4a d4 3d df 04 31 be
       0.79609185 -0.92130065 0.103657246 -0.17287014
000120 13 2b e9 3d 99 d1 9d 3e 05 71 74 3d cb 49 8c be
       0.11385169 0.30823973 0.059678096 -0.2740005
000130 a1 57 2d be e6 0d bd be fa 9f 80 3b 74 d2 af be
       -0.16927959 -0.36924666 0.0039253207 -0.3434025
000140 18 68 a2 3e b4 db 52 bc 1b 36 40 bc ce 10 9e be
       0.31720042 -0.012869764 -0.01173165 -0.30872196
000150 ad 85 5c 3e 79 76 a0 3e 57 0f ee bc 62 b0 96 bd
       0.21535368 0.31340387 -0.029060049 -0.07357861
000160 96 37 88 3d 43 78 6d bd f1 63 15 be d3 c7 0f bf
       0.06651227 -0.05797602 -0.14588906 -0.5616428
000170 32 ed 58 3f 2d 39 76 3f 9c e9 52 bd 9d 1f 0a bf
       0.8473693 0.96180993 -0.05149232 -0.5395449
000180 3d 71 86 3e ae 98 44 3f 63 18 27 3d 7f 25 64 3e
       0.2625827 0.7679547 0.04079474 0.22279929
000190 f4 59 a2 be 17 32 0f bf a1 28 07 bd a3 7a 3a 3d
       -0.31709254 -0.55935806 -0.03299773 0.04552711
0001a0 25 ad 7b 3c 96 2c 92 3f 68 7a 92 bd fe ea bd 3d
       0.015361105 1.1419857 -0.071522534 0.09273337
0001b0 05 ef 00 bf 6e 60 6d bf 14 5c 08 3e 9f e6 03 3e
       -0.50364715 -0.92725265 0.13316375 0.12880944
0001c0 a4 14 88 3e 19 91 71 3f a2 88 3b 3d f1 0b cb be
       0.26578248 0.94362026 0.0457846 -0.39657548
0001d0 f5 97 00 bf cb 7a ce bf 08 1e 75 3d 5c ea 89 be
       -0.5023187 -1.6131223 0.059843093 -0.26936615
0001e0 55 6f 6a 3e d1 99 24 3e ee d7 1a 3d b3 00 9c 3d
       0.22894032 0.16074301 0.037803583 0.07617321
0001f0 7f d8 ef be 94 4d 0a be 34 76 be bc bb 07 9e bd
       -0.4684486 -0.13506156 -0.023249723 -0.07716318
000200 fa f7 c9 3e d9 fe c2 bc d8 77 8d 3c 4d 4a 8d 3d
       0.39447004 -0.023803161 0.01726906 0.068989374
000210 b4 01 4c bf 86 d6 13 3e 1f 2b b5 3b cc 94 d2 3c
       -0.796901 0.14437303 0.005528822 0.025705718
000220 e4 ee a9 3e ae 61 09 bd bd 93 93 bd 12 2c 64 3e
       0.33190072 -0.03354042 -0.07205913 0.22282436
000230 4f c1 37 bf a1 1d 5e 3e 02 c2 08 3e 08 04 ee 3e
       -0.7177934 0.2169099 0.13355258 0.4648745
000240 d0 db 31 3e c3 cb d0 be 66 36 57 bd 17 8e 5b be
       0.17369008 -0.40780458 -0.052542113 -0.21440922
000250 83 fd 85 bf 03 ff ec be 79 c5 80 3d f1 55 09 be
       -1.0467991 -0.46288309 0.06287665 -0.1341169
000260 aa 77 1c 3e 8a 39 08 bf 1c 59 b8 3d 15 07 07 be
       0.15280023 -0.532128 0.09001371 -0.13186295
000270 fa 2f a2 3b b5 44 7d 3e fa b9 62 bd 0c 52 06 be
       0.004949567 0.24733241 -0.055353142 -0.13117236
000280 6b cf 1e bd 92 d5 b4 be fe 91 33 3d 8d 81 f6 bd
       -0.038772028 -0.3531919 0.0438404 -0.120364286
000290 0c 1f 00 3f 56 16 b7 3f 7f 24 c5 bc 7c 06 39 bd
       0.50047374 1.4303691 -0.024065254 -0.0451722
0002a0 95 ae 47 bd a5 70 f2 39 c7 8a 83 bb b7 e0 d8 3d
       -0.04875048 0.00046241764 -0.0040143463 0.10589736
0002b0 8e 64 68 3f 2a 6f 50 3f 9c f1 bf bd 8c f0 58 3d
       0.90778434 0.8141962 -0.09372255 0.05296378
0002c0 a0 84 16 be c6 99 8f bd 24 69 0e bd cc ae a5 be
       -0.1469903 -0.07011752 -0.03476824 -0.32359922
0002d0 05 b3 3e bd eb fd d7 3e 27 e1 97 bd df e1 8a be
       -0.046557445 0.42185912 -0.07415991 -0.2712545
0002e0 dc 26 09 3e d4 e8 15 be c0 be 75 3d 50 f9 44 bf
       0.1339373 -0.14639598 0.059996367 -0.7694292
0002f0 7e 1e 28 bf e7 d2 83 be 81 ba 05 be 2d ac 35 bf
       -0.6567153 -0.25746843 -0.13059427 -0.70965844
000300 84 d6 bb 3e 2b be 7a bf e1 76 06 3d 27 30 e8 bd
       0.366871 -0.97946423 0.032828216 -0.11337309
000310 1e 0b ce 3d ec 0f 4f 3e 56 da 45 bd e0 8e b1 3c
       0.10060714 0.20220917 -0.048303925 0.021674573
000320 be d6 cb 3e 27 d3 52 bf 40 94 c7 3d 8d 67 b2 bd
       0.39812273 -0.8235344 0.09745073 -0.08711157
000330 4d ba b6 be e2 92 30 3f 54 df b5 bd 51 ec c0 bd
       -0.3568901 0.68974125 -0.08880487 -0.09420074
000340 bd 53 2d 3e ce 4b 7c bf 05 0f 36 bc 8b c0 97 3d
       0.16926475 -0.9855317 -0.011111979 0.074097715
000350 64 db 13 bf ec 64 eb 3f 37 d6 45 3d ed 65 8f bd
       -0.5775664 1.8390174 0.048299994 -0.07001863
000360 28 1d bf bd 32 42 50 3e f6 56 91 3d 1e 20 20 3e
       -0.09331733 0.20337752 0.070966646 0.15637252
000370 12 b4 ba be fe cd a6 3e 49 8b 31 be 77 59 88 3e
       -0.36465508 0.32579035 -0.1733829 0.26630756
000380 96 69 19 3e b9 77 0c 3f a6 b1 d5 bb f8 6c 65 3e
       0.14981684 0.5487018 -0.0065214215 0.2240485
000390 54 0b 96 3e ea 18 0e 3f 46 4b 9c 3c db 84 01 3e
       0.29305518 0.55506766 0.019078862 0.12648337
0003a0 d8 fd d2 3d 64 cb 3c 3f 5f 57 73 3d 8c a5 9e 3d
       0.10302323 0.7374785 0.059409495 0.07746419
0003b0 68 72 2b 3f fc 4f 52 3f 9a 3a 73 bc a9 05 5f 3e
       0.66971445 0.82153296 -0.014845515 0.21779503
0003c0 0f 4c 3c 3e f7 d8 31 bf 49 8c 9f bc 4b d7 20 3d
       0.18388389 -0.6947169 -0.019476073 0.03926782
0003d0 4c c4 5e 3f 02 19 40 3f c6 fc 25 bc 38 17 00 3d
       0.87018275 0.7503816 -0.010131067 0.031272143
0003e0 bb a4 b5 bd d6 d4 0c bf 3d aa 58 3d c5 c2 b5 bd
       -0.088693105 -0.5501226 0.052896727 -0.0887504
0003f0 93 7e 8e be ee df 90 3e 37 e7 9f bc c2 41 b7 bd
       -0.27830943 0.28295845 -0.019519432 -0.08948089

layers.0.bias f4 [48]
000000 ea fb ff 3d e2 89 07 3e dc 1a a1 bb cc ec 04 bf
       0.12499221 0.13236192 -0.004916532 -0.51923823
000010 79 3c 1e 3e ca 08 ce 3b 87 bb 0d bd 09 cc 10 be
       0.15452756 0.006287669 -0.034602668 -0.14140333
000020 3a b7 82 be 59 67 fb bd f8 ce ff be e4 80 1b bf
       -0.25530416 -0.122755714 -0.49962592 -0.60743546
000030 4b 89 fb be 3c a5 8f be 9b 4b fb bb d7 c4 72 be
       -0.49128184 -0.2805575 -0.007668925 -0.23707901
000040 21 79 23 be ef 44 02 3f b5 48 f6 be 24 92 13 bf
       -0.15964176 0.50886434 -0.48102346 -0.5764487
000050 2c 0f 42 3e dc b9 1c 3e 54 ab 36 be 00 f4 fd be
       0.189511 0.15305275 -0.17838794 -0.4960022
000060 54 91 c4 be 77 2a 37 3e 70 65 c0 bc 8a b1 2c bf
       -0.38392127 0.17887293 -0.02348587 -0.67458403
000070 ca 89 83 3d 55 df 6a bf d4 57 08 bf 02 05 21 3f
       0.064227656 -0.9174703 -0.53259015 0.62898266
000080 eb aa 05 be 61 0f 01 bf 70 4e e1 bd 4a 7a c5 be
       -0.13053481 -0.5041409 -0.11001289 -0.38569862
000090 a8 84 2e 3e 35 44 87 be a7 76 01 bf 58 5f fc be
       0.17042792 -0.26419225 -0.50571674 -0.49291492
0000a0 0e 87 f5 3e d0 96 47 bc 0a 48 22 3e e3 0e 54 bd
       0.479546 -0.012181953 0.15847793 -0.05177201
0000b0 f9 9a 0f bf 78 69 3c be 4c 01 96 3c 76 e5 32 3e
       -0.56095845 -0.18399608 0.018311165 0.17470345

layers.1.weight f4 [24, 48]
000000 80 a7 cd ba 66 16 4e be 8a 58 12 3d 88 e3 48 3d
       -0.0015690178 -0.20125732 0.03572897 0.049045116
000010 ce 4f d2 3e e4 0c b8 3e 83 62 90 be cc 02 0d 3f
       0.4107651 0.35947335 -0.28200158 0.5508239
000020 97 89 99 bf 6e bd 87 be 5d d8 bc bd c6 32 4b bd
       -1.1995114 -0.2651171 -0.092209555 -0.04960897
000030 2a ea 16 be 6f d2 1b 3e 26 f7 f3 3e 17 49 00 be
       -0.14737764 0.15216993 0.47649497 -0.12527882
000040 4e f0 f8 be 48 54 42 3e a2 10 a7 bc 91 49 d9 be
       -0.48620838 0.18977463 -0.020393673 -0.4243894
000050 7c 10 08 bf 38 59 9c bb 46 e8 01 bf 49 0d 71 bf
       -0.53150153 -0.004771378 -0.50745046 -0.94160897
000060 ec 5a 4d bc 7d 19 47 3d b1 00 69 bd 9d 23 de 3d
       -0.0125338845 0.048608292 -0.056885425 0.108466364
000070 1f 2e d4 be b0 5a 29 be c7 ac 95 3e d1 b9 8d be
       -0.41441438 -0.16538501 0.2923338 -0.2768083
000080 2c 49 4d 3e 73 d1 0e bf 61 06 18 3f 0f 22 c2 be
       0.20047444 -0.55788344 0.59384733 -0.3791661
000090 e1 9f 83 bf 34 b7 dc be 6d d2 57 be fd 9e be be
       -1.0283166 -0.43108523 -0.21076365 -0.37230673
0000a0 1a 41 bf 3e 6c 10 68 3e 04 14 0e be f4 a5 a8 3d
       0.37354356 0.22662514 -0.13874823 0.08234778
0000b0 e1 b0 0f bf 32 db d0 37 17 7f 11 3e 1b 9b 48 bd
       -0.5612927 2.4897603e-05 0.14208637 -0.048976045
0000c0 ab 1f 9c 3e 0d ac 71 be 2a 0f 47 bf 0c 3d 9c be
       0.3049291 -0.23600788 -0.77757514 -0.30515325
0000d0 7b de 9e 3e 26 bc a1 3e 67 5f 2e bd cc be 0e bc
       0.31029114 0.31588858 -0.04257145 -0.008712482
0000e0 f3 7a 15 3f 7d 6a 19 3e a1 f3 0a bd 94 e2 f9 3d
       0.5839073 0.14982028 -0.03392375 0.122014195
0000f0 97 a1 8a 3e 54 0a 95 3e 95 6a 5b 3e f5 7e f5 bb
       0.27076408 0.29109442 0.21427377 -0.007491941
000100 8d 1a 5b 3f 9b 11 16 be 65 74 90 3e 0e e1 88 3e
       0.8558739 -0.14655153 0.28213802 0.26734203
000110 72 09 df be b5 fb 2f 3e 05 fe 46 bf c5 40 a9 3e
       -0.43561894 0.17185862 -0.77731353 0.33057228
000120 fc f3 80 bc f2 0d 93 be 04 e4 55 be 8b a8 1a bf
       -0.01574134 -0.28721577 -0.20887762 -0.60413426
000130 96 c9 c7 3e 08 0c e1 bd 5f 60 47 3e 94 93 50 3e
       0.39020985 -0.10988623 0.19470356 0.20368797
000140 7d 2c ed be b5 cf 5a be 84 47 c3 be 66 4e 18 3f
       -0.46323004 -0.21368296 -0.381405 0.59494627
000150 39 5f 7a 3e 5e 91 bb 3e 24 bc 18 3f e1 3e 02 3f
       0.24450387 0.36634344 0.5966208 0.50877196
000160 59 9f 7d be d6 e7 4a be a7 0f c0 be 26 4f 2d 3e
       -0.24767818 -0.19815001 -0.37511942 0.16924724
000170 c6 ee db 3e c7 32 ae be 57 4a b9 bc 29 a2 f0 3d
       0.42955607 -0.34023115 -0.022618456 0.117496796
000180 58 9c a0 be 60 68 87 3e ec 1b 2b 3e 0a 20 1f 3f
       -0.3136928 0.2644682 0.1670987 0.6215826
000190 56 6a 46 bf 98 4e ad be d5 f2 8b 3f 17 64 1d 3e
       -0.77506006 -0.33849025 1.0933481 0.15370212
0001a0 ac ee bf 3e 2c e1 fc 3c 64 e6 29 bf e1 f6 04 bd
       0.3748678 0.030869089 -0.66367173 -0.032462005
0001b0 68 e8 29 3f 3e 11 1a bd d0 19 3a be 3d 31 87 be
       0.6637025 -0.0376141 -0.18173909 -0.26404753
0001c0 f6 86 3e be df 63 b3 be 00 73 8b 3d 7a a6 23 be
       -0.18606171 -0.35037133 0.06809044 -0.15981475
0001d0 bb d0 cb 3e 65 9d f7 be 6d 7e e7 3e 5c af ab 3e
       0.39807686 -0.4836227 0.45213643 0.33532226
0001e0 ad 8e 0c 3d 04 7d 0e bf e7 be 82 be b7 82 90 3b
       0.034315754 -0.5565951 -0.25536272 0.0044101137
0001f0 dc 0d 43 be b5 b2 4a 3e 8e c6 b5 3e cc 25 0f 3e
       -0.19048256 0.19794734 0.35503048 0.13979262
000200 46 9f de 3c 34 52 6a bd dd f8 77 be a2 2f a9 bd
       0.027175557 -0.0572073 -0.24216028 -0.08261038
000210 11 30 07 3f 19 c4 64 3e b6 d8 8c 3e 5b 8b 5c bd
       0.5280772 0.2234043 0.27509087 -0.053843837
000220 00 4a 75 be de 8e 39 be 52 48 a6 bd 37 f7 44 bf
       -0.2395401 -0.18120906 -0.08119263 -0.7693972
000230 b5 df 42 3e 9d 74 c1 3e 7c 26 bb bd f2 ae 1c be
       0.1903065 0.3778428 -0.091382 -0.15301111
000240 92 b6 8c be 64 49 06 bf 3f ab d0 be ce ed 6d be
       -0.2748304 -0.52455735 -0.4075565 -0.23235247
000250 53 70 8e be ba e8 9c bc dd cc 56 be 37 33 1e 3e
       -0.27820072 -0.019153941 -0.20976587 0.15449224
000260 73 92 87 3e a3 f2 c5 bd b7 fe 99 3e ce c7 86 3d
       0.2647892 -0.0966542 0.30077145 0.065810785
000270 f3 96 11 3e 6c 22 5a 3e 56 c0 7f 3e da 13 a9 be
       0.14217739 0.21302193 0.24975714 -0.33022958
000280 ae ce 17 bf b0 b4 e0 be dd 07 60 3d f7 e3 8a 3e
       -0.59299743 -0.43887854 0.054695 0.27127048
000290 58 63 b2 be 33 1c 09 bd fd a5 5f bf 4c e1 d5 3e
       -0.34841418 -0.03347416 -0.87362653 0.4177345
0002a0 12 e3 23 3e 54 b4 97 be e0 a5 a2 bc ca a1 17 bf
       0.16004589 -0.29629767 -0.019854486 -0.59231246
0002b0 2f 0d 2e bf 7a 36 a8 3d d4 5e 90 3e cc 6d ba be
       -0.67988867 0.082135156 0.28197348 -0.36411893
0002c0 98 6d 85 3d c5 45 76 3e fe 51 8f be a7 86 08 3f
       0.06515044 0.24050052 -0.27992243 0.53330463
0002d0 12 cb 3f 3e 07 d9 77 3e 04 a4 02 3f 6f 4e 05 3f
       0.18729809 0.24203883 0.5103152 0.52072805
0002e0 db 87 4b be 16 e2 fe bd d3 73 33 bf 83 fd 29 3f
       -0.19876043 -0.12445466 -0.7009861 0.66402453
0002f0 7a 7b ad 37 c2 b5 99 3d 3b c6 65 be ef d7 72 bd
       2.0680705e-05 0.07505371 -0.224389 -0.05928796
000300 3a f6 84 be e3 76 5e be f6 a5 f3 be 7f 2b bc be
       -0.25969106 -0.21725039 -0.47587556 -0.36751935
000310 0a c9 fc bd ff ad ec ba 4c 91 14 be 3a 68 ad 3e
       -0.12343033 -0.0018057226 -0.14508551 0.3386858
000320 f0 5e bb 3d d6 f7 9f 3e df 98 c5 3d b1 75 95 3e
       0.09148967 0.3124377 0.096482985 0.29191354
000330 b1 2a f0 be b0 f4 81 bf 61 7f f8 3c 2f 1d 0b 3e
       -0.4690757 -1.0152798 0.030334176 0.13585351
000340 2d 12 87 be 40 c2 ac bd c1 9a 86 bd d1 9b 93 3e
       -0.26381055 -0.08435488 -0.06572486 0.28829816
000350 de 64 32 39 6b 08 49 be 36 cd 85 3b 13 eb d4 3d
       0.00017012979 -0.19632117 0.004083301 0.10396399
000360 fb 27 0a 3e 82 3e 00 bc f6 82 a5 bd 32 79 b5 be
       0.13491814 -0.007827403 -0.080816194 -0.35444027
000370 7c 89 ac bd 1a 9f 03 bf 0f f0 9d be 08 bb ad bd
       -0.084246606 -0.51414645 -0.30847213 -0.08482939
000380 f7 5d eb bd eb a7 bd bd 3b 0d 85 be 52 d5 d4 3e
       -0.11492532 -0.092605434 -0.25986657 0.41569
000390 e0 0f a8 3d 12 2b 91 3e 64 c4 28 3f 05 8a 16 3f
       0.08206153 0.28353173 0.6592467 0.5880435
0003a0 7f 48 3f 3e f1 32 99 3c b0 13 e9 be ea b7 c7 be
       0.18679999 0.018701049 -0.45522833 -0.39007503
0003b0 0a 56 1e 3e d0 70 8c bd b9 38 9d 3e 42 3c dd 3d
       0.15462509 -0.06857455 0.30707338 0.10802509
0003c0 50 b0 df 3d 79 80 75 3e 2b 47 a8 3e 6c 65 2f 3e
       0.10922301 0.2397479 0.32866797 0.17128533
0003d0 e0 35 dd 3d c7 15 bd 3d 59 ea 1c be 8e 79 33 be
       0.108012915 0.09232669 -0.15323772 -0.17526838
0003e0 bc 0f 8e bf 8d 54 2a bf 3a 23 80 be 75 66 1d bf
       -1.1098552 -0.66535264 -0.25026876 -0.6148446
0003f0 32 b9 27 bf 39 bf 93 be 5f 15 f5 3d 2f 42 f2 3e
       -0.6551696 -0.2885683 0.11966967 0.4731612

layers.1.bias f4 [24]
000000 1c 99 7b 3e 29 f8 ec be d4 66 3e 3e d0 72 0b bf
       0.24570125 -0.4628308 0.18593913 -0.54472065
000010 43 13 5a 3c 21 3f 8d 3e 81 94 44 bf ae a8 a2 3d
       0.013310256 0.27587226 -0.767891 0.07942329
000020 6d fc 9b 3e b4 2a 0e be de 00 c7 bd 8b e6 cd be
       0.30466023 -0.13883477 -0.09716962 -0.40214953
000030 ec 6d c2 bd 19 49 07 bd b1 c9 8a be 6c 5a a9 3d
       -0.09493622 -0.033028696 -0.27107003 0.082692
000040 5e 2a 27 be 83 ef 00 3f 5e 40 a7 3e 06 95 b4 be
       -0.16324756 0.50365466 0.32666296 -0.35269946
000050 14 3c 47 be d0 bc cd bd 9c 89 70 be 1a 94 b9 bd
       -0.19456512 -0.10045779 -0.23489994 -0.09061451

layers.2.weight f4 [12, 24]
000000 99 fe b4 3d 4e 06 4a 3d ff 74 04 3d 51 5d eb 3e
       0.08837623 0.04932242 0.03233814 0.45969632
000010 13 c0 b6 bc eb 73 38 bf 7f 8e 17 3f 69 43 27 3f
       -0.022308385 -0.72051877 0.59201807 0.65337235
000020 8d d4 b7 3d dd 11 1b 3f 9a 46 de bd 0e 53 b9 3c
       0.08976088 0.6057413 -0.1085331 0.022622611
000030 47 ac 57 bd c4 1f 81 be 93 bf 8b 3e 32 fa be be
       -0.05265453 -0.25219548 0.27294597 -0.3730026
000040 6f db aa be a8 27 50 bc f6 0f 1d bf ae 00 9d 3e
       -0.3337054 -0.012704767 -0.6135248 0.3066458
000050 d0 f4 97 bc b0 ff 25 3e 3d 7a f9 be 95 47 29 ba
       -0.018549353 0.16210818 -0.48726073 -0.0006457505
000060 85 60 0d 3f bb f3 a5 be 86 f9 b6 3e 5a 5e 0f bf
       0.552254 -0.32412514 0.35737246 -0.56003344
000070 7e 53 48 be 4d f2 0a be 6a 80 25 be 82 ef b0 be
       -0.195631 -0.13568993 -0.16162267 -0.3455773
000080 d9 62 70 bb ea 0b c9 bd 54 d3 1c 3e c1 31 3b 3e
       -0.0036680012 -0.098167256 0.1531499 0.18280698
000090 3c 7e b3 3e 8d ce 16 bf 92 f4 7f be d5 58 e3 3e
       0.35057247 -0.5890892 -0.2499564 0.4440371
0000a0 22 3f 3b be 29 b3 9d be 8a af e0 bd d8 62 67 bf
       -0.18285802 -0.3080075 -0.109709814 -0.903852
0000b0 78 2f 2d 3e 50 b7 b1 be f0 fd e6 bc 63 9a 87 bd
       0.16912639 -0.3471017 -0.028197259 -0.06621244
0000c0 31 23 27 be 41 1e 22 bf 17 0b 9d 3e 40 3d 27 bf
       -0.16322018 -0.63327414 0.30672523 -0.65327835
0000d0 33 fb 27 bf 03 23 91 be 48 b9 5b bf 3f ea 95 3e
       -0.65617675 -0.28347024 -0.8582959 0.29280278
0000e0 36 16 30 bf 9c 7c 8c be 0c ef 5b be 66 19 9b bd
       -0.6878389 -0.2743882 -0.21477908 -0.07573204
0000f0 01 61 b2 3e a3 02 97 be 5b e3 45 be a8 76 03 3e
       0.34839633 -0.294942 -0.1932501 0.12838233
000100 c8 7b 41 3e d1 ea 23 bf bd 0f 85 be c2 d8 b0 3e
       0.18894875 -0.64030176 -0.2598857 0.34540373
000110 85 e2 13 bf 06 df 01 bf f8 69 d9 3e e9 6a f3 3e
       -0.57767516 -0.5073093 0.4246366 0.47542503
000120 ea b5 07 3f 2e cf 78 bd 7a 67 bb 3e df b8 0e bf
       0.53011954 -0.060744457 0.36602384 -0.5575084
000130 ce a2 92 be 44 53 47 3f 0e 87 4d bf ca 5d b9 bc
       -0.28639835 0.7786143 -0.802842 -0.02262773
000140 f6 fc ab 3e 49 b9 36 bf f5 09 0c 3f 0f db c2 be
       0.3359143 -0.7137647 0.54702693 -0.38057753
000150 18 c1 d8 3e 90 2c b0 3e eb 8c 54 bf 8a 6d 5f 3e
       0.4233482 0.34408998 -0.83027524 0.2181913
000160 4d a3 8b 3e 31 5c 96 3e 86 93 51 3e 14 6e 87 3e
       0.27273026 0.2936721 0.20466432 0.2645117
000170 47 77 9b 3e 5a b4 1a 3e b2 50 3e 3e aa 7a 65 3f
       0.3036444 0.15107861 0.1858547 0.89640296
000180 22 9a f4 be a7 fc bd 3e 59 65 d4 3d 26 57 c2 bd
       -0.47773844 0.3710682 0.10370893 -0.094892785
000190 43 31 07 bf 5c c0 28 bf aa 43 6c 3f b9 62 b2 3e
       -0.5280954 -0.6591852 0.9229075 0.34840944
0001a0 d8 b8 b5 3b 07 a5 4e 3f 74 f6 34 3d 82 0f 89 3e
       0.0055457167 0.8072056 0.04418035 0.26769644
0001b0 23 72 64 3e a2 84 f0 3e de 97 00 3e e8 25 b9 3e
       0.22309165 0.4697619 0.12557933 0.36161733
0001c0 1d 63 9d 3e 5c 84 91 3d 31 a8 a9 be ef e1 7a be
       0.3073968 0.07105324 -0.33136132 -0.2450025
0001d0 02 37 4d 3e 70 92 93 3e d6 e2 b7 be a5 5a 83 be
       0.20040515 0.2882266 -0.3591525 -0.25655094
0001e0 a5 34 d3 bc 5a 1f d3 bd 9e a8 32 be 79 33 c3 3e
       -0.025781939 -0.10308714 -0.17447135 0.38125208
0001f0 2d 4c 8b be e9 e7 86 bc b8 ce ae bb 45 bb 80 bf
       -0.27206555 -0.016468005 -0.0053347014 -1.005715
000200 59 ca 26 3e a0 08 a2 3e a8 b5 15 bf 21 aa 3c bf
       0.16288127 0.31647205 -0.5848031 -0.73697096
000210 f0 4d 43 3e 23 bb 05 bf 25 c3 62 3e 88 45 19 bf
       0.190727 -0.5223867 0.22144754 -0.5987172
000220 3d 65 40 3e a4 55 17 3e f7 0a af bd 6b 5f 9d be
       0.1878862 0.14778763 -0.08547013 -0.3073686
000230 d2 8d df 3d d1 13 64 3e b8 6a d9 be 7e da af 3e
       0.10915722 0.22273184 -0.42464232 0.34346384
000240 32 9c d4 bc eb bb fb 3d 2c e7 52 bf f0 7a 96 3d
       -0.025953386 0.12291702 -0.8238399 0.07347667
000250 00 45 f0 bc e5 c3 f1 bd 63 bf 0f 3e 91 41 06 be
       -0.029329777 -0.11804942 0.14037852 -0.13110949
000260 05 24 b2 bd 99 3a 0b 3e 31 19 0e bd fb e7 cd 3d
       -0.086982764 0.13596572 -0.034691993 0.100540124
000270 96 da 34 bf 7b b6 ad 3e 75 d8 b4 3d af d6 07 be
       -0.70646036 0.33928284 0.088303484 -0.13265489
000280 d4 43 c0 be 9f e7 80 3e f0 b6 d6 be 56 86 9f 3e
       -0.3755175 0.25176713 -0.41936445 0.31157178
000290 15 7c 6a be 05 d1 ca be d7 32 91 3e 67 ad 65 bd
       -0.22898896 -0.39612594 0.283591 -0.056073572
0002a0 50 4b 32 be 80 5b 0b be 93 6f 4f 3f bc d0 68 be
       -0.17411542 -0.13609123 0.81029624 -0.22735876
0002b0 64 55 12 bf 49 70 04 3e 2d d7 59 3f 40 47 24 3f
       -0.57161546 0.12933458 0.8509396 0.6417122
0002c0 db 82 14 bf 40 c5 aa be 4f f8 73 3d e7 e0 e3 3e
       -0.5801217 -0.33353615 0.059562977 0.44507524
0002d0 2a 2a 18 3f ac 33 b2 be ff 56 c7 3c a5 2d d5 3e
       0.5943934 -0.34805048 0.024333475 0.41636387
0002e0 1f 0b cf 3d f4 83 4c bf 9a 86 05 3f b1 85 a6 be
       0.10109543 -0.79888844 0.5215851 -0.32523873
0002f0 9c 6b 16 3f eb 2f e8 be 53 ee ba be 1a b1 89 3d
       0.5875795 -0.45349059 -0.36509952 0.067232326
000300 c1 ee 28 3f 44 ab e7 be 33 da 84 3e b6 b0 15 bf
       0.6598931 -0.45247853 0.25947723 -0.58472764
000310 07 4a 0c 3e fb 95 09 3f 08 39 23 be de 17 bd 3e
       0.13700114 0.5374448 -0.15939724 0.36932272
000320 27 89 cb 3e 99 aa f1 3d 58 2d 4a bf d5 6e 6d 3d
       0.39753076 0.11800117 -0.7897544 0.057967026
000330 cf e7 52 be df 69 06 bf 1c d4 d8 be 2f 40 3c bf
       -0.2059624 -0.52505296 -0.42349327 -0.73535436
000340 61 e6 0c bd 03 53 97 3e f0 27 14 3e 03 9f b7 be
       -0.034399394 0.2955552 0.1446836 -0.35863504
000350 1c d6 d8 bc 4c eb 4a be f4 a8 17 3f ad f2 02 3f
       -0.026469283 -0.19816321 0.59242177 0.51151544
000360 cc fc 02 be a0 6e f3 be a7 15 d2 be f0 53 9b be
       -0.12791747 -0.47545338 -0.41032144 -0.30337477
000370 2e d5 9a 3e 5e 33 02 3f 10 5b 33 bf 36 04 e4 3c
       0.30240768 0.5085963 -0.70060825 0.02783404
000380 a4 56 51 bf 5d 6d bb 3e 5b af ac be 16 30 e9 be
       -0.8177283 0.36606875 -0.33727536 -0.455445
000390 2d c6 f5 bd 56 37 d6 3e be d8 08 3e cd 6b d2 be
       -0.1200069 0.41839093 0.1336393 -0.4109787
0003a0 1c 02 e3 bc 1b c2 14 3e 9a a4 cd be 73 93 51 3d
       -0.027710967 0.1452717 -0.40164644 0.05116601
0003b0 11 ec 38 3d e1 1b 29 3d 93 32 a7 3f 28 99 aa 3e
       0.045147005 0.041286353 1.3062309 0.33319974
0003c0 d9 9a 2c be f5 2c ab 3d 9a 5a 9d be 63 dd 19 3e
       -0.16855945 0.08358184 -0.30733186 0.15025859
0003d0 95 4b 4d bf 9a a7 2f bf d3 47 71 3f 0f c2 94 3e
       -0.80193454 -0.68615115 0.9425022 0.29054305
0003e0 59 fd 75 3d 58 a0 c4 3e 7e ad dd 3d 52 6c b8 bd
       0.060056064 0.38403583 0.10824107 -0.090050355
0003f0 51 72 f2 3e fc 50 71 be 4a ee bb 3e 9f d3 f2 bd
       0.47352841 -0.2356605 0.36705238 -0.1185677

layers.2.bias f4 [12]
000000 f5 20 2c bf c3 a1 26 bf d7 0b c6 3d 63 8a 1b 3f
       -0.6723779 -0.6509058 0.09670227 0.60758036
000010 d8 6c 3a be 3f e6 ae 3e 26 1e 99 bd 6a bc c3 3c
       -0.18205583 0.3416004 -0.074764535 0.023893554
000020 21 09 59 3d 2e 98 ff 3e 96 5c 38 be 67 48 89 be
       0.05298722 0.4992079 -0.18004069 -0.2681305

layers.3.weight f4 [2, 12]
000000 68 10 8d be 3c ca 28 be 3b 5f 3f 3f e0 d1 63 3e
       -0.2755158 -0.16483396 0.74754685 0.2224803
000010 0a e3 89 be ca e9 3d 3e c6 72 52 3e 39 2b 37 be
       -0.2693103 0.18546215 0.20551595 -0.17887582
000020 2d 2a f2 3e 1e 9d 33 3f 18 8d 87 be 4e a9 5d be
       0.47297803 0.70161617 -0.26474833 -0.21646616
000030 c6 a5 bf bd 83 da 96 bd ad 87 77 be ec 91 9f bf
       -0.09357791 -0.073658966 -0.2417285 -1.2466407
000040 83 83 95 bd a5 2b 43 3e 4c b6 b4 3d 05 4f 10 bf
       -0.073004745 0.19059618 0.08823833 -0.56370574
000050 ce 75 1b bf b5 54 4a 3f 86 e7 88 3c d9 1c 8a 3e
       -0.6072663 0.790355 0.016711961 0.26975134

layers.3.bias f4 [2]
000000 3f ab 03 3f b4 ef aa bd
       0.51433176 -0.08346501
