saved_models/ddpg_model.pth (torch_old, 129655 bytes, 30 tensors)

layers.0.weight f4 [48, 24]
0	0xbe13b5e8	-0.1442486
1	0xbcf7346d	-0.030176366
2	0xbcbd7d23	-0.023130959
3	0x3ecef589	0.40421703
4	0xbe8dceb4	-0.27696764
5	0x3f203f77	0.6259684
6	0xbcb1e786	-0.021716844
7	0x3ea456d3	0.32097492
8	0xbe911030	-0.28332663
9	0x3e039607	0.128502
10	0xbccc102b	-0.024910053
11	0x3f0db6f5	0.55357295
12	0x3e71fbce	0.23631212
13	0xbda516d7	-0.08060997
14	0x3c870247	0.016480578
15	0x3f4e4c96	0.8058561
16	0xbeb5e76e	-0.3552813
17	0x3e952318	0.29128337
18	0xbd6ab3fe	-0.05730056
19	0xbb3bf71c	-0.0028681224
20	0x3f3b29d0	0.73110676
21	0xbfd769cd	-1.6829163
22	0xbd421524	-0.047383443
23	0xbe49004e	-0.19629022
24	0xbe5f4e7b	-0.21807282
25	0x3f2a71e8	0.6658006
26	0xbc49e1c9	-0.012321898
27	0xbef09aab	-0.46993002
28	0xbe3e201a	-0.18566933
29	0xbfbb6c4e	-1.4642427
30	0x3db186b5	0.086682715
31	0xbedc557d	-0.43033972
32	0xbe204764	-0.15652233
33	0x3f2aae7d	0.666725
34	0x3cead22e	0.028664675
35	0xbf3495fb	-0.7054135
36	0x3e6201ea	0.22071043
37	0xbf839f23	-1.028294
38	0xbb90028d	-0.0043948353
39	0xbf2044b3	-0.62604827
40	0xbd30360c	-0.043020293
41	0x3eb2d865	0.3493072
42	0x3cc07fcc	0.023498438
43	0xbf1db5f9	-0.61605793
44	0x3f2ce191	0.6753169
45	0x3f361762	0.7112943
46	0xbd5a1386	-0.053241275
47	0xbf28d603	-0.65951556
48	0xbe12b397	-0.1432632
49	0x3f1afa34	0.6053803
50	0x3d216961	0.039407138
51	0x3f3de50a	0.7417761
52	0xbf4a43ab	-0.79009503
53	0x3efdf81f	0.49603364
54	0x3b9488d2	0.004532912
55	0x3f0b8788	0.5450368
56	0xbe7f75fd	-0.24947353
57	0x3ece9ae9	0.40352562
58	0xbc5f4da2	-0.013629349
59	0x3e1996ac	0.14998883
60	0x3e0ae6ab	0.13564555
61	0xbea2a66b	-0.31767592
62	0xbc00b758	-0.007856213
63	0x3e1980f2	0.14990595
64	0xbe6b64ba	-0.22987643
65	0x3eb05509	0.34439877
66	0xbdc6ecf0	-0.09713161
67	0xbf5e891c	-0.8692796
68	0x3f8b1938	1.0867071
69	0xbf9792fd	-1.1841732
70	0x3ddf9c2e	0.10918461
71	0xbf3fcc24	-0.7492087
72	0x3dae2411	0.08502973
73	0xbed42a70	-0.41438627
74	0x3ae5d095	0.0017533476
75	0xbd584d18	-0.052807897
76	0xbd18dcf1	-0.03732008
77	0x3f77f2b7	0.9685473
78	0xbd5d2d39	-0.053998206
79	0xbdfa45bf	-0.12220334
80	0x3e5cf2bf	0.21576975
81	0xbf2a3ee8	-0.6650224
82	0xbd1f4e31	-0.03889293
83	0xbe3f7136	-0.1869553
84	0xbd0fd7d2	-0.03511793
85	0xbf78bf53	-0.9716694
86	0xbd664871	-0.05622143
87	0x3d455f89	0.048186813
88	0x3d43288c	0.04764609
89	0xbef37a44	-0.4755422
90	0xbd43b8c1	-0.047783617
91	0x3d548ab6	0.051890098
92	0x3ecffd5c	0.40622985
93	0xc03e211d	-2.970771
94	0x3d3eed85	0.046613235
95	0x3d978716	0.073988125
96	0x3ed8d285	0.42348114
97	0x3f2a35a0	0.66488075
98	0x3cef50f4	0.029213406
99	0xbc92a8d4	-0.01790277
100	0x3f256fb8	0.64623594
101	0x3d9a9a4d	0.07548962
102	0xbd369a3c	-0.044580683
103	0xbe47db68	-0.1951729
104	0x3e000e39	0.12505426
105	0x3f8052ee	1.0025308
106	0xbdf0032d	-0.11719356
107	0x3ea70734	0.32622683
108	0x3c854242	0.016266946
109	0xbe9c9c9a	-0.30588228
110	0x3db32dc4	0.087489635
111	0x3eb97fbc	0.36230266
112	0x3ea8fe9c	0.33006752
113	0x3f672c98	0.9030242
114	0xbdf2c332	-0.11853637
115	0xbd257fed	-0.040405203
116	0xbed3d427	-0.41372797
117	0xbf76983f	-0.9632606
118	0xbdd5f88a	-0.10447796
119	0x3db1c625	0.08680371
120	0x3f039058	0.51392126
121	0x3f4fa9b2	0.8111831
122	0x3d4e9c67	0.050442126
123	0x3f03d3fa	0.51495326
124	0xbefaa74f	-0.4895577
125	0xbe0a141a	-0.1348423
126	0xbc2ddd0e	-0.010611786
127	0x3eb92652	0.3616205
128	0x3f27a89d	0.6549166
129	0x3f888618	1.0665922
130	0xbc335305	-0.010945086
131	0x3f1fc7d0	0.62414265
132	0xbf1f5c86	-0.62250555
133	0xbf687d4d	-0.90816194
134	0xbcb9d600	-0.022685051
135	0x3f14b320	0.58085823
136	0x3f294fae	0.66137207
137	0x3f9720c4	1.1806874
138	0x3c6b8ffb	0.014377589
139	0xbf31670b	-0.69297856
140	0xbef54ed5	-0.47911707
141	0xbfd9a3a2	-1.7003062
142	0x3e6143a2	0.21998456
143	0xbee6e107	-0.45093557
144	0x3f2f4191	0.6845942
145	0x3ed221a6	0.41041297
146	0xbe0c74c4	-0.13716418
147	0xbea55ea6	-0.32298774
148	0xbdf7f9a9	-0.12108166
149	0xbf854130	-1.0410519
150	0xbcb22334	-0.021745302
151	0xbe788671	-0.24270035
152	0x3f2b3992	0.6688472
153	0x3e12c09e	0.1433129
154	0x3d8ee977	0.06978124
155	0xbeb19b03	-0.34688577
156	0xbd6eb2e0	-0.058276057
157	0xbd0a6478	-0.03378722
158	0xbd9acb9b	-0.07558366
159	0xbeb1406d	-0.34619465
160	0x3f48a838	0.7838168
161	0x3efa5da4	0.48899567
162	0x3d915310	0.07095921
163	0xbe8c1b49	-0.27364567
164	0x3dfc213c	0.123110265
165	0x3ec13e4c	0.3774284
166	0x3b4838cc	0.0030551432
167	0xbe4b36ed	-0.19845171
168	0x3bd5cdb4	0.006524766
169	0x3fbe0494	1.4845147
170	0x3cb4a12b	0.022049507
171	0x3e88622f	0.26637408
172	0xbec39f6d	-0.3820757
173	0x3e15c371	0.14625336
174	0xbd8a90f7	-0.06765931
175	0x3e5a9082	0.21344188
176	0x3b823c87	0.0039745006
177	0x3fd0d1ec	1.6314063
178	0x3c0b72c0	0.008511245
179	0x3e209a14	0.15683776
180	0xbed57773	-0.41692695
181	0xbf2be3a9	-0.67144257
182	0xbcfcf9ca	-0.030880827
183	0x3e563392	0.2091811
184	0x3e6f6a02	0.23380283
185	0x3fbe641f	1.4874305
186	0x3dc5a2a2	0.0965016
187	0xbf30a191	-0.6899653
188	0xbea57422	-0.32315165
189	0xbf988635	-1.1915957
190	0xbdc0af70	-0.09408462
191	0xbf21548b	-0.6301963
192	0xbd489403	-0.04896928
193	0xbf1225d6	-0.57088983
194	0x3d55c1f4	0.05218692
195	0xbe92a917	-0.2864463
196	0x3f53e6d4	0.8277409
197	0x3ef63f85	0.48095337
198	0xbced1dab	-0.02894481
199	0xbe1b0907	-0.15140162
200	0xbbda5d0b	-0.0066639236
201	0xbee3952e	-0.44449753
202	0x3db23b37	0.087027006
203	0xbdd40b92	-0.10353769
204	0x3f92604a	1.1435635
205	0x3e7a8732	0.24465635
206	0xbdcb3795	-0.09922711
207	0xbde29074	-0.110627085
208	0xbdb1c4a7	-0.086800866
209	0xbeb22f40	-0.34801674
210	0xbcd21851	-0.02564636
211	0xbd9eeb1e	-0.07759689
212	0x3f9bb7fb	1.2165521
213	0x3f44515b	0.7668664
214	0x3d0a4c22	0.033764012
215	0xbe63083a	-0.22171107
216	0xbe3ef5e3	-0.18648486
217	0x3ea73d25	0.32663837
218	0x3e0649d1	0.13114096
219	0xbda2275e	-0.07917665
220	0x3f9f31f4	1.243712
221	0x3f3a224b	0.72708577
222	0xbde7d872	-0.113205805
223	0x3cfbf67c	0.030757181
224	0xbdc855aa	-0.09781964
225	0x3ebf9e79	0.37425593
226	0x3c3262be	0.0108878
227	0xbd3a87db	-0.045539718
228	0x3f096842	0.5367471
229	0x3efdd50b	0.495766
230	0x3d157469	0.03648797
231	0xbe128856	-0.1430982
232	0xbe379e17	-0.179314
233	0x3ecb42a1	0.3969927
234	0xbbccbc7e	-0.006248056
235	0xbeecbbfd	-0.46237174
236	0xbe981161	-0.2970076
237	0xbe1a40d2	-0.1506379
238	0xbda4ddbc	-0.08050105
239	0xbea4e2f0	-0.3220439
240	0x3e06fe40	0.13182926
241	0xbf866817	-1.0500516
242	0xbcd4c604	-0.025973327
243	0x3d80b022	0.06283595
244	0xbe94d63b	-0.29069695
245	0x3ee2df0d	0.443108
246	0xbc88383a	-0.016628373
247	0x3d609f28	0.054839283
248	0x3c489459	0.0122424
249	0xbf34fcdb	-0.70698327
250	0x3d77b6b5	0.060476977
251	0xbe13f20c	-0.14447802
252	0xbec2724d	-0.3797783
253	0x3f16a43c	0.5884435
254	0xbc439303	-0.011936906
255	0xbe14b17d	-0.14520831

layers.0.bias f4 [48]
0	0x3ec246de	0.37944692
1	0xbdcaa6e3	-0.09895112
2	0x3dbf90c3	0.09353783
3	0xbe8e3fa8	-0.2778294
4	0xbe656a7a	-0.22403899
5	0x3da1c61a	0.07899113
6	0xbf60d432	-0.87823784
7	0xbef3f4b3	-0.47647628
8	0x3e8289f4	0.25495875
9	0x3d5dc614	0.05414398
10	0xbe815043	-0.25256547
11	0xbf252faa	-0.64525855
12	0x3df7ca6b	0.12099155
13	0xbdf472c8	-0.11935955
14	0xbf212665	-0.6294921
15	0x3e174332	0.14771727
16	0x3e39af68	0.18133318
17	0x3b218fda	0.0024652393
18	0x3d933409	0.07187659
19	0xbea67fb6	-0.3251931
20	0x3d84df4a	0.064879015
21	0xbed8d0e3	-0.42346868
22	0xbef2815e	-0.47364324
23	0xbe3ed5fc	-0.18636316
24	0xbf4a82e3	-0.7910597
25	0xbf2eddba	-0.6830708
26	0x3c545f81	0.012962223
27	0x3e4bff28	0.19921553
28	0x3eae57a1	0.3405123
29	0x3da5c8e7	0.0809496
30	0xbe34fa64	-0.17673641
31	0xbef1b38a	-0.4720729
32	0xbeb88456	-0.36038464
33	0xbecaa2c9	-0.3957732
34	0xbf0a6047	-0.5405316
35	0x3eb45647	0.35222074
36	0xbdece1c9	-0.115665026
37	0xbf38abfb	-0.7213742
38	0x3d41272e	0.047156505
39	0xbc4e74b1	-0.012601064
40	0x3e6ed072	0.23321703
41	0xbed560ab	-0.41675314
42	0xbee9c3cc	-0.45657194
43	0xbe9c45ac	-0.30521905
44	0xbf1128dc	-0.5670297
45	0xbed6d64a	-0.41960365
46	0xbe8a2339	-0.26979998
47	0xbe671c0c	-0.22569293

layers.1.weight f4 [24, 48]
0	0x3eb951d2	0.36195236
1	0xbcae8bcf	-0.0213069
2	0x3eca291a	0.39484483
3	0x3e55289f	0.20816277
4	0x3f0c9199	0.54909664
5	0xbf57c432	-0.84283745
6	0xbeddf2a5	-0.43349186
7	0x3e5e4526	0.21706066
8	0xbebd68cd	-0.3699402
9	0xbd8fd242	-0.07022525
10	0xbf345dc1	-0.7045556
11	0xbe0700d1	-0.13183905
12	0x3ec9d920	0.39423466
13	0xbecbc659	-0.39799765
14	0x3eb4a4d2	0.35281998
15	0xbf8b8761	-1.0900689
16	0xbe427d88	-0.18993199
17	0x3f44de6f	0.76901907
18	0x3e27e1a6	0.16394672
19	0xbcbc2561	-0.022967042
20	0x3ed8565c	0.42253387
21	0xbef862fb	-0.48513016
22	0xbf0270a4	-0.50953126
23	0xbf2ab6ca	-0.66685164
24	0x3f92e6bd	1.1476666
25	0x3f3712bc	0.7151296
26	0xbdfe92f0	-0.1243037
27	0xbe2e39e0	-0.17014265
28	0x3e128457	0.14308296
29	0xbd979a87	-0.074025206
30	0x3e977e08	0.29588342
31	0xbe34831f	-0.17628144
32	0x3eb06e01	0.34458926
33	0x3de5c4af	0.11219155
34	0xbe3cfbed	-0.18455477
35	0xbe4481b5	-0.19190104
36	0xbf5bff42	-0.8593637
37	0x3ed28fb1	0.41125253
38	0x3dae6a4d	0.08516369
39	0x3dd15513	0.10221305
40	0x3f3738d2	0.71571076
41	0xbcb9384e	-0.022609856
42	0x3eaf5853	0.34247074
43	0xbf042fa7	-0.5163521
44	0x3ef322d7	0.47487518
45	0x3ea109a2	0.31452662
46	0x3e4ea767	0.20181046
47	0xbf0b65fc	-0.5445249
48	0xbe1c7b8c	-0.15281504
49	0xbbb2a83f	-0.0054521854
50	0xbf2f247e	-0.6841506
51	0xbf141b07	-0.5785374
52	0x3e28b185	0.16473968
53	0x3de1180b	0.10990914
54	0xbe4190cf	-0.18902896
55	0xbd2b04d9	-0.04175267
56	0xbf54542d	-0.8294094
57	0x3f3152df	0.69267076
58	0x3dd6a029	0.10479767
59	0xbdc4067d	-0.0957155
60	0xbf1a1a05	-0.6019595
61	0x3f48ae0c	0.78390574
62	0xbd2c3470	-0.042042196
63	0xbdf706b2	-0.12061824
64	0x3ea24143	0.31690416
65	0xbe9a61a8	-0.3015263
66	0xbe5b6d23	-0.21428351
67	0xbebc52a2	-0.36781794
68	0xbe8ecf98	-0.27892756
69	0xbdf95c32	-0.12175788
70	0xbe8c8c6d	-0.27450886
71	0x3e71ff92	0.23632649
72	0x3f0971dd	0.53689367
73	0x3f300756	0.68761194
74	0x3f12004a	0.5703169
75	0xbf36101e	-0.7111834
76	0xbca10a15	-0.019658128
77	0xbd9adb5a	-0.07561369
78	0xbd81b0f2	-0.06332578
79	0xbd9a8e6d	-0.07546697
80	0xbd9f0680	-0.07764912
81	0x3d9db64c	0.07700786
82	0xbebc137c	-0.36733615
83	0xbe27e1a3	-0.16394667
84	0x3caba0bd	0.02095067
85	0xbe70934a	-0.23493686
86	0x3cf48b11	0.029851468
87	0x3ef2014e	0.4726662
88	0x3f1bfed0	0.6093569
89	0xbea4bd0d	-0.32175484
90	0xbdbfb594	-0.09360805
91	0xbf08af7a	-0.53392756
92	0xbe586c85	-0.21135147
93	0x3f06e0be	0.5268668
94	0x3f1407e0	0.57824516
95	0x3dcb645d	0.09931252
96	0xbebdd35c	-0.37075317
97	0x3eb639b3	0.35590896
98	0xbf4b6e30	-0.7946501
99	0x3dc94b2e	0.098287925
100	0xbdba379d	-0.09092639
101	0xbef26473	-0.47342262
102	0xbd830af6	-0.06398575
103	0xbe9d0c48	-0.30673432
104	0xbedcac3c	-0.43100154
105	0x3e686ff6	0.2269896
106	0xbe8da78a	-0.27666885
107	0xbe8c1060	-0.27356243
108	0xbd80d020	-0.06289697
109	0xbe4b1ea5	-0.19835909
110	0xbf333b05	-0.7001193
111	0xbf47946b	-0.7796084
112	0xbd4ad72d	-0.049521614
113	0x3b8e2679	0.0043380824
114	0xbd0a42d6	-0.033755146
115	0xbe406801	-0.18789674
116	0x3f05d29d	0.52274495
117	0x3e2f7ef2	0.1713827
118	0x3c4e2182	0.012581231
119	0xbe4ab07c	-0.19793886
120	0x3e837b2f	0.2567992
121	0x3f03ce45	0.5148662
122	0xbf02e2f2	-0.5112754
123	0xbf2b31cb	-0.66872853
124	0xbf847509	-1.0348216
125	0x3dcb0646	0.09913306
126	0xbe1dedd1	-0.15422751
127	0xbeb20b64	-0.34774315
128	0x3e923ee3	0.28563604
129	0xbf0a8b26	-0.54118574
130	0xbd9c447c	-0.0763025
131	0xbdff101a	-0.12454243
132	0x3e808593	0.2510191
133	0xbe0859d8	-0.13315523
134	0x3ebaebd7	0.36508057
135	0xbf206d7b	-0.62667054
136	0x3e5d39a6	0.21604022
137	0x3e6fe062	0.23425439
138	0xbc9b7fc6	-0.018981826
139	0x3e927baf	0.28609988
140	0x3e73c8cd	0.23807068
141	0x3ee768cb	0.45197138
142	0xbe958cc0	-0.29208946
143	0x3e743f65	0.23852308
144	0xbe887bc1	-0.26656917
145	0x3ef16ba6	0.47152442
146	0x3ead20e0	0.33814144
147	0x3eb95531	0.36197808
148	0xbef06da0	-0.46958637
149	0xbf4e3ec9	-0.8056455
150	0x3e9a3069	0.3011506
151	0x3e774f06	0.24151239
152	0xbf8966db	-1.0734514
153	0xbefb1fab	-0.49047598
154	0x3ea387c2	0.31939512
155	0x3ead2a91	0.33821538
156	0x3f55ef01	0.83567816
157	0xbf22d0c6	-0.63599813
158	0xbe4540d8	-0.19263017
159	0xbd1fd612	-0.039022513
160	0x3c7cc445	0.015427654
161	0x3ea1caa9	0.3159993
162	0x3e840caf	0.25790927
163	0xbdcaa45e	-0.09894632
164	0xbf4a8434	-0.79107976
165	0x3eefab6b	0.4681047
166	0x3db2e6dc	0.08735439
167	0x3e1a0247	0.15039931
168	0xbf7cd687	-0.9876484
169	0xbe56d7d4	-0.2098077
170	0xbe1e0e27	-0.15435086
171	0xbf86419d	-1.0488774
172	0xbceecb6a	-0.02914973
173	0x3c1d6e6c	0.009608846
174	0xbcbd3db1	-0.023100706
175	0x3e9e697e	0.3093986
176	0xbe3c8109	-0.18408598
177	0x3e186a0a	0.148842
178	0xbf11ccb1	-0.5695296
179	0x3c6e4adc	0.014544215
180	0x3f232d52	0.6374103
181	0xbe26e42a	-0.16297975
182	0xbf0ee193	-0.5581295
183	0xbde40e77	-0.111355714
184	0xbeba232a	-0.36354953
185	0x3efd85b0	0.49516058
186	0x3dae7ac9	0.08519513
187	0xbd7e7984	-0.062127605
188	0xbec66937	-0.38752148
189	0xbe36c00d	-0.17846699
190	0xbe5f0289	-0.21778311
191	0xbe54c26b	-0.2077729
192	0x3e4a5e4a	0.19762531
193	0xbebd68ea	-0.36994106
194	0x3ed16a6b	0.40901503
195	0x3d87c30b	0.06628998
196	0xbeb7b776	-0.35882157
197	0xbf33e60e	-0.7027291
198	0x3edb4267	0.42824098
199	0xbf154c0f	-0.5831918
200	0xbefec112	-0.49756676
201	0xbe8a7166	-0.2703964
202	0x3e04734e	0.1293461
203	0x3e77ea25	0.24210413
204	0x3f1e1881	0.6175614
205	0xbf62e893	-0.8863613
206	0xbef3fd8a	-0.47654372
207	0xbf5f4308	-0.87211657
208	0x3e6e1a67	0.23252259
209	0xbf2167c4	-0.6304896
210	0x3eec8405	0.46194473
211	0x3d3a74e3	0.045521628
212	0xbe742096	-0.23840556
213	0x3d889e03	0.06670763
214	0xbe626bcf	-0.22111438
215	0x3ed83be7	0.42233202
216	0x3ed0dae2	0.40791994
217	0xbca5665e	-0.020190414
218	0x3ec6e531	0.38846734
219	0x3c81e01e	0.015853938
220	0x3ea709c7	0.32624647
221	0xbf399d12	-0.72505295
222	0x3e4ea257	0.20179115
223	0xbebbb45f	-0.3666105
224	0xbec9bcf4	-0.39401972
225	0xbde28051	-0.11059631
226	0xbea70373	-0.3261982
227	0x3e29a764	0.1656776
228	0x3cb4ac6d	0.022054875
229	0xbdb5ee2a	-0.08883317
230	0x3f384aad	0.71988946
231	0xbdf2c504	-0.11853984
232	0xbe0db3b8	-0.13838089
233	0xbe6acd57	-0.22929893
234	0xbe8a1156	-0.2696635
235	0xbd3d84e3	-0.04626931
236	0x3e76efec	0.2411496
237	0xbed1fc0b	-0.41012606
238	0xbe03a8cd	-0.12857361
239	0xbf0559c6	-0.5209011
240	0x3e765c5f	0.24058674
241	0xbf0e91b4	-0.55691075
242	0x3db1a600	0.0867424
243	0x3f12c7f5	0.5733636
244	0xbdb37e58	-0.087643325
245	0xbf3fee7b	-0.7497327
246	0xbe540f8b	-0.20709054
247	0x3f2bf47e	0.6716994
248	0x3e3eb489	0.18623556
249	0xbdec1f86	-0.1152945
250	0x3a6e0e4e	0.0009081111
251	0xbe7ccca8	-0.24687445
252	0xbe7d8a19	-0.24759711
253	0xbce50342	-0.027955655
254	0x3e075118	0.13214529
255	0xbf9291ec	-1.1450782

layers.1.bias f4 [24]
0	0xbe9110bf	-0.2833309
1	0xbf06f84a	-0.5272261
2	0xbe9b7455	-0.30362192
3	0x3dd12426	0.10211973
4	0x3e19330a	0.14960876
5	0x3f30981f	0.6898212
6	0x3d12b039	0.03581259
7	0x3dba16a0	0.090863466
8	0xbe1c4688	-0.1526128
9	0x3d5051f4	0.050859407
10	0xbe5a7711	-0.21334483
11	0xbe10a538	-0.14125526
12	0xbc193e88	-0.0093532875
13	0xbeaa9151	-0.33313993
14	0x3d87d405	0.066322364
15	0xbf4692d4	-0.7756779
16	0xbeed8a19	-0.46394423
17	0xbd2318d0	-0.039818585
18	0xbc731a7b	-0.014837856
19	0x3c4d673c	0.01253682
20	0xbe870c38	-0.2637651
21	0xbe85dad4	-0.26143515
22	0xbf74bde0	-0.95602226
23	0xbe10c821	-0.14138843

layers.2.weight f4 [12, 24]
0	0x3f47dc06	0.78070104
1	0xbdf7dc85	-0.12102608
2	0x3e90b488	0.28262734
3	0x3ebfa5a8	0.37431073
4	0x3f2fd6cb	0.68687123
5	0x3dcc43ce	0.0997387
6	0x3ec4e2ca	0.38454276
7	0xbe86563b	-0.26237664
8	0x3eaf2a23	0.34211835
9	0xbeb7325f	-0.35780618
10	0x3f8b8ac8	1.0901728
11	0x3e51f919	0.2050518
12	0xbd3a4732	-0.045478053
13	0xbe75167c	-0.23934358
14	0x3c92cf5b	0.01792114
15	0x3e9162da	0.2839573
16	0xbe3c9e38	-0.1841973
17	0xbf0d503f	-0.5520057
18	0xbf38e46b	-0.7222354
19	0x3e94801a	0.29003984
20	0xbd4cc3ab	-0.04999129
21	0x3e5a160e	0.21297476
22	0xbd20b0a8	-0.039230973
23	0xbf24da90	-0.64396
24	0xbe4cd6bb	-0.20003788
25	0x3e912d66	0.2835495
26	0x3e121877	0.14267145
27	0xbf390e7a	-0.72287714
28	0x3e385ae0	0.18003416
29	0xbdad1319	-0.08450908
30	0xbf35e37b	-0.7105023
31	0x3ee73e64	0.45164788
32	0x3ed1d5d1	0.4098344
33	0x3f2fa38d	0.68608934
34	0xbdcc97ee	-0.09989916
35	0x3e7860dd	0.242557
36	0x3ca431da	0.020043302
37	0xbe84f9b1	-0.2597175
38	0x3f39ec37	0.7262606
39	0x3f36f3eb	0.7146594
40	0x3f2f0979	0.6837383
41	0x3df5059b	0.1196396
42	0xbeb7b7f9	-0.35882547
43	0x3e1b3333	0.1515625
44	0x3e2b591d	0.16733213
45	0x3f0a1ad2	0.53947175
46	0x3f0757cf	0.5286836
47	0x3c2e9508	0.010655649
48	0xbf526b86	-0.8219532
49	0x3a2975fc	0.00064644194
50	0x3edd5071	0.43225434
51	0xbf1052bd	-0.5637625
52	0xbeadf268	-0.33974004
53	0xbe0ab0e3	-0.1354404
54	0xbf3a717e	-0.72829425
55	0x3f027799	0.5096374
56	0x3da33531	0.0796913
57	0x3f6d7de9	0.9277025
58	0xbf3b7a60	-0.73233604
59	0xbdb1d139	-0.08682484
60	0x3db5a21f	0.08868813
61	0x3e4f44e4	0.20241123
62	0x3e7ad18a	0.24493995
63	0x3eca8f7f	0.39562604
64	0x3dab6809	0.083694525
65	0x3f99833a	1.1993172
66	0xbe0a5f8d	-0.13513012
67	0x3f071517	0.52766556
68	0xbe7f3501	-0.24922563
69	0x3ed79bd6	0.4211108
70	0x3eceb61a	0.40373307
71	0x3e181084	0.1485005
72	0x3efa7c35	0.48922887
73	0xbea9e02d	-0.33178845
74	0x3d85fd47	0.065424494
75	0xbdfec68d	-0.12440214
76	0xbf94d54a	-1.1627591
77	0xbd9efed9	-0.07763452
78	0x3f0abb8e	0.54192436
79	0xbf02b9d8	-0.51064825
80	0xbf248b6c	-0.6427524
81	0xbefe608a	-0.49683028
82	0x3f3e7dcd	0.74410707
83	0xbe63bd61	-0.22240211
84	0xbe49460b	-0.19655626
85	0x3cce216d	0.025162423
86	0xbf510ee1	-0.8166333
87	0xbe7e393d	-0.24826522
88	0x3f0403c9	0.51568276
89	0x3dd98cf1	0.106225856
90	0xbf682504	-0.9068148
91	0xbe27f942	-0.16403678
92	0x3f241857	0.6409964
93	0xbd339fd0	-0.04385358
94	0xbe70193e	-0.23447129
95	0x3f43a1f4	0.76418996
96	0xbf5ba64c	-0.85800624
97	0x3efe395f	0.49653146
98	0x3f1384dd	0.5762461
99	0xbeb83c54	-0.35983527
100	0xbf228902	-0.6349031
101	0xbfb6b764	-1.4274716
102	0x3da50e10	0.08059323
103	0x3f29cc46	0.6632732
104	0xbf098413	-0.53717154
105	0x3ea7c0df	0.32764336
106	0xbf111654	-0.56674695
107	0x3e5da70b	0.21645753
108	0xbd3a5e5c	-0.045500144
109	0x3ef8065a	0.48442346
110	0x3e2bff8e	0.16796705
111	0xbefb91dc	-0.4913472
112	0x3ebe2c55	0.37143198
113	0xbf0d3a40	-0.5516701
114	0x3eb58244	0.35450947
115	0xbfb85bf0	-1.4403057
116	0x3f05f72a	0.5233027
117	0xbc6bfb9f	-0.014403253
118	0x3f3eece5	0.7458022
119	0x3e1db3a9	0.15400566
120	0xbebd2ce1	-0.36948302
121	0xbef87bd1	-0.48531964
122	0xbf56f4e6	-0.83967435
123	0xbe96b97a	-0.29438382
124	0xbf73c18d	-0.9521721
125	0xbd82f89d	-0.063950755
126	0x3e599275	0.21247275
127	0xbe73ea8a	-0.23819938
128	0xbe449572	-0.19197634
129	0x3eadf8c4	0.33978856
130	0xbee9337d	-0.45547095
131	0xbdc3fa61	-0.0956924
132	0x3eb6643b	0.35623345
133	0xbf0de911	-0.55433756
134	0xbefc85d6	-0.4932086
135	0x3eb80058	0.35937762
136	0x3e43e969	0.19132008
137	0x3f816238	1.0108099
138	0xbe60084f	-0.2187817
139	0x3f03046a	0.5117861
140	0x3ea10ef7	0.3145673
141	0x3d851fe3	0.065002225
142	0x3f6809a1	0.9063969
143	0x3f27493e	0.65346134
144	0xbe75a839	-0.23989953
145	0xbd70571e	-0.05867683
146	0xbd89a745	-0.06721357
147	0xbe1ad2db	-0.15119497
148	0x3f0ac3f8	0.54205275
149	0xbf1d8507	-0.6153111
150	0xbf2a45aa	-0.6651255
151	0xbf55ecb3	-0.835643
152	0xbe259c65	-0.16172941
153	0x3f3edfe9	0.7456041
154	0xbd86088d	-0.065446
155	0x3e34de01	0.17662813
156	0xbf3b7610	-0.73227024
157	0x3ef682ab	0.48146567
158	0x3f2f99ff	0.68594354
159	0xbdf59145	-0.119905986
160	0xbef21e69	-0.47288826
161	0x3f2130ae	0.62964904
162	0xbccd2fdf	-0.02504724
163	0x3e99a66e	0.30009788
164	0x3e921dd2	0.28538376
165	0x3cc13021	0.02358252
166	0x3f0cbcfb	0.5497586
167	0x3d95783e	0.07298325
168	0x3e90a917	0.28254005
169	0xbf2dc939	-0.67885166
170	0x3ef573cc	0.47939909
171	0x3f07bc42	0.53021634
172	0xbd0e04cf	-0.034672555
173	0xbdb3fa98	-0.08788031
174	0x3f0e6a00	0.55630493
175	0x3ed5b5c5	0.41740242
176	0x3daed107	0.085359626
177	0x3ee5dd5d	0.4489545
178	0xbe6419cc	-0.22275466
179	0x3ee9ea67	0.45686647
180	0x3df61f66	0.120177075
181	0x3de17243	0.11008122
182	0xbf8020e6	-1.001004
183	0x3daac611	0.083385594
184	0xbe35c5e5	-0.17751272
185	0xbefe2fc9	-0.49645832
186	0xbf8f1d8e	-1.1180894
187	0xbdcd1a1a	-0.10014744
188	0xbca5a178	-0.020218596
189	0xbf95eef2	-1.1713545
190	0xbe9a099e	-0.30085462
191	0xbe53077c	-0.20608324
192	0x3f34ca93	0.70621604
193	0x3db94da0	0.09048009
194	0x3f2184b2	0.630931
195	0xbedbb909	-0.42914608
196	0x3e443d9c	0.19164127
197	0xbe682bac	-0.2267291
198	0x3ed70df8	0.42002845
199	0x3e0aeb6d	0.1356637
200	0x3f2ece2a	0.6828333
201	0x3eeb6e7e	0.45982736
202	0xbda1c8de	-0.078996405
203	0x3ed46032	0.4147964
204	0xbe150ede	-0.14556453
205	0xbe2aa0ea	-0.16662946
206	0x3e135327	0.14387189
207	0xbda5b322	-0.080908075
208	0x3dc02887	0.0938273
209	0xbf6b7122	-0.919695
210	0x3e31fb93	0.17381124
211	0xbf47bf95	-0.78026706
212	0x3ed655b2	0.41862255
213	0xbf7a7e0a	-0.9784857
214	0xbe77fb76	-0.24217018
215	0xbeac9f2e	-0.33715194
216	0xbe532f25	-0.20623453
217	0x3f1563db	0.5835549
218	0x3e4aee1e	0.19817397
219	0xbf1c5ccc	-0.61079097
220	0xbe5c850f	-0.21535133
221	0xbf41a8e3	-0.75648326
222	0xbec4e48c	-0.38455617
223	0x3f55f570	0.8357763
224	0xbddcac4f	-0.10775053
225	0xbf074a7f	-0.52848047
226	0xbe9d696c	-0.30744493
227	0x3f076357	0.52885956
228	0xbe41ecb6	-0.18937954
229	0xbe80f230	-0.25184774
230	0x3f2bbc0f	0.6708383
231	0x3f68a552	0.9087726
232	0x3e5e21e4	0.21692616
233	0xbe8d2d4d	-0.27573624
234	0x3f411196	0.7541746
235	0xbf2a7c57	-0.6659598
236	0xbd86b323	-0.06577136
237	0xbee46770	-0.44610167
238	0x3ff38691	1.9025441
239	0x3e92cac8	0.28670335
240	0x3c14b585	0.009076481
241	0x3e03c845	0.12869366
242	0x3dd08932	0.10182418
243	0x3ed8ca6b	0.42341933
244	0x3e20f1b6	0.15717205
245	0xbe408f68	-0.18804705
246	0x3e71dc63	0.23619227
247	0xbf21b716	-0.6316999
248	0xbe14f30a	-0.14545837
249	0x3e2e943e	0.17048737
250	0x3f2779a2	0.6541997
251	0xbf4af905	-0.79286224
252	0xbf042e63	-0.5163328
253	0x3f3cadb3	0.73702544
254	0x3f0129cf	0.5045442
255	0xbe0f17b9	-0.13973893

layers.2.bias f4 [12]
0	0x3e9e365d	0.3090085
1	0x3d1c9e36	0.03823682
2	0xbdfac529	-0.122446366
3	0xbd267635	-0.040640075
4	0x3d9247ce	0.07142602
5	0x3eb47226	0.35243338
6	0x3e367353	0.1781743
7	0xbe3e89a8	-0.18607199
8	0xbeb51ca6	-0.3537342
9	0x3f9b6c9a	1.2142518
10	0xbe272297	-0.16321789
11	0xbe8e95be	-0.2784862

layers.3.weight f4 [2, 12]
0	0x3e0e4610	0.13893914
1	0xbf2214d3	-0.63313025
2	0xbda7e1e9	-0.08197386
3	0x3ef9c6b8	0.48784423
4	0xbe7a4a52	-0.24442413
5	0x3d2ef49a	0.04271374
6	0xbfa31225	-1.2739912
7	0x3f684f97	0.90746444
8	0x3e1f7deb	0.15575378
9	0xbfcde897	-1.6086606
10	0xbd95d7a3	-0.0731652
11	0x3f82bb63	1.0213436
12	0x3e5e4df5	0.21709426
13	0xbe2ad14f	-0.16681407
14	0xbf144e8d	-0.5793236
15	0xbeb0d5f6	-0.3453824
16	0x3f364b78	0.71208906
17	0xbffd03ec	-1.9766822
18	0x3e5f7601	0.21822359
19	0x3ddd826f	0.10815894
20	0xbed16b38	-0.40902114
21	0xbdef14d4	-0.116738945
22	0x3f0ff6ac	0.56235766
23	0xbf2e13db	-0.6799905

layers.3.bias f4 [2]
0	0xbe85bdd9	-0.26121405
1	0xbefe4297	-0.4966018

layers.0.weight f4 [48, 24]
0	0xbe132d8a	-0.1437284
1	0xbd0dad96	-0.034589373
2	0xbcad2163	-0.021134084
3	0x3ec8f14b	0.39246592
4	0xbe8a07a2	-0.26958948
5	0x3f20aadf	0.6276073
6	0xbca18bcd	-0.019719983
7	0x3e9e5278	0.30922294
8	0xbe8fe472	-0.28103977
9	0x3dfc58cf	0.123216264
10	0xbc7e4baf	-0.015520974
11	0x3f0c2cf1	0.54756075
12	0x3e793301	0.24335863
13	0xbd9804cc	-0.0742279
14	0x3cd3eda0	0.025870144
15	0x3f4cc2ef	0.79984945
16	0xbeb43f09	-0.35204342
17	0x3e911a21	0.28340247
18	0xbd6bb756	-0.05754789
19	0xbca41c4a	-0.02003302
20	0x3f3cced8	0.7375312
21	0xbfd5934d	-1.6685578
22	0xbd431866	-0.04763069
23	0xbe5a94ad	-0.21345778
24	0xbe4eda9b	-0.20200579
25	0x3f2856dd	0.6575754
26	0xbb206d96	-0.002447938
27	0xbefa1df2	-0.4885097
28	0xbe384f14	-0.17998916
29	0xbfbcd335	-1.4751955
30	0x3dc5c048	0.09655815
31	0xbee5d8b0	-0.44891882
32	0xbe109af8	-0.14121616
33	0x3f28bf54	0.65916944
34	0x3cb9570c	0.022624515
35	0xbf32ed8c	-0.6989372
36	0x3e671d80	0.22569847
37	0xbf839567	-1.0279969
38	0xbc2af967	-0.010435439
39	0xbf1e9c25	-0.6195701
40	0xbcfcfc0f	-0.03088191
41	0x3eaf464e	0.34233326
42	0x3b831025	0.0039997273
43	0xbf188c84	-0.5958941
44	0x3f2e5caf	0.68110174
45	0x3f346c98	0.704782
46	0xbd94f944	-0.07274106
47	0xbf23ac8c	-0.6393516
48	0xbe103cb2	-0.14085653
49	0x3f19eae0	0.60124016
50	0x3ce1fcfe	0.027586456
51	0x3f3d3895	0.7391446
52	0xbf49a6a9	-0.7876993
53	0x3efac621	0.48979285
54	0xbbeed243	-0.0072882487
55	0x3f0adacb	0.542401
56	0xbe7c9f06	-0.24670038
57	0x3eccc359	0.39992788
58	0xbc08cff4	-0.008350361
59	0x3e1c155e	0.15242526
60	0x3e0b62e4	0.13611943
61	0xbea7e4d5	-0.32791772
62	0xbb28e554	-0.0025771456
63	0x3e1bffb8	0.15234268
64	0xbe68867c	-0.22707552
65	0x3eaf7296	0.3426711
66	0xbdcf2ba9	-0.101157494
67	0xbf5da7ba	-0.86584055
68	0x3f8ae965	1.0852476
69	0xbf996bad	-1.1985985
70	0x3dd75ee1	0.105161436
71	0xbf3eeaa7	-0.745768
72	0x3d785bf5	0.060634572
73	0xbeddf76e	-0.43352836
74	0x3b71528d	0.0036822886
75	0xbd89411e	-0.06701873
76	0xbd4cc087	-0.049988296
77	0x3f78ed96	0.9723753
78	0xbd55475b	-0.052070003
79	0xbe0bb068	-0.13641512
80	0x3e44df97	0.19225918
81	0xbf2f68d0	-0.68519306
82	0xbd2a716d	-0.041612078
83	0xbe4e78d0	-0.20163274
84	0xbd3fd520	-0.04683411
85	0xbf7b9472	-0.98273385
86	0xbd716be8	-0.058940798
87	0x3d09448a	0.03351263
88	0x3cc9a120	0.024612963
89	0xbefee457	-0.49783584
90	0xbd16140b	-0.03664021
91	0x3d4c65be	0.049901716
92	0x3ecb0727	0.39653894
93	0xc03ed119	-2.9815123
94	0x3d6c938c	0.0577579
95	0x3d9374b8	0.07199997
96	0x3eda98a2	0.42694575
97	0x3f2afd42	0.6679269
98	0x3d07b8bb	0.033135157
99	0xbcc1036e	-0.023561206
100	0x3f21c6ec	0.63194156
101	0x3db33749	0.08750779
102	0xbd268b00	-0.040659904
103	0xbe4da746	-0.20083341
104	0x3e00774b	0.12545507
105	0x3f80c1ec	1.005918
106	0xbe00ff8a	-0.1259748
107	0x3ea31003	0.31848153
108	0x3ba948f7	0.005166169
109	0xbe94ba5a	-0.29048425
110	0x3da1330a	0.07871063
111	0x3eb58897	0.35455772
112	0x3ea83790	0.3285489
113	0x3f67d301	0.9055634
114	0xbdfd52c7	-0.12369304
115	0xbd49a3c4	-0.049228445
116	0xbed5cd9e	-0.41758436
117	0xbf71b9bc	-0.94424033
118	0xbde0881e	-0.10963462
119	0x3d9fb522	0.0779822
120	0x3f071209	0.52761894
121	0x3f490364	0.785208
122	0x3d381b5a	0.04494796
123	0x3ef9de7a	0.4880255
124	0xbef3f031	-0.4764419
125	0xbe20a42e	-0.1568763
126	0xbc83f23e	-0.016106721
127	0x3eab5c94	0.3346907
128	0x3f2b68ef	0.6695699
129	0x3f845aa0	1.0340157
130	0xbbd69bb8	-0.006549325
131	0x3f1b65e7	0.60702366
132	0xbf1be6b6	-0.6089891
133	0xbf6e6ba9	-0.93133026
134	0xbc95d3c7	-0.01828946
135	0x3f10512a	0.56373847
136	0x3f2d7312	0.6775371
137	0x3f9257e4	1.1433072
138	0x3c296706	0.010339504
139	0xbf3054e2	-0.6887952
140	0xbeee5bff	-0.46554562
141	0xbfdc99f7	-1.7234486
142	0x3e5d21c4	0.21594912
143	0xbee4bc40	-0.44674873
144	0x3f286d9f	0.6579227
145	0x3ed39b64	0.4132949
146	0xbe212cb9	-0.15739717
147	0xbeb43b33	-0.35201415
148	0xbe0a12c3	-0.1348372
149	0xbf80dd12	-1.0067465
150	0xbd2bef95	-0.04197653
151	0xbe8b1fa3	-0.27172574
152	0x3f242e15	0.64132816
153	0x3e0126e2	0.12612489
154	0x3d697a91	0.057001654
155	0xbec404b6	-0.38284844
156	0xbd8dc3c3	-0.06922104
157	0x3b039cad	0.00200824
158	0xbdb4f8d3	-0.08836522
159	0xbec3aa2b	-0.38215765
160	0x3f4293c2	0.7600671
161	0x3eeb2c30	0.4593215
162	0x3da19f8f	0.078917615
163	0xbe9bbbb8	-0.30416656
164	0x3dedae69	0.11605532
165	0x3ed6f34d	0.419825
166	0x3c346ef9	0.011012786
167	0xbe6a7785	-0.22897156
168	0xbb9dcbaa	-0.0048155384
169	0x3fbcdfdf	1.475582
170	0x3d1f43b0	0.03888291
171	0x3e8a556c	0.27018297
172	0xbeca6b15	-0.39534822
173	0x3e213590	0.15743089
174	0xbd503024	-0.05082716
175	0x3e5e76db	0.21725027
176	0xbc0083bc	-0.007843908
177	0x3fcfebe8	1.6243868
178	0x3ba62a51	0.0050709625
179	0x3e25300e	0.16131613
180	0xbedba425	-0.4289867
181	0xbf29a048	-0.66260195
182	0xbd0c94dd	-0.034321655
183	0x3e5ac9ab	0.21365993
184	0x3e62f00a	0.2216188
185	0x3fbdab58	1.4817915
186	0x3dbe1589	0.09281451
187	0xbf31d0a5	-0.6945899
188	0xbeab150a	-0.3341449
189	0xbf97ffb0	-1.1874905
190	0xbdc83dd8	-0.09777421
191	0xbf2283b9	-0.6348224
192	0xbce2742e	-0.02764329
193	0xbf0aa1c0	-0.5415306
194	0x3d634910	0.0554896
195	0xbe8622b1	-0.26198342
196	0x3f4f9110	0.8108072
197	0x3efa110c	0.4884113
198	0xbcd211a3	-0.025643175
199	0xbe01fbb6	-0.12693676
200	0x3c576951	0.013147668
201	0xbed37225	-0.41298023
202	0x3dad1b77	0.08452504
203	0xbdad76a4	-0.084698945
204	0x3f8ede1a	1.116153
205	0x3e80746c	0.25088823
206	0xbdd05889	-0.10173137
207	0xbdbbfb8e	-0.091788396
208	0xbd882b43	-0.066488765
209	0xbea2ab5e	-0.31771368
210	0xbcf5da1c	-0.03001123
211	0xbdd0e51b	-0.101999484
212	0x3f970fdf	1.1801718
213	0x3f43f19f	0.7654056
214	0x3cf0d843	0.029399997
215	0xbe7c05c8	-0.2461158
216	0xbe3a5efc	-0.18200296
217	0x3ec6c4e2	0.38822085
218	0x3e03b6ae	0.12862656
219	0xbdb217b1	-0.08695925
220	0x3f9c00ec	1.2187781
221	0x3f3e6c64	0.7438414
222	0xbded005a	-0.11572333
223	0x3cbc3854	0.022976078
224	0xbdc26c7f	-0.0949335
225	0x3edcd527	0.43131372
226	0xbbde130a	-0.006777172
227	0xbd8501fd	-0.0649452
228	0x3f041f28	0.5161004
229	0x3f032da5	0.51241523
230	0x3c9a335d	0.01882332
231	0xbe2667ac	-0.16250485
232	0xbe372d29	-0.17888321
233	0x3ee23028	0.44177365
234	0xbc845b71	-0.016156884
235	0xbef8356a	-0.48478252
236	0xbea0b4ec	-0.31388032
237	0xbe08f40c	-0.13374346
238	0xbdb92953	-0.09041085
239	0xbeb05c11	-0.3444524
240	0x3dff6598	0.12470549
241	0xbf8505cd	-1.0392395
242	0xbd4f694c	-0.05063753
243	0x3dc2310a	0.0948201
244	0xbe982a41	-0.29719737
245	0x3ee79bb5	0.45235983
246	0xbd29223f	-0.041292425
247	0x3db1d07e	0.08682345
248	0x3b8cee47	0.004300866
249	0xbf321c66	-0.6957458
250	0x3d5a984b	0.053367894
251	0xbe11c624	-0.14235741
252	0xbec5bdf9	-0.386215
253	0x3f18bf82	0.5966722
254	0xbc9c0847	-0.019046916
255	0xbe128599	-0.14308776

layers.0.bias f4 [48]
0	0x3ec21b80	0.37911606
1	0xbde08037	-0.10961955
2	0x3db5a547	0.08869415
3	0xbe838983	-0.2569085
4	0xbe62285e	-0.22085711
5	0x3d8f01fc	0.069828
6	0xbf584a0c	-0.84487987
7	0xbeeac1ce	-0.45850986
8	0x3e5d0d36	0.21587071
9	0x3d5f01a7	0.054444935
10	0xbe7a7e64	-0.24462277
11	0xbf2764f4	-0.6538842
12	0x3deb7fe8	0.114990056
13	0xbde2f343	-0.11081555
14	0xbf220c3d	-0.63299924
15	0x3e10a26b	0.14124458
16	0x3e3fef96	0.18743739
17	0x3b53184c	0.0032210527
18	0x3d8a0561	0.06739307
19	0xbea5ca7e	-0.32381052
20	0x3d9adb3a	0.075613454
21	0xbed51441	-0.41617015
22	0xbef77671	-0.4833255
23	0xbe371e66	-0.1788269
24	0xbf490a92	-0.78531754
25	0xbf2e8407	-0.6817021
26	0x3c6e81e6	0.014557337
27	0x3e482432	0.19545057
28	0x3eaeaea4	0.34117615
29	0x3d6ae4c0	0.05734706
30	0xbe30ddb0	-0.17272067
31	0xbef4f15d	-0.47840396
32	0xbeba6568	-0.36405492
33	0xbec8e0a7	-0.39233896
34	0xbf045699	-0.5169464
35	0x3eb2ff94	0.34960616
36	0xbe0b76f5	-0.13619597
37	0xbf34d3da	-0.7063576
38	0x3d42971d	0.047507394
39	0xbcf49a56	-0.02985875
40	0x3e767c6f	0.24070905
41	0xbed7781c	-0.42083824
42	0xbee81807	-0.4533083
43	0xbe9b770d	-0.30364266
44	0xbf1000c8	-0.5625119
45	0xbed6f0b9	-0.41980532
46	0xbe8e0476	-0.27737778
47	0xbe6aa090	-0.22912812

layers.1.weight f4 [24, 48]
0	0x3ebdb165	0.37049404
1	0xbb380829	-0.0028081036
2	0x3ecd7a5a	0.4013241
3	0x3e75465f	0.23952626
4	0x3f082a22	0.5318929
5	0xbf5be924	-0.8590262
6	0xbedf4792	-0.4360929
7	0x3e6968f4	0.22793943
8	0xbeaf71dc	-0.34266555
9	0xbd261710	-0.040549338
10	0xbf31c7be	-0.6944541
11	0xbe08cd44	-0.13359553
12	0x3ed14f85	0.4088098
13	0xbec9bacc	-0.39400327
14	0x3eb424bb	0.35184273
15	0xbf8a4990	-1.08037
16	0xbe3ae419	-0.18251075
17	0x3f4a6eb5	0.79075176
18	0x3e37cddd	0.17949624
19	0xbd0ec442	-0.034855135
20	0x3ee0a7a4	0.438779
21	0xbefe7557	-0.49698898
22	0xbf0236f5	-0.5086511
23	0xbf26f596	-0.65218484
24	0x3f91cc08	1.139039
25	0x3f34f7a3	0.70690364
26	0xbe0fcc49	-0.14042772
27	0xbe193fdc	-0.14965767
28	0x3e0df183	0.1386166
29	0xbd58fc39	-0.052974913
30	0x3ea00a84	0.31258023
31	0xbe40e4e9	-0.18837322
32	0x3eaad61f	0.33366486
33	0x3dfc4c91	0.123192914
34	0xbe3d4c99	-0.18486251
35	0xbe3195bb	-0.17342274
36	0xbf5dc752	-0.86632264
37	0x3ecb3717	0.39690468
38	0x3dd5559b	0.104167186
39	0x3def0505	0.11670879
40	0x3f380b8a	0.7189261
41	0xbcbbbbab	-0.022916635
42	0x3eb6a7a4	0.35674775
43	0xbf0699e5	-0.52578574
44	0x3f006422	0.5015279
45	0x3ea2e153	0.31812534
46	0x3e45893e	0.19290635
47	0xbf0da3fa	-0.55328333
48	0xbe15defb	-0.14635842
49	0xbbef9296	-0.0073111756
50	0xbf307278	-0.68924665
51	0xbf12c6dd	-0.5733469
52	0x3e324e20	0.17412615
53	0x3dd292d7	0.10281914
54	0xbe3d89b9	-0.18509568
55	0xbd6dbfb2	-0.058044143
56	0xbf58b7d7	-0.8465552
57	0x3f2f04c9	0.68366677
58	0x3dbfb533	0.09360733
59	0xbdd25afe	-0.10271262
60	0xbf1a0028	-0.6015649
61	0x3f465b77	0.77483314
62	0xbd1731ce	-0.03691273
63	0xbe019680	-0.12655067
64	0x3ea10441	0.31448558
65	0xbea0e430	-0.31424093
66	0xbe5a59d4	-0.21323329
67	0xbeb4527d	-0.35219184
68	0xbe93f5df	-0.28898522
69	0xbdf4849b	-0.11939355
70	0xbe8a1a20	-0.26973057
71	0x3e68d5fc	0.22737879
72	0x3f0a5d2b	0.54048413
73	0x3f30566f	0.6888189
74	0x3f0f1891	0.5589686
75	0xbf34a20b	-0.7055976
76	0xbca45593	-0.020060336
77	0xbd542ad1	-0.051798645
78	0xbda70db3	-0.0815691
79	0xbd8c78fb	-0.06859013
80	0xbd93931b	-0.072057925
81	0x3d99f4aa	0.07517369
82	0xbebacbed	-0.36483708
83	0xbe34f01b	-0.17669718
84	0xbb4e182e	-0.0031447518
85	0xbe6d0bac	-0.23148984
86	0x3d2ef295	0.042711813
87	0x3ef66992	0.4812742
88	0x3f1c569e	0.6106967
89	0xbeacd2b4	-0.33754504
90	0xbd9f227f	-0.077702515
91	0xbf0c8519	-0.5489059
92	0xbe6c9546	-0.23103818
93	0x3f06b9f8	0.52627516
94	0x3f1502cf	0.5820741
95	0x3d9f8124	0.077883035
96	0xbeb05bf9	-0.3444517
97	0x3eb2d329	0.34926727
98	0xbf48a4e2	-0.7837659
99	0x3db8f92f	0.09031903
100	0xbdb3086f	-0.08741843
101	0xbeefb5b8	-0.46818328
102	0xbd7163ac	-0.058932945
103	0xbe9bf4f6	-0.30460328
104	0xbedfe6b5	-0.43730703
105	0x3e661ebb	0.2247266
106	0xbe93d172	-0.28870732
107	0xbe93fd9c	-0.28904426
108	0xbd938e00	-0.07204819
109	0xbe5123cc	-0.20423812
110	0xbf3265af	-0.69686407
111	0xbf488d25	-0.7834037
112	0xbd68a316	-0.056796156
113	0x3b4ecee1	0.0031556415
114	0xbd1c42fc	-0.03814982
115	0xbe3c4ec5	-0.18389423
116	0x3f08cf71	0.5344153
117	0x3e2f5562	0.17122415
118	0x3c824941	0.01590407
119	0xbe57c7e0	-0.2107234
120	0x3e841248	0.25795197
121	0x3f043c88	0.51654863
122	0xbefdcafc	-0.49568927
123	0xbf292635	-0.66073924
124	0xbf83563a	-1.0260689
125	0x3db6fdff	0.08935165
126	0xbe216756	-0.15762076
127	0xbeafd340	-0.34340858
128	0x3e997481	0.29971698
129	0xbf08a5de	-0.53378093
130	0xbd90e297	-0.070744686
131	0xbe099c36	-0.13438496
132	0x3e7524c4	0.23939806
133	0xbe0f7645	-0.1400996
134	0x3eb71a0d	0.35762063
135	0xbf20d9e4	-0.62832475
136	0x3e5a8d89	0.21343054
137	0x3e639063	0.22223048
138	0xbcb7baca	-0.022427935
139	0x3e898b08	0.26863885
140	0x3e69d10d	0.22833653
141	0x3ee4b550	0.4466958
142	0xbe96cc60	-0.294528
143	0x3e75c869	0.24002232
144	0xbe887e2b	-0.2665876
145	0x3efb709b	0.4910935
146	0x3eb0ac1c	0.3450631
147	0x3ebd1970	0.3693347
148	0xbef54fc1	-0.4791241
149	0xbf4b573f	-0.7943
150	0x3e8f30c4	0.27966893
151	0x3e8042dc	0.2505101
152	0xbf85aafb	-1.0442804
153	0xbefa6615	-0.48906007
154	0x3ea0b87d	0.31390753
155	0x3eadc26a	0.3393739
156	0x3f5578d5	0.833875
157	0xbf1f18de	-0.6214732
158	0xbe48f480	-0.1962452
159	0xbcc4eae0	-0.024037778
160	0x3ca1663d	0.019702071
161	0x3eaa9032	0.33313137
162	0x3e83cfac	0.2574438
163	0xbdddd3e1	-0.10831428
164	0xbf489dc1	-0.78365713
165	0x3eed3b41	0.4633427
166	0x3dab2345	0.083563365
167	0x3e0f462f	0.13991617
168	0xbf7e7176	-0.9939188
169	0xbe5f49ba	-0.21805468
170	0xbe13ccc4	-0.1443358
171	0xbf898180	-1.0742645
172	0xbcb9c7ed	-0.02267834
173	0x3cb07e65	0.021544645
174	0xbb639bc1	-0.0034730288
175	0x3e9eee8c	0.31041372
176	0xbe392a00	-0.18082428
177	0x3e3d5bfc	0.1849212
178	0xbf151dbe	-0.5824851
179	0x3cf87996	0.030331414
180	0x3f205876	0.6263498
181	0xbe3622d2	-0.1778672
182	0xbf0f7c03	-0.560486
183	0xbdf5ede3	-0.12008264
184	0xbeb1d940	-0.3473606
185	0x3efa6701	0.4890671
186	0x3de83d97	0.11339872
187	0xbd663885	-0.056206245
188	0xbeccd01b	-0.40002522
189	0xbe275209	-0.16339888
190	0xbe52b181	-0.20575525
191	0xbe51a5a2	-0.2047334
192	0x3e769b8a	0.24082771
193	0xbed0232d	-0.40651837
194	0x3ed2def9	0.4118574
195	0x3dcf78a9	0.10130436
196	0xbec03e62	-0.37547594
197	0xbf3770ca	-0.7165648
198	0x3ed88a15	0.42292848
199	0xbf1c3f25	-0.6103385
200	0xbeedc268	-0.46437383
201	0xbe856f3c	-0.26061428
202	0x3deb87a4	0.11500481
203	0x3e7c274e	0.24624369
204	0x3f182f08	0.59446764
205	0xbf5fff13	-0.8749859
206	0xbef59032	-0.47961575
207	0xbf5a394a	-0.85243666
208	0x3e6ea733	0.23305969
209	0xbf1c37d7	-0.61022705
210	0x3ef7c32b	0.4839109
211	0x3d4d31f4	0.050096467
212	0xbe5000ee	-0.20312855
213	0x3d95624f	0.072941415
214	0xbe5dbaca	-0.21653286
215	0x3ede2660	0.43388653
216	0x3ed27c55	0.41110483
217	0x3cba8e56	0.02277295
218	0x3ed635db	0.41837963
219	0x3d3f638b	0.04672579
220	0x3ea4d8f2	0.32196766
221	0xbf30361a	-0.6883255
222	0x3e3f8b5c	0.18705505
223	0xbeadfeab	-0.3398336
224	0xbec0ef75	-0.3768269
225	0xbdd4bc70	-0.10387504
226	0xbeabcfc9	-0.33556965
227	0x3e2daeb4	0.16961175
228	0xbcffef77	-0.031242115
229	0xbddbc8f2	-0.10731687
230	0x3f40c870	0.75305843
231	0xbd89b072	-0.067231074
232	0xbe030339	-0.12794198
233	0xbe75578c	-0.23959178
234	0xbe789695	-0.24276192
235	0xbd0cad71	-0.034345094
236	0x3e660c7a	0.22465697
237	0xbed08985	-0.4072992
238	0xbdeba6c3	-0.11506417
239	0xbf04396b	-0.5165011
240	0x3e6596a9	0.22420754
241	0xbf0f017c	-0.5586164
242	0x3db5ba7c	0.0887346
243	0x3f155b3e	0.5834235
244	0xbda02608	-0.07819754
245	0xbf38182a	-0.7191187
246	0xbe4b755a	-0.19868985
247	0x3f2d8a72	0.67789376
248	0x3e3f2f52	0.18670395
249	0xbdeef08e	-0.11666976
250	0xbadfabdd	-0.0017064769
251	0xbe6f4783	-0.23367123
252	0xbe874093	-0.26416454
253	0xbc9c906f	-0.01911184
254	0x3e12e916	0.14346728
255	0xbf94b2ad	-1.1617028

layers.1.bias f4 [24]
0	0xbe8bbf71	-0.27294496
1	0xbf083449	-0.5320478
2	0xbe9ebcfa	-0.31003553
3	0x3deb8f9f	0.11502003
4	0x3e193eaf	0.14965318
5	0x3f2ef979	0.68349415
6	0x3d1a76fb	0.037711125
7	0x3dca6892	0.098832265
8	0xbe211d32	-0.15733793
9	0x3d6d071b	0.057868104
10	0xbe566066	-0.2093521
11	0xbe18f832	-0.14938429
12	0x3b5f1373	0.0034038692
13	0xbeacf814	-0.3378302
14	0x3d743a63	0.059625994
15	0xbf431250	-0.7619982
16	0xbeef669c	-0.46757972
17	0xbd640715	-0.055670816
18	0xbc05c960	-0.008165687
19	0xbb25bb7a	-0.0025288747
20	0xbe8844bd	-0.26614943
21	0xbe83bd56	-0.2573039
22	0xbf73c883	-0.9522783
23	0xbe138078	-0.14404476

layers.2.weight f4 [12, 24]
0	0x3f42bc66	0.76068723
1	0xbe0cf565	-0.13765486
2	0x3e8fb57a	0.28068143
3	0x3ec81951	0.39081815
4	0x3f2b7dfc	0.6698911
5	0x3db90e7a	0.09035964
6	0x3ebe7b6e	0.37203544
7	0xbe909b8b	-0.2824367
8	0x3eafa41f	0.34304902
9	0xbebf1802	-0.37323004
10	0x3f8cc11b	1.0996431
11	0x3e4a0b12	0.19730785
12	0xbd394506	-0.04523184
13	0xbe79b48d	-0.24385281
14	0x3cece26e	0.028916564
15	0x3e90d17a	0.28284818
16	0xbe181929	-0.14853348
17	0xbf0dafc4	-0.5534632
18	0xbf38d8ef	-0.72206014
19	0x3e9453dc	0.2897023
20	0xbd0e23f2	-0.03470225
21	0x3e4e451d	0.20143552
22	0xbcd222c1	-0.025651338
23	0xbf1ba3d6	-0.6079687
24	0xbe4c2c37	-0.19938742
25	0x3e946276	0.2898137
26	0x3df6509d	0.120270945
27	0xbf3d223a	-0.7388035
28	0x3e299578	0.16560924
29	0xbdc41f73	-0.09576311
30	0xbf37ef0d	-0.7184914
31	0x3eea397f	0.4574699
32	0x3ed6fc9c	0.419896
33	0x3f2e9747	0.6819958
34	0xbdde04c2	-0.10840751
35	0x3e7013c8	0.23445046
36	0x3c25282a	0.010080377
37	0xbe7d9884	-0.24765211
38	0x3f339b1a	0.7015854
39	0x3f39c58b	0.7256705
40	0x3f2c79a1	0.6737309
41	0x3ddac0cc	0.10681304
42	0xbebe4ca1	-0.37167838
43	0x3e17796c	0.14792413
44	0x3e1a443f	0.15065096
45	0x3f0269c8	0.5094266
46	0x3f08a1f1	0.533721
47	0xbccf69d2	-0.025319014
48	0xbf4dafef	-0.8034658
49	0xbd0834a1	-0.033253316
50	0x3edae302	0.42751318
51	0xbf08c546	-0.53426015
52	0xbea7eaaf	-0.32796237
53	0xbe051ff7	-0.13000475
54	0xbf32545c	-0.6965997
55	0x3f035ff9	0.5131832
56	0x3d8355ed	0.064128734
57	0x3f719745	0.94371444
58	0xbf3bc763	-0.73351115
59	0xbd968b9d	-0.07350848
60	0x3dd76609	0.105175085
61	0x3e4509e6	0.19242057
62	0x3e8612df	0.26186273
63	0x3ecf1c21	0.40451148
64	0x3dd9a765	0.10627631
65	0x3f9b5bb2	1.2137358
66	0xbe0d313f	-0.13788317
67	0x3f05485d	0.5206354
68	0xbe75cdc2	-0.24004272
69	0x3ee2b116	0.4427573
70	0x3ecaed88	0.39634347
71	0x3e12ac8b	0.14323632
72	0x3efca019	0.49340895
73	0xbea838ef	-0.32855937
74	0x3d7efd7c	0.06225346
75	0xbdffaa1f	-0.1248362
76	0xbf96ca4e	-1.1780488
77	0xbd8860a5	-0.066590585
78	0x3f0ae025	0.5424827
79	0xbf06c0af	-0.5263776
80	0xbf2649c2	-0.64956295
81	0xbf040f01	-0.51585394
82	0x3f3fa120	0.7485523
83	0xbe3f2a26	-0.18668422
84	0xbe38d482	-0.18049815
85	0x3cc9b933	0.024624443
86	0xbf51d8aa	-0.8197123
87	0xbe841499	-0.25796965
88	0x3f047c8e	0.51752555
89	0x3dc4a675	0.09602062
90	0xbf679b8a	-0.9047171
91	0xbe226600	-0.15859222
92	0x3f280c57	0.6564383
93	0xbd043780	-0.03227949
94	0xbe7b9851	-0.24569823
95	0x3f425bc0	0.7592125
96	0xbf5929f9	-0.8482967
97	0x3f04aaeb	0.518233
98	0x3f153548	0.58284426
99	0xbeae7d36	-0.34079903
100	0xbf22dc47	-0.63617367
101	0xbfb50c6a	-1.4144413
102	0x3d935349	0.0719362
103	0x3f270fc8	0.65258455
104	0xbf099861	-0.53748137
105	0x3eab1104	0.3341142
106	0xbf107afe	-0.5643767
107	0x3e5c5be3	0.21519427
108	0xbd872eee	-0.06600748
109	0x3f0009c5	0.5001491
110	0x3e49b440	0.19697666
111	0xbefdc0bb	-0.49561104
112	0x3eccd4e5	0.40006176
113	0xbf0d8f00	-0.55296326
114	0x3eb08553	0.34476718
115	0xbfb1526b	-1.3853277
116	0x3f08a9a6	0.5338386
117	0xbcbf82f7	-0.023377879
118	0x3f3fbe45	0.74899703
119	0x3e3fad8e	0.1871855
120	0xbed4fb52	-0.41597992
121	0xbf0391ce	-0.51394355
122	0xbf5394eb	-0.82649106
123	0xbe8b69c9	-0.27229145
124	0xbf735d97	-0.9506468
125	0xbdafb0c5	-0.08578638
126	0x3e521861	0.20517112
127	0xbe6eab73	-0.2330759
128	0xbe404cc5	-0.18779285
129	0x3ebc0afa	0.36727124
130	0xbedc5043	-0.43029985
131	0xbdc7d5bb	-0.09757563
132	0x3eb2e822	0.34942728
133	0xbf1346fe	-0.575302
134	0xbeedf72d	-0.46477643
135	0x3ec82215	0.39088503
136	0x3e23a8f8	0.15982425
137	0x3f81355b	1.0094408
138	0xbe4ee153	-0.20203142
139	0x3efda7e3	0.4954215
140	0x3ea874df	0.32901666
141	0x3da24b59	0.07924528
142	0x3f681f25	0.9067252
143	0x3f28e8bd	0.6598013
144	0xbe875b64	-0.26436913
145	0xbcf5d150	-0.030007035
146	0xbd43097c	-0.047616467
147	0xbe28494e	-0.16434214
148	0x3f056e36	0.52121294
149	0xbf20aea6	-0.6276649
150	0xbf33b039	-0.7019077
151	0xbf51f177	-0.8200907
152	0xbe07d130	-0.13263392
153	0x3f36ed33	0.7145569
154	0xbd73fe3f	-0.05956864
155	0x3e2e830d	0.1704218
156	0xbf405117	-0.75123733
157	0x3ef53a62	0.47896105
158	0x3f2b7640	0.6697731
159	0xbe027e1b	-0.12743418
160	0xbeea48f1	-0.45758775
161	0x3f195918	0.5990157
162	0xbd02eb3a	-0.03196261
163	0x3e9bd8b4	0.3043877
164	0x3e801dad	0.2502264
165	0x3c73d099	0.0148812765
166	0x3f13513a	0.57545817
167	0x3d1bc26a	0.038027205
168	0x3e9ae9ee	0.302566
169	0xbf2cee58	-0.67551184
170	0x3ef9e9d7	0.48811218
171	0x3f078f47	0.52953
172	0xbc887aad	-0.016660059
173	0xbdce6dca	-0.10079534
174	0x3f109f55	0.5649312
175	0x3ece42dc	0.40285385
176	0x3db01222	0.085972086
177	0x3ee71769	0.45135048
178	0xbe60cedf	-0.21953915
179	0x3ee7f8a6	0.4530689
180	0x3de2ce09	0.11074454
181	0x3dd21ec3	0.102597736
182	0xbf7b0621	-0.98056227
183	0x3dc1d712	0.094648495
184	0xbe29ca88	-0.16581166
185	0xbf00c221	-0.5029622
186	0xbf8dac3b	-1.1068186
187	0xbdcbc64c	-0.099499315
188	0xbbde1951	-0.0067779203
189	0xbf951471	-1.1646863
190	0xbe9422d6	-0.28932828
191	0xbe462cb9	-0.19352998
192	0x3f37bd8e	0.7177361
193	0x3d813e9f	0.06310772
194	0x3f201441	0.62530905
195	0xbee32e49	-0.4437125
196	0x3e47af62	0.19500497
197	0xbe66fe01	-0.22557832
198	0x3ed0b4d6	0.40762967
199	0x3e16fc58	0.14744699
200	0x3f2fcd39	0.6867252
201	0x3ee79c8a	0.45236617
202	0xbdad54ec	-0.08463463
203	0x3ed60ea8	0.41808057
204	0xbe0320a0	-0.12805414
205	0xbe25e87e	-0.1620197
206	0x3de31958	0.11088818
207	0xbd9d5cb9	-0.07683701
208	0x3d88a3a4	0.06671837
209	0xbf6a5d4e	-0.9154862
210	0x3e2d0faf	0.16900514
211	0xbf4d3fb1	-0.8017531
212	0x3eca011d	0.39453974
213	0xbf7c84c3	-0.9864008
214	0xbe795711	-0.2434962
215	0xbeb89f69	-0.3605912
216	0xbe4f7543	-0.20259576
217	0x3f15743a	0.5838047
218	0x3e4d7f28	0.20068038
219	0xbf15c54c	-0.58504176
220	0xbe546e36	-0.20745167
221	0xbf411da4	-0.75435853
222	0xbec42d73	-0.38315925
223	0x3f563147	0.8366894
224	0xbe04298a	-0.12906471
225	0xbf050d26	-0.5197319
226	0xbe9f3b01	-0.31099704
227	0x3f082d44	0.5319407
228	0xbe3c5119	-0.18390311
229	0xbe7efe53	-0.24901704
230	0x3f297ae9	0.6620317
231	0x3f67bff6	0.90527284
232	0x3e55e873	0.20889454
233	0xbe8a2a47	-0.2698538
234	0x3f418ad2	0.7560245
235	0xbf2aca68	-0.667151
236	0xbd83a6aa	-0.06428273
237	0xbedd1748	-0.43181825
238	0x3ff24f59	1.8930465
239	0x3e90553d	0.28190032
240	0x3cb51249	0.022103446
241	0x3e2a2707	0.1661645
242	0x3dbe7eb6	0.09301512
243	0x3edb08e0	0.4278021
244	0x3e251cce	0.1612427
245	0xbe39aa5e	-0.18131396
246	0x3e7b3967	0.24533616
247	0xbf21c9a5	-0.6319831
248	0xbe27ac6f	-0.16374372
249	0x3e3fbc02	0.18724063
250	0x3f21f891	0.6326991
251	0xbf48d9bd	-0.7845724
252	0xbf039ed5	-0.51414233
253	0x3f3d7b36	0.7401613
254	0x3f02ba88	0.51065874
255	0xbe23be79	-0.15990628

layers.2.bias f4 [12]
0	0x3e99005c	0.29883087
1	0x3ce574ae	0.028009739
2	0xbdcfe543	-0.1015115
3	0xbcdaa29d	-0.026688868
4	0x3d8ee6d4	0.06977621
5	0x3eb70ae1	0.35750487
6	0x3e22eb67	0.15910111
7	0xbe3cbe7c	-0.18432039
8	0xbeb5388f	-0.35394713
9	0x3f9ba21b	1.2158846
10	0xbe1484b0	-0.14503741
11	0xbe895c52	-0.26828247

layers.3.weight f4 [2, 12]
0	0x3e048cc9	0.1294433
1	0xbf21b813	-0.631715
2	0xbda27128	-0.07931739
3	0x3f037423	0.51349086
4	0xbe7e2b98	-0.24821317
5	0x3d5a8a1d	0.05335437
6	0xbf9f4afb	-1.2444757
7	0x3f66f0eb	0.9021136
8	0x3e1b5ac1	0.15171339
9	0xbfc9cd88	-1.5765848
10	0xbd92f4de	-0.07175611
11	0x3f830438	1.0235662
12	0x3e51b0f4	0.20477659
13	0xbe236520	-0.15956545
14	0xbf128d91	-0.57247263
15	0xbeac2ae0	-0.3362646
16	0x3f36d628	0.71420527
17	0xbffbd36f	-1.96739
18	0x3e59ab6f	0.21256803
19	0x3dbc6035	0.091980375
20	0xbed3f03a	-0.41394216
21	0xbdead6e3	-0.11466768
22	0x3f12db5b	0.5736596
23	0xbf2bdbe7	-0.6713242

layers.3.bias f4 [2]
0	0xbe88bb70	-0.26705503
1	0xbf003342	-0.50078213
